checkpoint/machine-1-1/model.pth (torch, 114410 bytes, 37 tensors)

rnn.weight_ih_l0 f4 [128, 1]
0	0xbcb0deb4	-0.021590568
1	0x3cd35dc2	0.025801543
2	0x3e03bdb5	0.12865336
3	0xbe55d15b	-0.20880644
4	0xbe334248	-0.17505753
5	0x3d8236e9	0.063581295
6	0xbc1f9f19	-0.009742522
7	0x3d0993f1	0.033588354
8	0xbc2cb109	-0.010540255
9	0xbe346e46	-0.17620191
10	0xbe2cb8c8	-0.16867363
11	0xbda1e605	-0.07905201
12	0xbe3bd3de	-0.1834254
13	0xbe028f07	-0.12749873
14	0xbd94337a	-0.07236381
15	0xbdde553c	-0.10856101
16	0xbe43acfe	-0.1910896
17	0xbe23631e	-0.15955779
18	0x3d57a6f8	0.05264947
19	0x3b3fd84c	0.002927321
20	0xbe064b53	-0.13114671
21	0xbde991d3	-0.11404767
22	0xbd7f891d	-0.06238662
23	0xbe059e37	-0.13048635
24	0xbe02043b	-0.12696926
25	0x3dc85ac0	0.09782934
26	0x3d6f8ed6	0.05848583
27	0xbdaf8195	-0.08569638
28	0xbe2505c6	-0.16115484
29	0x3dcfe681	0.10151387
30	0xbe1c7900	-0.15280533
31	0x3e233b9f	0.15940712
32	0xbda263f4	-0.07929221
33	0xbbf68984	-0.0075237174
34	0x3e29dd6d	0.16588373
35	0x3cf37986	0.029721033
36	0x3dab52ce	0.08365403
37	0x3df411e3	0.11917474
38	0x3c31af70	0.01084505
39	0xbd719e06	-0.058988594
40	0xbd9cd0f3	-0.076570414
41	0xbd9b315b	-0.07577773
42	0x3db6216a	0.08893092
43	0xbdc2fe40	-0.095211506
44	0xbe054669	-0.1301514
45	0x3df3abf3	0.11898031
46	0x3ded4b15	0.115865864
47	0xbdcdfa32	-0.100574866
48	0xbe1ebb4b	-0.15501134
49	0x3d1060b3	0.03524847
50	0x3e075e3c	0.13219541
51	0x3e0ed5b6	0.13948712
52	0x3d8d1503	0.06888773
53	0xbd378746	-0.04480674
54	0xbe0433f9	-0.12910451
55	0x3d01f322	0.03172601
56	0x3dbf446b	0.093392216
57	0xbe161ee9	-0.14660229
58	0x3dfb1fa6	0.12261896
59	0xbdabe87a	-0.08393951
60	0x3de01030	0.109405875
61	0xbdedb263	-0.1160629
62	0x3e03ed0f	0.128834
63	0xbd7d7826	-0.06188216
64	0xbc566b29	-0.013087072
65	0xbdfd754e	-0.1237589
66	0xbe033b45	-0.12815578
67	0xbdaba4a3	-0.08381011
68	0xbba30d6d	-0.0049759657
69	0xbdd233c9	-0.102637835
70	0x3d9256fa	0.07145496
71	0x3d354faa	0.044265427
72	0xbd82011f	-0.0634787
73	0xbe1af828	-0.15133727
74	0xbda26788	-0.07929903
75	0xbdea4a7b	-0.11439987
76	0x3e134a9e	0.14383933
77	0x3d99dc1a	0.07512684
78	0xbd869c18	-0.06572741
79	0xbe0f49fe	-0.1399307
80	0xbe06f23d	-0.13178344
81	0x3e0e63d8	0.13905275
82	0xbc9ed5e6	-0.019389104
83	0x3ca44440	0.020052075
84	0x3e21be41	0.15795232
85	0xbc668904	-0.014070753
86	0x3dbe140d	0.09281168
87	0x3dbaca84	0.09120658
88	0xbe331dee	-0.17491886
89	0x3d5f9202	0.054582603
90	0xbcf56905	-0.029957304
91	0xbc304180	-0.010757804
92	0xbdb31d66	-0.08745842
93	0xbae9d796	-0.0017840739
94	0xbd8a75c1	-0.06760741
95	0xbc9c09d9	-0.019047664
96	0x3e133a56	0.14377722
97	0xbdfb4077	-0.12268155
98	0x3c45ba9e	0.012068419
99	0x3d200180	0.03906393
100	0xbda87d12	-0.0822698
101	0xbd44a50f	-0.048008975
102	0x3c95a6e6	0.01826806
103	0xbe1e29c2	-0.15445617
104	0x3e287859	0.16452159
105	0x3de3ec44	0.111290485
106	0x3e2451be	0.16046807
107	0x3dd0f951	0.10203803
108	0xbdf366fc	-0.11884877
109	0xbc9ea58b	-0.019366046
110	0xbe0735db	-0.13204138
111	0xbe109226	-0.14118251
112	0xbc049f87	-0.008094675
113	0xbdaa28eb	-0.08308586
114	0xbe1a8a22	-0.15091756
115	0x3d9749ae	0.073871
116	0x3e15d5e4	0.14632374
117	0xbd33c3d9	-0.043887947
118	0xbdb23f94	-0.08703533
119	0xbe071187	-0.1319028
120	0x3d351e33	0.044218253
121	0x3d73047d	0.059330452
122	0xbd23d5b6	-0.039998733
123	0xbd980c2a	-0.07424195
124	0xbb16bc73	-0.0023000508
125	0x3d9fb749	0.07798631
126	0xbd37cbe2	-0.044872172
127	0xbde0f737	-0.109846525

rnn.weight_hh_l0 f4 [128, 32]
0	0xbca93a14	-0.020657577
1	0xbd700906	-0.058602355
2	0xbd54a7d9	-0.051917884
3	0xbd1492cf	-0.03627282
4	0x3c8478a5	0.016170809
5	0xbd2df77f	-0.04247236
6	0x3d221189	0.039567504
7	0x3c9877b5	0.018611768
8	0xbbb73b16	-0.0055917604
9	0x3d275cef	0.040860113
10	0x3b062731	0.0020470137
11	0x3cbebcc3	0.023283368
12	0xbd38913a	-0.045060374
13	0xbd09c4f0	-0.03363508
14	0x3bec4c75	0.007211263
15	0x3aba7abf	0.0014227255
16	0x3bb12e03	0.0054070964
17	0x3d0aef2b	0.033919495
18	0xbc7727b5	-0.0150851505
19	0xbd21be81	-0.03948832
20	0xbd12ebda	-0.035869457
21	0xbc384dc0	-0.011249006
22	0x3d84c2e3	0.06482484
23	0x3d92a8de	0.07161115
24	0x3c832384	0.016008146
25	0xbdb7ca43	-0.08974125
26	0xbc9d22f6	-0.01918171
27	0xb9a075b3	-0.0003060527
28	0x3d41da22	0.04732717
29	0x3c5d89bd	0.013521609
30	0xbc3dfce3	-0.011595937
31	0xbc720965	-0.014772748
32	0xb98a1fed	-0.00026345198
33	0xbdefea84	-0.11714652
34	0x3dc7e6b9	0.09760804
35	0x3e065d06	0.13121423
36	0xbdcc8f06	-0.09988217
37	0x3da416cc	0.08012161
38	0xbc12a9b1	-0.00895159
39	0xbdeb0603	-0.11475756
40	0xbd32625e	-0.04355084
41	0xbe07bd3a	-0.13255778
42	0x3db26c4c	0.08712062
43	0x3d29108b	0.041275542
44	0xbe0d0ad6	-0.13773665
45	0xbd732d3d	-0.059369314
46	0xbdae8d30	-0.08523023
47	0xbdfe8f36	-0.12429659
48	0x3dee8312	0.116460934
49	0xbdf0cb62	-0.11757542
50	0x3d905297	0.07047003
51	0xbd3cd9ea	-0.046106257
52	0xbe16a03a	-0.14709559
53	0xbe01c93a	-0.12674418
54	0x3e0d24bd	0.13783546
55	0x3c0826be	0.008310018
56	0x3dfd65d5	0.123729385
57	0xbd556ff3	-0.052108716
58	0xbd5eaa31	-0.054361526
59	0xbd16bf50	-0.036803544
60	0xbc22da97	-0.009939811
61	0x3d55f6b8	0.052237242
62	0xbcb0337d	-0.021508927
63	0x3d767bed	0.06017678
64	0x3e151a68	0.14560854
65	0xbd1687b6	-0.036750518
66	0xbbdc9d5b	-0.0067326254
67	0x3d51ed36	0.051251613
68	0xbd54debf	-0.05197024
69	0x3df8f646	0.12156348
70	0x3e19828c	0.14991206
71	0x3dcffad1	0.10155261
72	0x3d116ef9	0.035506222
73	0xbe4fea11	-0.20304133
74	0x3d30d942	0.043175943
75	0x3e341358	0.17585504
76	0x3d88cc22	0.0667956
77	0xbbd3c80c	-0.0064630564
78	0x3ca733fb	0.020410528
79	0x3e0104dc	0.1259951
80	0x3e0da363	0.13831858
81	0xbd0592d4	-0.03261073
82	0x3c9db984	0.0192535
83	0xbd805126	-0.06265478
84	0x3d64f517	0.0558978
85	0x3d69db98	0.057094187
86	0xbb420f8d	-0.002961132
87	0x3e1fe6cb	0.15615384
88	0x3def3bd6	0.11681335
89	0x3e010c8d	0.12602444
90	0x3db54584	0.0885115
91	0x3d032806	0.03202059
92	0xbdece14f	-0.11566412
93	0x3c9403ff	0.018068312
94	0xbe22a651	-0.15883757
95	0x3d56d80b	0.05245213
96	0x3d0e1779	0.034690354
97	0xbd898019	-0.06713886
98	0xbc0a8c25	-0.008456265
99	0xb981bd3b	-0.00024745785
100	0xbb8b0876	-0.004242952
101	0xbcf61101	-0.030037405
102	0xbd62063a	-0.05518172
103	0xbdb9e76e	-0.09077345
104	0xbbcd5e5c	-0.006267352
105	0xbe019120	-0.12653017
106	0x3dbd5f08	0.092466414
107	0xbd4418b5	-0.047875125
108	0xbe35bc6b	-0.17747657
109	0x3d143f7b	0.036193352
110	0xbca1552a	-0.01969393
111	0x3d5c04c6	0.05371549
112	0x3db45e23	0.08807018
113	0xbded97bc	-0.11601207
114	0x3bf7012c	0.0075379815
115	0xbe52546d	-0.20540018
116	0xbdf2664c	-0.11835918
117	0xbd2a750f	-0.041615542
118	0x3e1c3f54	0.15258533
119	0x3e1ce340	0.15321064
120	0x3d27b8d7	0.04094776
121	0xbe418b61	-0.18900825
122	0x3d1f976c	0.038962767
123	0x3c0998fb	0.00839829
124	0xbda3c55a	-0.07996626
125	0xbcdcf420	-0.026971877
126	0xbddcdddc	-0.10784504
127	0x3c37ddb6	0.011222294
128	0x3d9cd218	0.0765726
129	0xbcfd0a79	-0.030888783
130	0xbd3941b9	-0.045228694
131	0x3ccb014c	0.024780892
132	0x3d0b6bed	0.034038473
133	0x3d8eedc0	0.06978941
134	0xbd8f3170	-0.06991851
135	0x3d471bd1	0.048610512
136	0xbc9f42fc	-0.01944112
137	0x3d815221	0.06314493
138	0x3d900258	0.07031697
139	0x3e017b13	0.12644605
140	0xbd66f201	-0.056383137
141	0x3dec0f3e	0.11526345
142	0xbdc461aa	-0.095889404
143	0xbd2efbf0	-0.042720735
144	0x3deeb5dc	0.11655781
145	0x3cfeeed3	0.03111974
146	0xbd27b289	-0.04094175
147	0x3d90ea0f	0.07075893
148	0xbd4e5d06	-0.050381683
149	0x3d58b6a2	0.052908547
150	0x3ddff2bc	0.1093497
151	0x3d05e1c8	0.032686025
152	0xbd8a12ec	-0.0674189
153	0x3d8f4fc9	0.0699764
154	0x3d852b37	0.06502383
155	0x3bad42cb	0.0052875034
156	0xbd8c0477	-0.06836789
157	0xbca2dced	-0.019880736
158	0xbdcc89d3	-0.099872254
159	0x3d380fb9	0.04493687
160	0x3d58bf46	0.052916788
161	0xbd22e74e	-0.03977137
162	0x3dc07e79	0.09399123
163	0x3d67a065	0.05654945
164	0xbc8ac4c2	-0.016939525
165	0xbd8581d5	-0.06518904
166	0x3d5b7753	0.053580593
167	0xbd48f93c	-0.049065813
168	0xbd8740e3	-0.06604173
169	0x3d97860e	0.07398616
170	0xbdeb36e1	-0.11485077
171	0x3bc19d62	0.005908654
172	0xbb238a96	-0.002495443
173	0xbd7357bd	-0.059409846
174	0xbd0f50bb	-0.0349891
175	0x3d83914b	0.06424197
176	0xbd452d41	-0.04813886
177	0xbd5c0972	-0.053719945
178	0x3d7ca5eb	0.06168167
179	0xbc31ec45	-0.010859554
180	0x3e099c6c	0.13438576
181	0x3b5ed0bc	0.0033998927
182	0x3c011fa4	0.007881079
183	0x3e0d64c4	0.1380797
184	0x3d3ac134	0.04559441
185	0x3bbf881d	0.0058450834
186	0x3d4ef718	0.050528616
187	0xbc06aaa4	-0.008219395
188	0x3d8a8a99	0.06764717
189	0x3c2d7dd1	0.010589079
190	0x3dc16c98	0.09444541
191	0x3d76f2ca	0.060290135
192	0xbd66a7ec	-0.056312487
193	0xbddd9f71	-0.10821427
194	0xbcdb0614	-0.026736297
195	0x3e1ce5ae	0.15321991
196	0xbdcb2686	-0.09919457
197	0x3dc3a385	0.09552673
198	0x3dccb1a0	0.09994817
199	0xbc41f442	-0.011838021
200	0xbde6705a	-0.11251898
201	0xbd42a607	-0.047521617
202	0x3d3d7752	0.04625637
203	0xbe1bac46	-0.15202436
204	0x3cfb2d98	0.03066139
205	0xbd9a8a9d	-0.0754597
206	0xbdd92aaa	-0.10603841
207	0x3ccd74a0	0.025080025
208	0x3d972ac0	0.07381201
209	0x3e0371ac	0.12836331
210	0xbce4fd80	-0.02795291
211	0xbd638545	-0.055547018
212	0xbb8d0cce	-0.004304505
213	0xbe1392e4	-0.14411503
214	0xbd77c671	-0.060491983
215	0x3e1ffa1f	0.15622757
216	0xbd62eb03	-0.055399906
217	0x3dd01694	0.101605564
218	0xbca706fc	-0.020389073
219	0xbd6827be	-0.056678526
220	0xbdaa9f5f	-0.08331179
221	0xbdba628a	-0.09100826
222	0x3da6afcd	0.08139
223	0x3c5e62f4	0.013573397
224	0x3dca82e6	0.09888248
225	0x3d4ab6dd	0.0494908
226	0x3d443cd1	0.04790956
227	0xbdb871b2	-0.09006061
228	0xbe333104	-0.17499167
229	0x3d794954	0.060860947
230	0x3e41b5ec	0.18917054
231	0xbd583f11	-0.05279452
232	0xbd3e6789	-0.046485458
233	0xbe1e014c	-0.15430182
234	0xbc7e744e	-0.015530659
235	0xbde3099a	-0.11085816
236	0x3cf71b3f	0.03016436
237	0xbdd81b3f	-0.10552072
238	0xbd32d9fe	-0.043664925
239	0xbc68a5f0	-0.014199719
240	0x3dd3ac2f	0.10335576
241	0x3df2a5ac	0.11848006
242	0xbdfdaabc	-0.123860806
243	0x3e0afcd6	0.13573012
244	0xbe07284a	-0.13198963
245	0xbdf29620	-0.1184504
246	0x3da6f704	0.08152583
247	0x3e3d0cef	0.18461965
248	0xbcccb02b	-0.024986347
249	0x3cba664e	0.02275386
250	0x3d685979	0.056725953
251	0x3d3dbe42	0.046324022
252	0x3d4a388c	0.049370334
253	0x3d87ac1c	0.06624624
254	0xbe2fb4a2	-0.1715875
255	0xbd1ec41f	-0.038761254

rnn.bias_ih_l0 f4 [128]
0	0x3df35298	0.11880988
1	0x3d9c6df6	0.07638161
2	0xbe54f7df	-0.2079768
3	0xbe3c645a	-0.18397656
4	0xbe2a42e6	-0.16627082
5	0x3dd5172b	0.104048096
6	0xbe1c4100	-0.1525917
7	0xbb1fcb90	-0.0024382807
8	0xbbe1a15d	-0.006885691
9	0xbe335726	-0.17513713
10	0xbd8c9476	-0.06864254
11	0xbdf6f20b	-0.12057885
12	0xbdb03317	-0.086034946
13	0xbde59233	-0.11209526
14	0x3d5d1d2e	0.053982906
15	0xbde80643	-0.11329319
16	0xbd905e0f	-0.0704919
17	0xbcc0f536	-0.023554426
18	0xbe0bf4cf	-0.13667606
19	0x3dd99623	0.106243394
20	0x3e0f191b	0.1397442
21	0x3d8126df	0.06306242
22	0xbe214375	-0.15748389
23	0xbe6eaed8	-0.23308885
24	0x3dafa5e4	0.08576563
25	0xbe0206a3	-0.12697844
26	0xbe1b3a42	-0.15158942
27	0xbe58bee4	-0.21166569
28	0x3d59168e	0.053000025
29	0xbd9a0aa9	-0.075215645
30	0xbe32ce77	-0.17461573
31	0xbd77bca6	-0.060482644
32	0xbca4c5ae	-0.020113792
33	0xbd803961	-0.06260944
34	0xbd8b4a64	-0.06801298
35	0x3d366959	0.04453406
36	0x3c5267e4	0.012842152
37	0x3d3f5a74	0.046717122
38	0xbdc60cf6	-0.09670441
39	0xbe470aa6	-0.19437656
40	0xbdde6b8a	-0.10860355
41	0xbda7c306	-0.08191495
42	0xbe4479a6	-0.1918703
43	0xbe037bd8	-0.12840211
44	0x3d298ac5	0.041392107
45	0xbb2dde16	-0.0026530079
46	0xbd660570	-0.05615753
47	0xbcb65c42	-0.022260789
48	0x3d8063e8	0.062690556
49	0xbd8034b1	-0.0626005
50	0x3c3a3427	0.011364973
51	0xbcfe7e40	-0.03106606
52	0x3e0035ec	0.1252057
53	0xbc7869b9	-0.015161925
54	0xbe2bf117	-0.16791187
55	0xbd643e5f	-0.055723544
56	0xbdcdd1e2	-0.100497976
57	0x3e15faef	0.14646505
58	0xbde874c0	-0.11350393
59	0xbe3d374d	-0.18478127
60	0x3dbb5e83	0.09148886
61	0xbd8a9edb	-0.067685805
62	0xbe2f0d5c	-0.1709494
63	0x3d880ee6	0.06643467
64	0xbdf48d4d	-0.119410135
65	0xbe2e3898	-0.17013776
66	0x3b8eff94	0.0043639634
67	0xbd28008a	-0.04101614
68	0x3dcfdbd3	0.1014935
69	0xbcc67f6b	-0.02423068
70	0xbe118176	-0.14209542
71	0xbd7a24fa	-0.06107042
72	0x3cb51bc5	0.022107968
73	0x3de69bb5	0.112601675
74	0x3e1dee7a	0.15423003
75	0xbd5a84f8	-0.053349465
76	0xbe091aae	-0.13389084
77	0x3d404b59	0.046946857
78	0xbe17dc1c	-0.14830059
79	0xbe1f0855	-0.15530522
80	0x3d1c431f	0.03814995
81	0x3e21502a	0.15753236
82	0xbd147767	-0.036246683
83	0x3e4d5c45	0.2005473
84	0xbd4d7275	-0.050157983
85	0x3d568ac8	0.052378446
86	0xbe112675	-0.14174826
87	0xbde2a8fc	-0.110673875
88	0x3e2c7fcf	0.1684563
89	0x3e482427	0.19545041
90	0xbd99e5c9	-0.07514531
91	0xbe0a25dc	-0.13491005
92	0x3e20f60e	0.15718862
93	0x3dca5883	0.098801635
94	0x3c3e031b	0.01159742
95	0x3d8f4593	0.06995692
96	0x3e075344	0.13215357
97	0xbcdb54fa	-0.026773918
98	0xbe286ce6	-0.16447791
99	0xbd4904b6	-0.04907676
100	0x3d6a2d0d	0.05717187
101	0xbe2b16d6	-0.1670793
102	0xbe178808	-0.14797986
103	0xbcfc8390	-0.030824453
104	0xbd5de4e4	-0.054173365
105	0x3e10f1fc	0.1415481
106	0xbd0cf34e	-0.03441172
107	0xbd85533a	-0.06510015
108	0x3d98de3f	0.07464265
109	0x3d77f0e5	0.06053247
110	0xbde54f76	-0.111967966
111	0xbde551df	-0.11197256
112	0xbe12d333	-0.14338379
113	0xbca04058	-0.019561931
114	0x3d3a03b0	0.045413673
115	0xbe1812a7	-0.14850865
116	0xbe23b9d1	-0.15988852
117	0xbdf64b40	-0.120260715
118	0x3dc1ade9	0.09456999
119	0x3dae1c03	0.085014366
120	0x3d9df388	0.077124655
121	0xbd99bb9a	-0.07506485
122	0xbdbc406d	-0.09191976
123	0x3d18d536	0.03731271
124	0x3adfcad3	0.0017073996
125	0xbe0806ac	-0.13283795
126	0x3de8d079	0.11367888
127	0xbd31399d	-0.043267835

rnn.bias_hh_l0 f4 [128]
0	0xbdbb5ffe	-0.091491684
1	0xbdffed85	-0.12496475
2	0xbe3c67a9	-0.18398918
3	0xbde14718	-0.10999888
4	0xbe2e42e9	-0.17017712
5	0xbe031273	-0.12800007
6	0x3d0d5e2a	0.03451363
7	0xbdedcf7b	-0.116118394
8	0xbe09e6c0	-0.1346693
9	0xbcfa3784	-0.03054405
10	0xbe3ff00a	-0.18743911
11	0xbdab83df	-0.08374762
12	0xbd8be837	-0.06831401
13	0xbda65142	-0.081209674
14	0x3e0e220a	0.13880172
15	0x3ddbbbf7	0.10729211
16	0x3daceb8e	0.08443366
17	0xbe512c3c	-0.2042703
18	0xbdba49a7	-0.09096079
19	0x3db2dedd	0.08733914
20	0xbe29f225	-0.16596277
21	0xbe4d67d3	-0.20059137
22	0x3ca892e8	0.020577863
23	0xbd4ef36d	-0.050525118
24	0x3cb203ad	0.021730268
25	0x3dc026a2	0.093823686
26	0x3dcdefee	0.100555286
27	0x3d10ad94	0.035321787
28	0x3e494a27	0.19657193
29	0x3bc3660e	0.0059630936
30	0xbdb0f75e	-0.086409315
31	0xbc32621f	-0.010887652
32	0xbe38deb4	-0.18053705
33	0x3ddfbd6e	0.10924803
34	0x3de538d4	0.1119248
35	0xbd63a85a	-0.055580474
36	0x3c9b2fdf	0.018943725
37	0xbd4e2512	-0.05032832
38	0x3dcb4497	0.09925192
39	0xbdb688d2	-0.08912815
40	0xbdcd876e	-0.10035597
41	0xbe136ca9	-0.1439692
42	0xbd9b0b41	-0.07570506
43	0x3d90a65f	0.07062983
44	0x3e08395a	0.13303128
45	0xbe261da5	-0.16222246
46	0xbe42ec66	-0.19035491
47	0xbdf42ec8	-0.11922985
48	0xbd9aeb6b	-0.07564434
49	0xbe1c92b5	-0.1529034
50	0xbe20654a	-0.15663639
51	0xbb6d703d	-0.003623023
52	0x3e226448	0.15858567
53	0x3db98569	0.09058649
54	0x3d4124be	0.04715418
55	0x3d5f0941	0.054452185
56	0xbd51fed9	-0.051268432
57	0x3e114c73	0.1418932
58	0xbd10e044	-0.035370126
59	0x3dae77bb	0.085189305
60	0xbcf65f1a	-0.030074645
61	0x3db69067	0.08914261
62	0x3e0346c6	0.12819967
63	0xbe4926ed	-0.19643755
64	0xbd339d82	-0.043851383
65	0xbda07877	-0.07835477
66	0x3dcc9e9d	0.099911906
67	0xbc583609	-0.013196477
68	0x3d887450	0.0666281
69	0xbcc3b07c	-0.023887865
70	0x3da0cffa	0.078521684
71	0xbe17f4f4	-0.14839536
72	0x3b5cf0a4	0.003371277
73	0x3e24ed52	0.16106156
74	0x3d08c6d8	0.033392757
75	0xbdd4177a	-0.1035604
76	0x3e2c6525	0.16835459
77	0x3d31bb37	0.043391433
78	0x3e2ef586	0.17085847
79	0xbd8dbbb8	-0.0692057
80	0xbe1422d7	-0.14466415
81	0x3d35666e	0.044287138
82	0xbd0730a4	-0.03300537
83	0x3d140f17	0.036147203
84	0xbd8c89ab	-0.068621956
85	0x3c6289b5	0.013826777
86	0xbdb9daff	-0.09074973
87	0xbd8c690c	-0.068559736
88	0xbe18d62f	-0.14925455
89	0x3e024306	0.1272088
90	0x3d208ecd	0.039198685
91	0x3dc83695	0.09776036
92	0xbcb0835b	-0.02154701
93	0xbca50797	-0.02014522
94	0x3e01fde5	0.1269451
95	0xbdc716c1	-0.09721137
96	0xbd816105	-0.06317333
97	0xbd55bd14	-0.052182272
98	0xbe42dabb	-0.19028752
99	0xbdec021f	-0.11523842
100	0xbde95fd5	-0.11395232
101	0xbcaaa047	-0.02082838
102	0xbe2593a3	-0.161696
103	0x3cff26ac	0.03114637
104	0x3dc25ab2	0.09489955
105	0x3dc5c2e8	0.09656316
106	0x3dba4217	0.09094637
107	0x3df4c617	0.11951845
108	0xbe531751	-0.20614363
109	0x3d44bf7c	0.048034176
110	0x3c079984	0.008276347
111	0xbc7f9d20	-0.015601426
112	0xbd516481	-0.05112124
113	0xbca49df9	-0.020094858
114	0xbe61656b	-0.22011344
115	0x3e0cb5e6	0.13741264
116	0x3dc7690c	0.09736833
117	0xbdf4c12e	-0.119509086
118	0x3daf1317	0.08548563
119	0xbdebd113	-0.11514487
120	0x3c0060bc	0.007835563
121	0xbdda9188	-0.10672289
122	0xbe1a7161	-0.15082313
123	0x3dceb1f7	0.10092538
124	0xbde63add	-0.11241696
125	0xbe1fd872	-0.15609911
126	0x3db1f604	0.08689502
127	0x3de9d82b	0.11418184

gcn.lin_n.weight f4 [32, 32]
0	0xbe228f16	-0.15874895
1	0xbe54bd61	-0.20775367
2	0x3e058fd8	0.13043153
3	0xbcd3f422	-0.025873248
4	0x3e2d3ed4	0.16918498
5	0x3d003adc	0.031306133
6	0x3c75789e	0.014982371
7	0x3d630b16	0.055430494
8	0xbc76bcee	-0.015059693
9	0x3e257977	0.16159616
10	0x3d191aaf	0.037378963
11	0xbd59b040	-0.0531466
12	0xbc5139d4	-0.012770135
13	0x3bac3411	0.0052552302
14	0x3e063bb0	0.13108706
15	0xbc3b2951	-0.011423425
16	0xbe2bb0bc	-0.16766638
17	0x3cb91409	0.022592561
18	0x3c103ad6	0.00880309
19	0x3de4efcb	0.111785494
20	0xbe21a97c	-0.1578731
21	0x3df43dc5	0.11925844
22	0xbe4f2c96	-0.20231852
23	0x3e01e2c4	0.1268416
24	0xbda0b1f4	-0.07846442
25	0x3c7271cc	0.014797639
26	0x3da11dc5	0.07867006
27	0x3cd7e4da	0.026354242
28	0x3e00aabd	0.12565131
29	0x3caae69c	0.020861916
30	0x3e00b0e9	0.12567486
31	0x3da24d20	0.07924867
32	0x3d56f97e	0.052484028
33	0x3b1405c5	0.0022586447
34	0x389b712f	7.412058e-05
35	0x3c94efe3	0.018180793
36	0xbaaa728a	-0.0013004106
37	0xbd01429c	-0.031557664
38	0x3c6210cb	0.013797949
39	0xbd9e701f	-0.07736229
40	0xbcb7391d	-0.0223661
41	0x3db97b30	0.09056699
42	0x3dfa79cf	0.122302644
43	0x3da8056c	0.08204159
44	0x3d481deb	0.048856657
45	0x3ae2ff90	0.0017318595
46	0x3d585a3a	0.05282042
47	0x3b609a4b	0.0034271653
48	0xbd2adba3	-0.04171337
49	0xbbda63e0	-0.006664738
50	0xbb393388	-0.0028259475
51	0xbd4c5d39	-0.04989359
52	0x3d457268	0.04820481
53	0xbd3103bb	-0.04321645
54	0x3dcaabc5	0.09896044
55	0x3e0c95c4	0.13729006
56	0x3dba82ec	0.091070026
57	0x3d3c5f8c	0.045989558
58	0xbce3accd	-0.027792359
59	0x3d01dd06	0.031704925
60	0x3be261ee	0.006908647
61	0x3d070916	0.03296765
62	0x3dc86eb2	0.097867385
63	0x3cc124ea	0.023577172
64	0x3c86aa34	0.016438581
65	0x3e28a30f	0.16468452
66	0xbd2ee443	-0.042698156
67	0x3e05750d	0.13032933
68	0xbcb93963	-0.022610372
69	0x3e433a2e	0.19065163
70	0xbcc51bf4	-0.02406118
71	0x3dbb23dc	0.09137699
72	0x3db0c114	0.08630577
73	0xbe0f4c89	-0.1399404
74	0xbd00c8cb	-0.03144149
75	0xb9d6410c	-0.00040865724
76	0x3b95f6dd	0.0045765475
77	0xbe12217e	-0.14270589
78	0x3db98bee	0.090598926
79	0x3e4523f7	0.19252001
80	0xbd80ed2d	-0.06295238
81	0xbd9378c7	-0.07200771
82	0xbab3043d	-0.0013657879
83	0xbe339795	-0.17538293
84	0x3dd4c9b7	0.103900366
85	0x3df805f1	0.12110508
86	0xbcd4e6ad	-0.025988901
87	0xbbf3b104	-0.0074368734
88	0xbd522ec7	-0.05131414
89	0xbe078cf3	-0.13237362
90	0x3e32d587	0.17464267
91	0xbdbad0be	-0.09121846
92	0x3d8d916a	0.06912501
93	0x3d3e7530	0.046498477
94	0xbb70ac7a	-0.0036723898
95	0xbdb5e718	-0.08881968
96	0xbd74f478	-0.059803456
97	0xbe173cf3	-0.14769344
98	0xbdba36eb	-0.09092506
99	0xbe056602	-0.13027194
100	0xbe183133	-0.14862518
101	0xbd3b43f0	-0.045719087
102	0x3db0a617	0.08625429
103	0x3d5ab9f3	0.05339999
104	0xbd6b1b21	-0.05739892
105	0xbcd845c7	-0.02640046
106	0xbda91bc7	-0.08257251
107	0x3c9a5afe	0.018842217
108	0xbdd38c83	-0.10329535
109	0xbde822a1	-0.1133473
110	0x3c50c373	0.012741911
111	0xbc617be4	-0.013762448
112	0x3e0fcd54	0.1404317
113	0x3c4c11b2	0.012455391
114	0xbdefbaae	-0.11705528
115	0x3e14083d	0.14456268
116	0x3df099ab	0.1174806
117	0x3dd50c11	0.10402692
118	0x3c6987aa	0.014253536
119	0xbc7a6fde	-0.01528546
120	0x3e08b73f	0.13351153
121	0x3df9dd09	0.12200362
122	0xbd41073d	-0.047126044
123	0xbdc76357	-0.097357444
124	0xbd31e52c	-0.043431446
125	0xbdcc9ffe	-0.099914536
126	0xbd8abcb8	-0.067742765
127	0xbd8f88bd	-0.07008503
128	0xbd2cb0f5	-0.042160947
129	0xbd04aa17	-0.032388773
130	0xbe613d68	-0.21996081
131	0xbde761b4	-0.11297932
132	0xbdf46859	-0.11933965
133	0xbded14e8	-0.11576253
134	0x3e307c4d	0.17234917
135	0x3db980d7	0.090577774
136	0x3cd2ed15	0.025747815
137	0xbd4bd468	-0.049763113
138	0xbcfa6ff3	-0.03057096
139	0xbde6c47b	-0.112679444
140	0x3af00020	0.0018310584
141	0x3e09fbb3	0.13474922
142	0xbc863c37	-0.016386135
143	0xbd05740f	-0.032581385
144	0xbd8ad9a0	-0.0677979
145	0x3e05480c	0.13015765
146	0xbd739b6d	-0.059474397
147	0x3d3f9329	0.046771202
148	0x3e18e673	0.1493166
149	0xbc4e6702	-0.012597801
150	0x3e2064d1	0.15663458
151	0xbd8f6134	-0.07000962
152	0xbc17ad4f	-0.009257629
153	0x3c4c31a7	0.01246301
154	0x3d4e3549	0.050343785
155	0xbd6cbec3	-0.057799112
156	0xbc0b0616	-0.008485338
157	0x3d870137	0.065920286
158	0xbc59ee76	-0.013301482
159	0xbaec5e23	-0.0018033426
160	0x3de3481e	0.1109774
161	0x3e3622c4	0.177867
162	0xbc270c4b	-0.010195802
163	0xbdb90404	-0.09033969
164	0x3c92a98f	0.017903117
165	0xbd0acbc1	-0.03388572
166	0x3e3d9938	0.1851548
167	0xbdf0cc6f	-0.117577426
168	0x3dfff5ee	0.12498079
169	0x3d358468	0.044315726
170	0x3d9c2d64	0.07625845
171	0xbd5dad8e	-0.054120593
172	0x3d2eea20	0.042703748
173	0x3d0a1871	0.033714715
174	0xbe289bba	-0.16465655
175	0x3e413b51	0.18870284
176	0x3db33047	0.087494425
177	0xbe002d79	-0.12517346
178	0x3e06bbac	0.13157529
179	0xbe4afe9d	-0.1982369
180	0x3e33112a	0.17487016
181	0xbe1c8be0	-0.15287733
182	0xbd7c24cb	-0.061558526
183	0xbdf2e0fd	-0.11859319
184	0xbe2d0176	-0.16895089
185	0xbe509698	-0.20369947
186	0xbd09acaf	-0.03361195
187	0x3d903e57	0.070431404
188	0xbe435128	-0.19073927
189	0x3d8da303	0.06915858
190	0xbd53c96c	-0.051705763
191	0x3d23a8b0	0.039955795
192	0x3dff8aad	0.12477622
193	0x3db8906b	0.090119205
194	0x3d8480d7	0.06469887
195	0xbd9e02e4	-0.07715395
196	0x3dac390a	0.08409317
197	0x3d65241c	0.05594264
198	0xbdf09afc	-0.11748311
199	0x3e27128c	0.16315669
200	0xbc8e6193	-0.017380511
201	0x3e0bed39	0.13664712
202	0x3e263b5c	0.16233581
203	0xbdef6e77	-0.11690991
204	0xbdd5ac81	-0.10433293
205	0xbe0eaaae	-0.13932297
206	0xbe3a6800	-0.18203735
207	0x3da1f308	0.07907683
208	0x3e003e69	0.12523808
209	0x3d5cb562	0.053883918
210	0xbc2264f4	-0.009911764
211	0x3d71e7b5	0.059058864
212	0x3e0fcd13	0.14043073
213	0x3d34921c	0.044084653
214	0xbe1f55d2	-0.15560082
215	0x3e1bc13b	0.1521043
216	0x3d5ae79e	0.053443544
217	0xbde59b32	-0.11211242
218	0xbd9cc100	-0.07653999
219	0x3de4d197	0.111727886
220	0xbc4c88bb	-0.012483771
221	0xbcb374fe	-0.021906372
222	0xbdcc0afc	-0.099630326
223	0x3e2ac3c7	0.16676246
224	0xbd853cee	-0.06505762
225	0xbc1b1be6	-0.009467101
226	0xbd6c6bcb	-0.057719987
227	0xbce5c5c7	-0.02804841
228	0x3cb61336	0.022225957
229	0xbd0b0c49	-0.033947263
230	0xba78527a	-0.0009472739
231	0x3c1bfaeb	0.009520273
232	0xbd290f0e	-0.041274123
233	0x3d540e46	0.051771425
234	0xbd664d42	-0.056226023
235	0x3e05def3	0.1307333
236	0xbd26e720	-0.04074776
237	0xbca1480d	-0.019687677
238	0xbce1e30a	-0.027574081
239	0x3ca38407	0.019960416
240	0xbd751e1a	-0.05984316
241	0xbcd75996	-0.026287835
242	0x3d051dde	0.032499187
243	0xbddb258b	-0.1070052
244	0x3d703594	0.058644846
245	0xbc1a7931	-0.009428308
246	0xb8cb799e	-9.702447e-05
247	0x3aef8ae8	0.001827565
248	0x3ca7d1bc	0.020485751
249	0x3d9a73a8	0.07541591
250	0xbd403a17	-0.0469304
251	0x3bbaee08	0.005704645
252	0xbccda472	-0.025102828
253	0xb7b42d13	-2.1478661e-05
254	0xbbbb78af	-0.0057211737
255	0xbd58b3cd	-0.052905846

gcn.lin_n.bias f4 [32]
0	0xbcda3e13	-0.026640927
1	0xbd022b2e	-0.03177946
2	0xbce56cf2	-0.02800605
3	0xbdb87b17	-0.090078525
4	0xbda3379a	-0.079695895
5	0x3de90343	0.11377575
6	0x3b14368c	0.002261552
7	0xbdaceb5e	-0.0844333
8	0x3c924847	0.01785673
9	0xbc8a5330	-0.01688537
10	0xbe31770c	-0.17330569
11	0x3d580d13	0.052746844
12	0x3e127c6b	0.14305274
13	0xbb9cf886	-0.0047903685
14	0xbce6f7ef	-0.028194396
15	0xbcd88cd3	-0.026434338
16	0x3dd1f6e8	0.10252172
17	0x3d847119	0.06466884
18	0x3d02c782	0.031928547
19	0x3dc8adaf	0.097987525
20	0xbd5147b9	-0.05109379
21	0xbe2370c9	-0.15960993
22	0x3d503d93	0.05083997
23	0x3dda0d2a	0.10647042
24	0xbcbc31a5	-0.022972891
25	0xbccdfcbb	-0.025144925
26	0xbd8e6f0b	-0.069547735
27	0xbdaf482f	-0.0855869
28	0xbd01383d	-0.031547774
29	0x3dd2f726	0.10301046
30	0xbcfe06de	-0.031009134
31	0xbe077bc1	-0.13230802

gcn.lin_r.weight f4 [32, 32]
0	0x3ca556b4	0.020182945
1	0xbc2be15b	-0.010490741
2	0xbda30f81	-0.079619415
3	0xbe077519	-0.13228263
4	0x3dfb8f4e	0.122831926
5	0xbd6d4569	-0.057927523
6	0xbd16b4c4	-0.036793485
7	0xbe23b458	-0.15986764
8	0xbdfacced	-0.12246118
9	0x3e10cb5a	0.14140072
10	0x3e36e418	0.17860448
11	0xbded56bc	-0.11588809
12	0x3df7e9c9	0.12105138
13	0xbdc20885	-0.09474281
14	0x3e59c432	0.21266249
15	0x3c3a5c20	0.011374503
16	0xbe244490	-0.1604178
17	0x3db8c086	0.09021096
18	0xbd77ed34	-0.06052895
19	0x3e435bb0	0.19077945
20	0xbda8a3b6	-0.082343504
21	0xbe18503d	-0.14874358
22	0xbe120438	-0.14259422
23	0x3de96d71	0.113978274
24	0x3e436919	0.1908306
25	0x3d65c6bc	0.05609773
26	0xbe43c9bc	-0.19119924
27	0x3e10ee53	0.14153413
28	0x3e20cf4f	0.15704082
29	0xbcb90069	-0.022583203
30	0xbcb2e295	-0.021836558
31	0xbe2d6181	-0.16931726
32	0x3de9d1ff	0.11417007
33	0xbdf28333	-0.118414305
34	0x3c8f0d84	0.0174625
35	0xb923a02c	-0.0001560456
36	0x3ddd8405	0.10816196
37	0x3da14807	0.07875066
38	0x3bbeeda7	0.00582667
39	0xbd098fab	-0.033584278
40	0xbd745acd	-0.059656907
41	0xbd31b133	-0.04338188
42	0x3dbcdabe	0.09221409
43	0xbcc717cf	-0.024303345
44	0x3db0876c	0.0861958
45	0x3d883359	0.06650419
46	0xbda8d1cb	-0.0824314
47	0xbcdee774	-0.027209975
48	0x3c6f8267	0.014618493
49	0xbd8b504b	-0.06802424
50	0xbe054630	-0.13015056
51	0xbd4c033f	-0.049807783
52	0x3c8c3d9c	0.017119221
53	0x3d509ecd	0.050932694
54	0x3dd0eec6	0.102017924
55	0x3c4b65e4	0.012414429
56	0xbd081d80	-0.03323126
57	0xbbe49248	-0.006975446
58	0xbd9ec3c1	-0.07752181
59	0x3dd10853	0.10206666
60	0xbcf1f443	-0.029535418
61	0xbd72daad	-0.059290577
62	0xbbc697bd	-0.006060569
63	0xbc80bad5	-0.015714088
64	0xbd1d4ee4	-0.038405314
65	0xbd3603c7	-0.044437196
66	0xbdbc9810	-0.09208691
67	0xbd80110f	-0.06253254
68	0x3cfd8422	0.030946795
69	0x3c92a110	0.017899066
70	0x3e1155f3	0.14192943
71	0x3e03d31e	0.12873504
72	0x3db1bb68	0.08678323
73	0x3debc4f3	0.115121745
74	0x3c33c9da	0.010973418
75	0xbdd8e550	-0.10590613
76	0x3c1fddd9	0.009757482
77	0xbdb8a551	-0.090159066
78	0xbd7a3b0a	-0.06109146
79	0xbd36b336	-0.044604503
80	0x3d873469	0.06601793
81	0xbca4d063	-0.020118898
82	0x3cf0cd74	0.029394843
83	0xbccf8f55	-0.0253369
84	0x3c7e2811	0.015512482
85	0xbcc700d2	-0.024292383
86	0xbdcabf66	-0.098997876
87	0x3df360e2	0.11883713
88	0x3c8c1d40	0.017103791
89	0xbcdfa641	-0.027300956
90	0xbd232966	-0.039834403
91	0xbcf7ff7f	-0.030273197
92	0x3d9bf0b8	0.07614273
93	0x3d988af2	0.07448377
94	0x3dfc75f5	0.12327186
95	0xbccad47e	-0.024759527
96	0x3ded37f8	0.11582941
97	0xbdbec621	-0.09315134
98	0xbdd8bd6d	-0.10583005
99	0x3dab0f2f	0.083525054
100	0x3d9045d3	0.07044568
101	0x3cbd374d	0.023097659
102	0x3df59519	0.11991329
103	0x3e0c3cc4	0.13695055
104	0xbc2f4f79	-0.0107001
105	0xbc09f8cd	-0.008421135
106	0x3d8b5eb4	0.068051726
107	0xbdc0f2cb	-0.09421309
108	0x3da3f96a	0.08006556
109	0x3d79df9c	0.061004266
110	0xbcf501e2	-0.029908124
111	0x3d752fb0	0.05985993
112	0xbd55855a	-0.052129127
113	0x3da43742	0.08018352
114	0x3deaf9ff	0.11473464
115	0x3cb852b6	0.022500377
116	0xbc945d3b	-0.018110862
117	0x3d632c70	0.0554623
118	0x3ce53734	0.027980424
119	0xbd59da35	-0.053186614
120	0x3df795dc	0.1208913
121	0xbca9f656	-0.020747345
122	0xbd627712	-0.055289336
123	0x3bcbae6e	0.006215862
124	0xbcc86810	-0.024463683
125	0xbd1e0034	-0.038574412
126	0x3dbd6a21	0.09248758
127	0xbd5b325a	-0.053514816
128	0xbd8a4c99	-0.06752891
129	0xbdcabf12	-0.09899725
130	0xbe2ec034	-0.17065507
131	0xbc812dfa	-0.015768994
132	0x3dbd8bd7	0.09255188
133	0xbd89539e	-0.06705402
134	0x3d6b7951	0.057488743
135	0x3dcc6cd8	0.09981698
136	0xbc587141	-0.013210596
137	0xbe0f5e2d	-0.14000769
138	0xbcb5c877	-0.022190316
139	0xbdcbc81e	-0.09950279
140	0xbdd613c7	-0.10452991
141	0x3ddacd9e	0.106837496
142	0xbe081fc5	-0.13293369
143	0xbdb55478	-0.08854002
144	0xbd07bfc5	-0.03314187
145	0xbdc0d875	-0.09416286
146	0x3d3091f7	0.043107953
147	0xbdd86ed5	-0.105680145
148	0x3dbd6072	0.09246911
149	0xbcb8ee3c	-0.022574537
150	0x3d8eb854	0.069687515
151	0x3e278552	0.16359451
152	0x3cec32b8	0.028832778
153	0xbd5e8b39	-0.05433199
154	0x3d04e7b4	0.03244753
155	0xbd16fce5	-0.036862273
156	0xbe62079c	-0.22073215
157	0x3dbc5bdf	0.091972105
158	0xbd68558d	-0.056722213
159	0xbd88e839	-0.06684918
160	0x3e39cef8	0.18145359
161	0xbd94dcff	-0.07268714
162	0xbde2d8c1	-0.11076499
163	0xbdb904e2	-0.090341344
164	0x3d5040e5	0.05084314
165	0x3e20196a	0.15634695
166	0xbd27b28b	-0.040941756
167	0x3e40b864	0.1882034
168	0xbde009e3	-0.10939386
169	0xbca872f2	-0.020562623
170	0xbe3d6a71	-0.18497635
171	0xbd109512	-0.035298415
172	0x3de10e17	0.109890155
173	0x3cdba0e6	0.02681012
174	0xbbc503e0	-0.006012425
175	0xbe0c54d6	-0.13704237
176	0x3d9aa23e	0.075504765
177	0xbd1977f1	-0.0374679
178	0x3e3d086f	0.18460248
179	0xbe60270a	-0.21889892
180	0xbdd54f87	-0.10415559
181	0x3cda81da	0.026673246
182	0x3d21235c	0.039340362
183	0xbdee32f8	-0.11630815
184	0xbe20eb91	-0.15714861
185	0xbd3b98e3	-0.0458001
186	0xbd6e6d53	-0.05820973
187	0x3d99d1b7	0.07510703
188	0x3decbcd7	0.11559456
189	0x3defca85	0.117085494
190	0xbdeaedf0	-0.11471164
191	0xbe0dea42	-0.13858894
192	0xbdb4bfb9	-0.08825631
193	0xbd3daec8	-0.046309263
194	0xbd8b349d	-0.067971446
195	0x3a46272d	0.0007558938
196	0x3df394af	0.118935935
197	0x3e7bacc9	0.24577631
198	0x3d481a53	0.04885323
199	0x3d616945	0.055032033
200	0xbdd84dd5	-0.1056172
201	0xbcdfe734	-0.027331926
202	0xbdc7dc61	-0.09758831
203	0x3e6de6d1	0.2323258
204	0xbe654750	-0.22390485
205	0x3d448521	0.047978524
206	0x3e3a76b6	0.18209347
207	0x3c18210b	0.009285222
208	0x3dda264f	0.10651838
209	0xbe342ba5	-0.17594774
210	0x3d1b415f	0.03790414
211	0x3d563e1a	0.05230532
212	0x3c9fc898	0.01950483
213	0xbd82d1d6	-0.06387679
214	0x3d6413cc	0.055682942
215	0xbd8bc793	-0.06825175
216	0x3e207eaf	0.15673326
217	0x3d20a253	0.039217304
218	0x3e106300	0.14100266
219	0x3c45765d	0.012052146
220	0xbd961aee	-0.07329355
221	0xbe1576c0	-0.14596081
222	0x3cfbed52	0.030752812
223	0x3d5df103	0.054184925
224	0xbcac5d01	-0.021040441
225	0xbd3b66ac	-0.045752212
226	0x3c54f651	0.0129981795
227	0xbc0d3e9e	-0.008620886
228	0x3c50b6c8	0.012738891
229	0x3c262fe6	0.010143256
230	0xbd518d9e	-0.051160447
231	0x3cd4ccd2	0.025976572
232	0x3a928744	0.0011179228
233	0x3dac0ef1	0.08401287
234	0x3c986e46	0.01860727
235	0x3d6f6714	0.058447912
236	0x35d20b2d	1.5649472e-06
237	0x3ceba708	0.02876617
238	0xb81593fd	-3.5662193e-05
239	0xb70e0d5c	-8.46697e-06
240	0xbcfccf7b	-0.030860653
241	0xbc545397	-0.0129593825
242	0x3c9d9b52	0.019239102
243	0xbd221f00	-0.039580345
244	0x3d94f9d3	0.07274213
245	0xbcefe603	-0.029284483
246	0x3d1c2e0e	0.03812986
247	0x3da0c56a	0.07850154
248	0xbb745aa4	-0.0037285471
249	0x3c84089a	0.016117383
250	0x360b51a2	2.076013e-06
251	0xbb0dfd07	-0.0021665709
252	0xbb9ffb87	-0.0048822793
253	0x3b97678b	0.0046204976
254	0x3cd0f55a	0.025507618
255	0xbaca2fc0	-0.0015425608

gcn.lin_2.weight f4 [32, 32]
0	0xbc811d25	-0.015760968
1	0x3ba85e0c	0.0051381644
2	0x3cf7e0e9	0.030258613
3	0xbd75f8b9	-0.060051654
4	0x3e4bc4da	0.19899312
5	0xbd325650	-0.043539345
6	0xbe21a3af	-0.15785097
7	0x34c98094	3.753272e-07
8	0x3d629fbf	0.055328127
9	0x3d052250	0.032503426
10	0x3d1c1e01	0.03811455
11	0x3e0642ae	0.13111374
12	0x3e084f27	0.13311444
13	0x3da6fb86	0.08153443
14	0xbd6cbec8	-0.05779913
15	0x3dac26f5	0.08405868
16	0x3e318656	0.17336401
17	0xbe3962e6	-0.18104133
18	0xbdf15afe	-0.117849335
19	0xbe1b5d2c	-0.15172261
20	0x3d85111d	0.06497405
21	0x3d3518c6	0.04421308
22	0xbe14376f	-0.14474271
23	0x3dda1c04	0.10649875
24	0x3c1ed03f	0.009693204
25	0x3cfe3019	0.031028794
26	0x3d0a53e0	0.033771396
27	0x3d79664f	0.060888585
28	0x3e075e7e	0.1321964
29	0xbd3c1e4d	-0.045927335
30	0x3dee7ef4	0.11645308
31	0xbde64d11	-0.11245168
32	0x3e06d376	0.13166603
33	0xbc8a8a5a	-0.016911674
34	0xbd35411d	-0.04425155
35	0x3d78f374	0.06077905
36	0x3dff6b7c	0.12471673
37	0x3dce70ef	0.10080134
38	0x3e0f0218	0.13965642
39	0xb48bd5ac	-2.6046234e-07
40	0xbd921251	-0.071324
41	0x3e55fcf8	0.20897281
42	0x3d5bf338	0.05369875
43	0x3c8fd910	0.017559558
44	0x3dc59425	0.09647397
45	0xbe00a2a0	-0.12562037
46	0xbdd72dc6	-0.105067775
47	0x3d74ebac	0.059795067
48	0x3dc2a5dd	0.09504292
49	0xbddcc4fb	-0.107797585
50	0x3dd17035	0.1022648
51	0xbe4d7b01	-0.20066454
52	0x3c9dfadc	0.019284658
53	0x3d94bb7c	0.07262322
54	0xbdb60806	-0.08888249
55	0x3d63132e	0.055438213
56	0x3baa116a	0.005190064
57	0xbc562d9c	-0.013072398
58	0xbd17988a	-0.037010707
59	0x3dcc6de3	0.09981897
60	0x3d119793	0.035544943
61	0x3ddc6898	0.10762137
62	0xbd5757fb	-0.05257414
63	0xbc88d97d	-0.016705269
64	0x3d0a4b55	0.03376325
65	0x3c72e86d	0.014825922
66	0xbd5e180a	-0.054222144
67	0xbc09cf4b	-0.008411239
68	0x3dbb3568	0.09141046
69	0x3e13d1b0	0.14435458
70	0x3dbac5e1	0.09119774
71	0xb1eee0cc	-6.952268e-09
72	0x3dc11eaf	0.094296806
73	0x3dddbdc0	0.108272076
74	0x3da797f1	0.081832774
75	0x3e11341d	0.14180036
76	0xbd965859	-0.0734107
77	0x3de001a7	0.10937815
78	0xbda6ccf2	-0.08144559
79	0xbdbf049a	-0.093270496
80	0x3cf0e653	0.029406702
81	0xbd08ee51	-0.0334304
82	0x3dbf9ed1	0.09356464
83	0x3c880b8c	0.016607068
84	0x3d44f039	0.048080657
85	0x3d40ce0c	0.0470715
86	0x3d6350d2	0.055496998
87	0xbd91f342	-0.07126476
88	0x3bca4db2	0.006173813
89	0x3dcf92fd	0.10135458
90	0xbc2b64a7	-0.010461009
91	0x3dd181bc	0.10229823
92	0xbd5da7cc	-0.0541151
93	0xbe3e403d	-0.18579192
94	0x3c0ce8ba	0.008600408
95	0x3de3c4f7	0.111215524
96	0x3c2bcb66	0.010485506
97	0x3d030341	0.031985525
98	0xbdf4c795	-0.1195213
99	0x3c8197e8	0.015819505
100	0xbdde5aa7	-0.10857134
101	0x3cd03e80	0.025420427
102	0xbd9581eb	-0.073001705
103	0xb2eb48ea	-2.7390758e-08
104	0x3ac1e2de	0.0014792343
105	0xbe1dfac0	-0.15427685
106	0x3b84e888	0.00405604
107	0xbdff2636	-0.1245846
108	0x3e3f38df	0.18674038
109	0x3e15aff7	0.14617907
110	0x3da1985c	0.07890388
111	0x3dd90d20	0.105982065
112	0x3e3005e2	0.17189744
113	0xbdffe4d3	-0.12494817
114	0xbd355c19	-0.044277284
115	0x3e3c4a57	0.18387733
116	0xbd393cec	-0.045224115
117	0xbcf7e84a	-0.030262131
118	0x3dc3b8e4	0.095567495
119	0xbdf6d2f1	-0.12051953
120	0xbbbbc454	-0.0057301912
121	0xbd418229	-0.04724327
122	0xbbc384f4	-0.005966777
123	0xbc4d18e2	-0.01251814
124	0xbda3838f	-0.07984077
125	0xbd870589	-0.065928526
126	0xbdd1bf66	-0.102415845
127	0x3e241c3d	0.16026397
128	0xbd646035	-0.055755813
129	0xbb2fe738	-0.0026840698
130	0x3df22795	0.11823956
131	0x3d47d519	0.04878721
132	0x3e520394	0.20509177
133	0xbdf6ba9e	-0.12047313
134	0xbd89b510	-0.06723988
135	0xb5a073fe	-1.1954687e-06
136	0xbddca1bb	-0.10773035
137	0xbd93fb47	-0.07225662
138	0x3e37603d	0.17907806
139	0x3e0c1b68	0.1368233
140	0xbdb6033d	-0.088873364
141	0xbde16b16	-0.11006753
142	0xbcce3bf7	-0.025175078
143	0x3d464ee9	0.0484151
144	0x3cf4a350	0.02986303
145	0xbdb3e307	-0.087835364
146	0xbdb634da	-0.088967994
147	0x3e015b4e	0.12632486
148	0x3db7dac4	0.08977273
149	0x3d9c094b	0.0761896
150	0xbdfb456d	-0.12269101
151	0xbd660677	-0.05615851
152	0x3a144f94	0.000565761
153	0xbd4eeda7	-0.05051961
154	0x3c0efc46	0.008727139
155	0x3d4c2df5	0.049848516
156	0x3cab40a4	0.020904846
157	0xbd477ec1	-0.048704866
158	0x3e3675e9	0.17818417
159	0x3cc975af	0.024592249
160	0x3d3ab502	0.04558278
161	0x3d4bc466	0.049747847
162	0xbb9b82ef	-0.004745833
163	0x3c2ac351	0.010422544
164	0xbd565be6	-0.052333735
165	0xbcbb0a97	-0.022832198
166	0xbe1544b7	-0.14576994
167	0x320c3f94	8.1635285e-09
168	0xbdf638be	-0.120225415
169	0xbe29350e	-0.16524145
170	0x3cd91db1	0.026503416
171	0x3cdf122c	0.027230345
172	0xbda0bb4d	-0.07848225
173	0xbd9b280f	-0.07576
174	0xbc47a163	-0.012184474
175	0x3d264497	0.040592756
176	0x3d6d24db	0.057896476
177	0xbe311a1c	-0.17295116
178	0xbd321c4e	-0.043484025
179	0x3db7f0ac	0.089814514
180	0x3e1e4078	0.1545428
181	0xbdc82d52	-0.09774269
182	0x3e0a8385	0.13526733
183	0xbe5524e2	-0.20814851
184	0xbbaff12f	-0.0053693275
185	0x3d8aca31	0.06776846
186	0x3cc293bd	0.023752088
187	0x3d5f12eb	0.0544614
188	0xbe2d1fb2	-0.16906622
189	0xbcb116e2	-0.021617357
190	0x3ddc11e7	0.10745602
191	0xbc93b2b0	-0.01802954
192	0xbc7d58e0	-0.015463084
193	0xbbc4b085	-0.006002488
194	0xbd8f27cf	-0.06990015
195	0xbdd96c9d	-0.106164195
196	0xbe0e0c3a	-0.13871852
197	0x3da5cfb0	0.08096254
198	0xbe302eb1	-0.17205311
199	0x330ca9cf	3.275073e-08
200	0xbe02e78f	-0.12783645
201	0x3c6f71f8	0.014614575
202	0xbdeeefbd	-0.1166682
203	0xbd4398ae	-0.04775303
204	0x3d37ff92	0.044921465
205	0xbcba25f9	-0.022723185
206	0x3b44f76a	0.0030054697
207	0xbd3a7688	-0.045523196
208	0xbe02ea0f	-0.12784599
209	0x3d941505	0.07230572
210	0x3c597334	0.0132720955
211	0xbdfce81d	-0.123489596
212	0xbd53f415	-0.051746447
213	0x3caebc46	0.02133001
214	0xbd53e5c9	-0.051732812
215	0x3cb68655	0.022280851
216	0xba7f2e4d	-0.00097343774
217	0x3d53e5b1	0.051732723
218	0x3d208645	0.03919055
219	0xbddad8dc	-0.10685894
220	0x3df90034	0.12158242
221	0x3e0432c5	0.12909992
222	0xbdbf4faa	-0.093413666
223	0xbe0e06c5	-0.1386977
224	0x3c7d748e	0.015469683
225	0x3cd0e03d	0.02549755
226	0x3df14893	0.117814206
227	0xbab57564	-0.0013844189
228	0x3d86d622	0.06583811
229	0x3e233e66	0.15941772
230	0xbd4bb6d6	-0.049734913
231	0x31e21ded	6.580868e-09
232	0xbcbc6a67	-0.022999955
233	0x3d23607a	0.03988693
234	0x3e24db59	0.160993
235	0x3dbbc972	0.09169282
236	0x3de2a62b	0.1106685
237	0xbe13ecd2	-0.14445809
238	0xbd778dca	-0.060437955
239	0xbdcbf19a	-0.09958191
240	0x3e3c1a48	0.183694
241	0xbe132a83	-0.14371686
242	0xbd2b2ef7	-0.041792836
243	0x3db9343f	0.09043168
244	0xbdf46675	-0.11933605
245	0x3db7cb99	0.0897438
246	0xbda07ef0	-0.078367114
247	0xbdaff2a1	-0.085912
248	0x3a6930de	0.00088955264
249	0xbd8211de	-0.06351064
250	0x3cb364af	0.021898596
251	0x3e83e732	0.25762326
252	0xbde8720c	-0.11349878
253	0xbe15ecc1	-0.14641096
254	0x3d575f46	0.052581094
255	0xbdc0f933	-0.09422531

gcn.lin_2.bias f4 [32]
0	0xbe13aa48	-0.14420426
1	0xbd903696	-0.070416614
2	0xbd21decb	-0.039519113
3	0x3d68ca2c	0.05683343
4	0xbdf7b695	-0.12095372
5	0x3cc78245	0.02435411
6	0x3dde9ed1	0.108701356
7	0xbd8c1fa8	-0.068419755
8	0x3e0e5f49	0.13903536
9	0xbe4607a3	-0.1933885
10	0x3d4a1c1f	0.049343225
11	0xbe2b7bdc	-0.16746467
12	0x3d4ad0dd	0.049515594
13	0x3e463a41	0.1935816
14	0x3d9d182d	0.07670627
15	0xbce7cbd4	-0.028295435
16	0x3e357bb5	0.17722972
17	0xbe2f6973	-0.1713007
18	0xbdb6c82b	-0.08924898
19	0xbd46ecae	-0.04856556
20	0xbc1d38c5	-0.009596054
21	0xbe39c6c7	-0.18142234
22	0xbddb639a	-0.10712357
23	0xbe529c18	-0.20567358
24	0x3db5ecb7	0.088830404
25	0xbc161274	-0.009159673
26	0xbe17b809	-0.14816298
27	0xbdf2df4d	-0.118589975
28	0x3e302fc0	0.17205715
29	0x3defc301	0.11707116
30	0x3dad9718	0.084760845
31	0x3deb5e1e	0.11492561

nf.base_dist_mean f4 [38, 1]
0	0x3e03ccb9	0.12871064
1	0xbf29da9c	-0.66349196
2	0xbeaed4d2	-0.34146744
3	0xbf0027a9	-0.50060517
4	0x3f69e081	0.9135819
5	0x3e6abf81	0.22924615
6	0xbe166c54	-0.14689761
7	0x3e79461c	0.24343151
8	0x3e918512	0.28421837
9	0xbf685309	-0.907517
10	0xc01b593b	-2.4273212
11	0x3f94ca59	1.1624252
12	0x4019e45f	2.4045637
13	0xbf166cb2	-0.58759606
14	0x3f1064ad	0.5640362
15	0x3f258e0e	0.64669883
16	0x3ef2fe7f	0.4745979
17	0xbc71d24a	-0.0147596095
18	0xc0324090	-2.7851906
19	0xbfaead8f	-1.3646716
20	0xbf212732	-0.6295043
21	0x3f681753	0.9066059
22	0x3f1012d0	0.56278706
23	0xbebf6388	-0.37380624
24	0xbfef9796	-1.8718135
25	0xbe9c4976	-0.30524796
26	0xbeca9246	-0.39564723
27	0x3ed7b130	0.4212737
28	0xbe0b6cd6	-0.13615736
29	0xbf4417fe	-0.7659911
30	0xbec5c920	-0.3863001
31	0xbe9d2c92	-0.30698067
32	0xbe661b1b	-0.22471277
33	0x3fc4385c	1.53297
34	0x3fa8facb	1.3201536
35	0x3d444e3b	0.04792617
36	0x3f3dc16e	0.74123275
37	0x3f0a3688	0.5398946

nf.base_dist_var f4 [38, 1]
0	0x3f800000	1.0
1	0x3f800000	1.0
2	0x3f800000	1.0
3	0x3f800000	1.0
4	0x3f800000	1.0
5	0x3f800000	1.0
6	0x3f800000	1.0
7	0x3f800000	1.0
8	0x3f800000	1.0
9	0x3f800000	1.0
10	0x3f800000	1.0
11	0x3f800000	1.0
12	0x3f800000	1.0
13	0x3f800000	1.0
14	0x3f800000	1.0
15	0x3f800000	1.0
16	0x3f800000	1.0
17	0x3f800000	1.0
18	0x3f800000	1.0
19	0x3f800000	1.0
20	0x3f800000	1.0
21	0x3f800000	1.0
22	0x3f800000	1.0
23	0x3f800000	1.0
24	0x3f800000	1.0
25	0x3f800000	1.0
26	0x3f800000	1.0
27	0x3f800000	1.0
28	0x3f800000	1.0
29	0x3f800000	1.0
30	0x3f800000	1.0
31	0x3f800000	1.0
32	0x3f800000	1.0
33	0x3f800000	1.0
34	0x3f800000	1.0
35	0x3f800000	1.0
36	0x3f800000	1.0
37	0x3f800000	1.0

nf.net.0.net_input.weight f4 [32, 1]
0	0xbecf0a3b	-0.40437493
1	0xbe4f23e4	-0.20228535
2	0xbf4d5649	-0.80209786
3	0xbe7c2c33	-0.24626236
4	0xbecadd4c	-0.3962196
5	0x3e3baf12	0.18328503
6	0x3de71c9c	0.11284754
7	0x3ec303cb	0.3808883
8	0xbf4c9b8e	-0.7992486
9	0xbf696843	-0.91174716
10	0x3f6bedeb	0.9215991
11	0xbeae0f0d	-0.33995858
12	0xbe4bfe34	-0.1992119
13	0xbf594185	-0.848656
14	0xbf0f5b68	-0.5599885
15	0x3f226fbf	0.6345176
16	0x3dcd792f	0.100328796
17	0x3f0584a1	0.521555
18	0xbed2f6c5	-0.41203895
19	0xbee87b17	-0.4540641
20	0x3f247fed	0.642577
21	0x3e09a20d	0.13440724
22	0x3e9ae661	0.3025389
23	0xbf43479f	-0.7628116
24	0x3e336878	0.1752032
25	0xbf58b04c	-0.8464401
26	0x3f6de40c	0.92926097
27	0x3eec591e	0.4616174
28	0x3f0f730e	0.56034935
29	0x3f2ca73f	0.674427
30	0x3f244d51	0.64180475
31	0xbf797249	-0.9744001

nf.net.0.net_input.bias f4 [32]
0	0xbdcc77cb	-0.09983786
1	0xbf56de8e	-0.8393334
2	0x3f8412c1	1.0318223
3	0x3f01dfc5	0.5073207
4	0xbefaed15	-0.49009004
5	0x3d99e824	0.075149804
6	0x3f4b863d	0.79501706
7	0xbf2686e6	-0.6504959
8	0x3f4a34bb	0.7898671
9	0xbf0091af	-0.50222296
10	0x3f452b38	0.7701907
11	0xbeef2601	-0.46708682
12	0x3f3154b9	0.692699
13	0x3f22aab0	0.635417
14	0xbe92808f	-0.28613707
15	0xbf019fb4	-0.5063431
16	0xbe83b4a2	-0.2572375
17	0x3f6f5633	0.93490905
18	0x3f297b2d	0.66203576
19	0x3f07573b	0.5286748
20	0xbf6cece3	-0.9254896
21	0xbea6ebba	-0.3260172
22	0xbf263fef	-0.64941305
23	0x3ed8d742	0.4235173
24	0x3e999687	0.29997656
25	0xbf2cb209	-0.6745916
26	0xbc4ed63d	-0.012624321
27	0xbf3a1717	-0.7269148
28	0x3f0b4453	0.5440113
29	0xbf33d2d8	-0.702436
30	0x3e97d149	0.2965186
31	0xbf82cef0	-1.0219402

nf.net.0.net_input.cond_weight f4 [32, 32]
0	0x3ce56b04	0.02800513
1	0x3e1308e4	0.1435886
2	0x3dec922e	0.11551319
3	0x3d3a4c45	0.045482893
4	0x3e01da29	0.12680878
5	0x3d1c3ab9	0.03814194
6	0x3d0496da	0.032370426
7	0xbbddb092	-0.0067654336
8	0x3d12432e	0.0357086
9	0x3d4ba09b	0.049713712
10	0x3dba0251	0.09082473
11	0x3d77f03a	0.060531832
12	0x3d2a4efa	0.041579224
13	0x3d52070b	0.051276248
14	0x3deb7140	0.1149621
15	0x3db4ec8c	0.0883418
16	0x3e12c933	0.14334564
17	0x3d00f1f4	0.031480744
18	0x3dc33bd5	0.095328964
19	0x3d26e139	0.040742133
20	0x3dd5d846	0.104416415
21	0x3d69571d	0.056967843
22	0x3c96a8ea	0.018391091
23	0x3e0eab31	0.13932492
24	0x3dbe3dcd	0.09289131
25	0x3db9fca4	0.090813905
26	0x3e08fb41	0.13377096
27	0x3e129cc8	0.1431762
28	0x3d8dd657	0.06925648
29	0x3c54317e	0.012951253
30	0x3cce47a5	0.025180647
31	0x3d2e6f9e	0.042586915
32	0x3d7ec834	0.062202647
33	0x3d248053	0.040161442
34	0x3def119b	0.1167328
35	0x3dbb1e50	0.09136641
36	0x3bf0b18e	0.007345385
37	0x3e45e1d5	0.1932443
38	0x3e3dcfac	0.18536252
39	0x3ddf0fa6	0.108916566
40	0x3df5e955	0.12007395
41	0xbcfc76da	-0.030818392
42	0x3e160110	0.14648843
43	0x3c6e9f4a	0.014564345
44	0x3cf58f3a	0.029975522
45	0x3e03aa90	0.12858033
46	0x3e5141df	0.20435284
47	0x3dbbe217	0.091739826
48	0x3e190b18	0.14945638
49	0xbcf8f8dd	-0.030392105
50	0xbcde6d0e	-0.02715161
51	0x3de49ada	0.11162348
52	0x3e17fe63	0.14843135
53	0x3e098e52	0.13433197
54	0x3dd97689	0.10618312
55	0x3d03c642	0.032171495
56	0x3dae8cdd	0.08522961
57	0x3dd50064	0.10400465
58	0x3db5600c	0.0885621
59	0x3db80e84	0.08987144
60	0x3d6422b8	0.055697173
61	0x3e26de7d	0.1629581
62	0x3e4dc405	0.20094307
63	0x3ded8498	0.11597556
64	0x3c9ed8c3	0.01939047
65	0xb9a6d93b	-0.00031823837
66	0x3b3a9a8b	0.0028473462
67	0x3e2669f4	0.16251355
68	0x3d3b68e3	0.045754325
69	0x3e19218c	0.14954203
70	0x3db9f863	0.09080579
71	0x3ccdb263	0.025109475
72	0x3d9cbe35	0.076534666
73	0xbcfe2f50	-0.03102842
74	0x3e26d852	0.16293457
75	0xbd0164af	-0.03159016
76	0x3e05ade8	0.13054621
77	0x3e1a3ffa	0.15063468
78	0x3e0a714b	0.1351978
79	0xbb92ebff	-0.0044836993
80	0x3d652102	0.05593968
81	0x3cfa4441	0.030550124
82	0xbd21f4d3	-0.039540123
83	0x3db97721	0.09055925
84	0x3cfb266e	0.030657973
85	0xbc95085d	-0.018192464
86	0xbc7f6cae	-0.015589876
87	0xbcc29ca1	-0.023756327
88	0x3e38f445	0.18061931
89	0x3d87c69b	0.06629678
90	0x3c7543d8	0.0149697885
91	0xbd117952	-0.03551609
92	0x3dc4f9f1	0.09617985
93	0x3e5b6216	0.21424136
94	0x3e58a08b	0.21154992
95	0x3d5b7168	0.05357495
96	0x3d6f041f	0.05835354
97	0x3d8e7846	0.06956534
98	0x3dd67065	0.10470656
99	0x3e3c8afc	0.18412393
100	0x3d94e81b	0.07270833
101	0x3d287c69	0.04113427
102	0x3d8923b9	0.06696267
103	0x3e039336	0.12849125
104	0x3d908e67	0.07058411
105	0x3cce1cea	0.025160272
106	0x3ccc207a	0.02491783
107	0x3e0fa29f	0.14026879
108	0x3d80af3d	0.06283424
109	0x3dd89007	0.10574346
110	0x3e359707	0.17733394
111	0xbc38ea4e	-0.011286331
112	0x3e256068	0.16150057
113	0x3d4ef2dc	0.050524577
114	0xbc92529b	-0.017861655
115	0x3da08323	0.07837512
116	0x3dd46fed	0.10372911
117	0x3db4c6e9	0.088270016
118	0x3c42f0f1	0.011898265
119	0x3e0cdb48	0.13755524
120	0x3d94de77	0.07268994
121	0x3de7fa64	0.11327055
122	0x3e038088	0.12842
123	0xbbdc6843	-0.006726296
124	0x3e160241	0.14649297
125	0x3de78776	0.11305134
126	0x3d56c7a5	0.05243649
127	0x3e09e039	0.1346444
128	0x3da84b73	0.08217516
129	0x3ded6a9a	0.11592598
130	0x3da63c76	0.08117001
131	0x3dc5e388	0.09662539
132	0x3d59d4e9	0.053181563
133	0x3d295625	0.04134192
134	0x3d03c589	0.032170806
135	0x3e0838bc	0.13302892
136	0x3c92e8d8	0.017933294
137	0x3e07cd47	0.13261901
138	0x3de34d25	0.110986985
139	0x3db02cd0	0.08602297
140	0x3cc72222	0.024308268
141	0x3e111cc9	0.14171137
142	0x3ddefc11	0.108879216
143	0x3d54a5b1	0.05191583
144	0x3c4e1a7b	0.012579556
145	0x3d2273ea	0.039661326
146	0x3cc769fd	0.024342531
147	0x3e1ebc81	0.15501596
148	0x3d82919f	0.06375431
149	0x3d355d21	0.044278268
150	0x3e09c6b5	0.13454707
151	0x3e459108	0.19293606
152	0x3e1b5ad5	0.15171368
153	0x3da479f2	0.08031072
154	0x3e1b0b16	0.15140948
155	0x3e28446b	0.1643235
156	0x3e045291	0.12922122
157	0x3d268ee0	0.0406636
158	0x3c978f09	0.018500822
159	0x3dc1cd37	0.0946297
160	0x3dd98ca7	0.106225304
161	0x3d5d8897	0.05408534
162	0x3dbbc0c1	0.09167624
163	0x3d8614cf	0.06546938
164	0x3d526b13	0.051371645
165	0x3d275047	0.040848043
166	0x3e0ac938	0.13553321
167	0x3b333f47	0.0027350949
168	0x3d73665e	0.059423797
169	0x3deaca1e	0.11464332
170	0x3dd72d2f	0.10506665
171	0x3cda4851	0.026645811
172	0x3ddecde9	0.10879118
173	0x3e582fdc	0.21112007
174	0x3df91cdf	0.1216371
175	0x3d905808	0.07048041
176	0x3d6cd943	0.057824384
177	0x3ce7be23	0.028288906
178	0x3db71623	0.08939769
179	0x3cc7682f	0.02434167
180	0x3ce74022	0.028228823
181	0xbbbb4250	-0.005714692
182	0x3bf64c61	0.0075164293
183	0xbb321c83	-0.002717764
184	0x3e03d53f	0.12874316
185	0xbc544a20	-0.012957126
186	0x3d670a9f	0.056406613
187	0x3e108138	0.14111793
188	0x3d2decd7	0.042462196
189	0x3d9ea82d	0.07746921
190	0x3e37e7b6	0.17959484
191	0x3dc6c772	0.0970601
192	0x3e5450f4	0.20734006
193	0x3e636b8d	0.22208996
194	0x3e68f2ec	0.22748917
195	0xbd72cce4	-0.05927743
196	0x3e8b4aa5	0.27205387
197	0xbe044161	-0.12915565
198	0xbd7cc019	-0.061706636
199	0x3e97e91f	0.29670045
200	0xbd3779ec	-0.044794008
201	0x3ea41476	0.3204686
202	0x3d6955a0	0.056966424
203	0x3e29c8a8	0.1658045
204	0xbd90f000	-0.07077026
205	0xbd7fdcf1	-0.062466566
206	0xbd8ecc2b	-0.06972536
207	0x3e443269	0.19159855
208	0xbd913776	-0.070906565
209	0x3e70c1eb	0.23511474
210	0x3e5fc299	0.21851577
211	0x3e1b4e83	0.15166669
212	0x3e3d30b0	0.18475604
213	0x3e8a249a	0.2698105
214	0x3e8d8987	0.27643988
215	0x3e5d0f5c	0.2158789
216	0xbc78c78d	-0.015184295
217	0x3e2ca8e8	0.16861308
218	0x3e79edc1	0.24407102
219	0x3e39be8c	0.18139094
220	0xbdfa3b8e	-0.122183904
221	0xbd291766	-0.04128208
222	0xbd7feeb6	-0.062483512
223	0x3c6b0e20	0.014346629
224	0x3e3eb1e3	0.18622546
225	0x3e0dac55	0.1383527
226	0x3dae4671	0.085095294
227	0xbd801199	-0.062533565
228	0x3dae09b6	0.08497946
229	0x3db2e792	0.08735575
230	0x3d5575d6	0.05211433
231	0x3dc34a47	0.09535652
232	0x3dd78ffa	0.10525508
233	0x3e05443b	0.13014309
234	0x3da6f31f	0.081518404
235	0x3dfa0690	0.12208283
236	0x3cf46073	0.029831147
237	0x3a917911	0.0011098703
238	0x3d4bddf2	0.04977221
239	0x3da94128	0.08264381
240	0xbcff8402	-0.031190876
241	0x3da765f5	0.08173744
242	0x3e0c1aa4	0.13682038
243	0x3e511837	0.20419393
244	0x3d84b04c	0.064789385
245	0x3e03fbf6	0.12889084
246	0x3e6093a8	0.21931326
247	0x3e33471a	0.17507592
248	0xbc5c1aa2	-0.013434084
249	0x3d7af3cd	0.061267663
250	0x3e1e6be7	0.15470849
251	0x3e28d3eb	0.1648709
252	0x3da7f43a	0.082008794
253	0x3dcbf93a	0.099596456
254	0x3da309af	0.079608314
255	0xbccecb01	-0.025243284

nf.net.0.net_input.mask f4 [32, 1]
0	0x3f800000	1.0
1	0x3f800000	1.0
2	0x3f800000	1.0
3	0x3f800000	1.0
4	0x3f800000	1.0
5	0x3f800000	1.0
6	0x3f800000	1.0
7	0x3f800000	1.0
8	0x3f800000	1.0
9	0x3f800000	1.0
10	0x3f800000	1.0
11	0x3f800000	1.0
12	0x3f800000	1.0
13	0x3f800000	1.0
14	0x3f800000	1.0
15	0x3f800000	1.0
16	0x3f800000	1.0
17	0x3f800000	1.0
18	0x3f800000	1.0
19	0x3f800000	1.0
20	0x3f800000	1.0
21	0x3f800000	1.0
22	0x3f800000	1.0
23	0x3f800000	1.0
24	0x3f800000	1.0
25	0x3f800000	1.0
26	0x3f800000	1.0
27	0x3f800000	1.0
28	0x3f800000	1.0
29	0x3f800000	1.0
30	0x3f800000	1.0
31	0x3f800000	1.0
