checkpoint/MSL/model.pth (torch, 191907 bytes, 37 tensors)

rnn.weight_ih_l0 f4 [128, 1]
00000000: f990 c1bd a9c8 debd 4d6a 6f3d f799 20bd
00000010: 030a de3d 601d 98bd a458 ad3a 082d 99bc
00000020: db1b c4bc d369 b6bd b959 553d 61fe 3abd
00000030: d558 33bd 0ab8 1bbd ddbb 133e d6b7 97bd
00000040: c1bb 653c b2f1 06be 1c89 683e 220e b0bc
00000050: 01b2 da3d d7af 85bd 60df b43c c3a0 393d
00000060: 50f8 373e 60ad 49be 03f0 7a3d 0d1c 4ebe
00000070: 61b5 f5ba 3e7b 0fbe da83 0c3d 1a4b 8abd
00000080: f7ff a93d 4d46 3f3d 71d5 c03d cc77 b5bd
00000090: 84df 1cbe ea6a a53d c1f7 c2bd 26c0 2fbe
000000a0: 2947 53bc d07d d93d 102f febc 0f3d 82bd
000000b0: d955 9a3d 44db 66bd 6f03 02be 4d00 133c
000000c0: 9df0 d9bc 0670 4fbe ad6c 0f3e e3e3 02bc
000000d0: de7f 42be 5c67 a5bd a5b1 22be 621e 833d
000000e0: b452 1ebd 6039 b43d b139 c33d d4f5 67bd
000000f0: c308 d0bc dcf9 7b3d f86d 2d3c 423a a63d
00000100: 2f29 c63c c2e6 59bc 3d48 e83c f291 403d
00000110: 26c4 663c 5be1 f13d 785b 593b ba90 3c3b
00000120: 7444 303d c020 f73d 0d10 c9bd da72 9dba
00000130: e658 313e c198 14be af57 d53c 959b e43d
00000140: 1ca7 febc f64a 603e ab45 863d 8bf2 9b3d
00000150: 2bc4 c9bd 7c57 9a3d bbc1 54be 110d 343e
00000160: b53d 68bd db53 963d d286 b83d 1542 3a3d
00000170: 24f8 363e d334 14bd c06c 273e 3056 293d
00000180: 461e 573d 3b70 063e 735e 0ebe c522 50bd
00000190: 143d cbbc 087e 28be aab7 28bd cbb1 043e
000001a0: 00f7 3abe 16d6 cdbd 5fd2 0fbe 2c3b 813d
000001b0: 7396 183e ce9f 49be 28dc 87bd a4b9 1b3d
000001c0: 4a4a 593d 6763 bb3d 23ad 2e3d 473e 5d3d
000001d0: 3ad4 a63d 55de 05be 570c 05be 0184 843d
000001e0: a189 edbd feeb c6bd 161f 32be 6f5f 5bbd
000001f0: 4c1b ecbd 48b6 1e3e 8df2 69b9 011b 1bbe
-0.094514795 -0.10878117 0.058450986 -0.039209332 0.10841753 -0.07427478 0.001322527 -0.01869823
-0.023939064 -0.08906903 0.05208752 -0.04565275 -0.04378589 -0.03801731 0.14427133 -0.07408111
0.014021815 -0.13178137 0.22708553 -0.021491114 0.10678483 -0.065276794 0.02207917 0.04531933
0.17965817 -0.19695044 0.06126405 -0.20127888 -0.0018746072 -0.14011857 0.03430543 -0.06752606
0.083007745 0.046697903 0.09415711 -0.0886074 -0.1531964 0.08077033 -0.095199116 -0.17163143
-0.012895384 0.106197 -0.0310283 -0.06359302 0.075359054 -0.05636145 -0.12696622 0.00897224
-0.026603991 -0.20257577 0.140063 -0.007988903 -0.1899409 -0.08076355 -0.15888079 0.064022794
-0.03865309 0.08800006 0.09532488 -0.056630924 -0.025394803 0.06151758 0.010585301 0.081165805
0.02418956 -0.013299646 0.028354758 0.047014184 0.014084851 0.11810561 0.0033166092 0.0028772787
0.043034032 0.120667934 -0.098175146 -0.0012012378 0.17319068 -0.14511396 0.026042787 0.111624874
-0.031085543 0.21903595 0.06556257 0.07614621 -0.09851869 0.075362176 -0.20777027 0.1758311
-0.056699473 0.07340213 0.0901009 0.045473177 0.17868096 -0.03618319 0.16350079 0.04134196
0.052519105 0.1312875 -0.13903217 -0.05081441 -0.024809398 -0.16454327 -0.04119078 0.12958448
-0.18258286 -0.10050599 -0.14045094 0.06310114 0.14901142 -0.19689867 -0.06633788 0.038018838
0.053049363 0.09149819 0.042645585 0.05401447 0.08145948 -0.13073094 -0.12992989 0.0647049
-0.11598516 -0.09712981 -0.17394671 -0.05355781 -0.11528644 0.15499222 -0.00022310969 -0.1514702

rnn.weight_hh_l0 f4 [128, 32]
00000000: f707 9abd 5377 273e a711 bbbd 226f c13d
00000010: 6ca1 e53d fa29 2e3d 1af2 e03b bd59 82bd
00000020: e51f 9c3d 9466 85bd df7d 213d e77f 173e
00000030: d1cc 92bd 2a5f 0e3d dbdd 31bd e6e3 2abc
00000040: da7f 40bd 8dab f43d ee89 33be bd4c 3abd
00000050: bb9f 373e 52e9 723d 5d70 2a3e 95f9 a03d
00000060: 896c 7abd f463 bdbd 3be8 92bd 5a41 aa3d
00000070: ba3b 7c3d 3e2c d63b 4c70 f9bd a921 113d
00000080: a155 9a3d 5fc9 2f3e b166 d63d ad40 0b3d
00000090: 1e70 a33d d428 fbbc 637d e63c faa5 babd
000000a0: d11f a4bc db22 0ebe e011 083d 3ca4 3bbd
000000b0: aa47 993b 42e5 e13d 4f79 3bbe 5a53 3cbe
000000c0: 5c02 dc3b 0a58 233d fb2e 423c 3db1 6fbd
000000d0: 1e42 32ba 51e4 ddbc 0601 a7bc c0e0 1ebe
000000e0: 4d1e aa3a d121 41bd ff5e 0e3c 4364 21be
000000f0: c553 a53d d25f 4f3c 9268 8ebd ae6a e43d
00000100: 692a 1ebd c44e 743c bcd3 4cbc 2581 26bd
00000110: 0afa 20bc 1fe2 ac3c d354 04bd fe54 593d
00000120: aae2 3b3c 3ea6 243c 5f71 3dbd 149a f637
00000130: 8692 883c 8d0b 3a3d ec96 c03b f09f dcbc
00000140: c296 9cbd 2176 54bd 46e9 943c eba1 5fbd
00000150: 7742 0bbd 143c 5dbd 7f1c 3c3d 8fec 9cbc
00000160: d9a4 0c3d fa00 8b3d de3e 1d3c 97be 5e3c
00000170: d426 aebc 1db8 823d 6001 10bc e79a 0e3d
00000180: 7217 2fbc 004c 1fbd 73c7 183c 3cdd 3b3d
00000190: 466c cb3c a493 57bd 7f8d 3fbd 6b92 fb3b
000001a0: 96d0 bb3d 9eda 06bb 7fdf b13c ab58 66bc
000001b0: a95c e93c 15e8 213d 3717 003d aa18 88ba
000001c0: ac25 1e3d 2646 05be 6c60 52bd ea94 f33c
000001d0: 6d34 ba3c 0b5b 77bb c80a 323b b006 ad3c
000001e0: d0b1 133d fbf5 4bbc 6a17 253c 32d3 f7bc
000001f0: dec8 b3bd 4e19 b0b9 f2b2 ccbd 5f31 813c
00000200: fd6a a8bd 0f53 c93c ef51 993c c741 d93c
00000210: 4a34 b13d 46f9 e9bd 2b64 1dbd 92fd e33d
00000220: 3591 94bd 3b99 8a3d eea6 68bc cb30 b93d
00000230: 8d8f c73c ae54 d8ba 803a bd3d bb4b cd3d
00000240: d008 a5bc 2beb 3b3d f486 143b ae6b 85bd
00000250: ea72 83bd d644 44bd 0a00 a4bd c86a 7bbb
00000260: 1ffd 36bc 942d 74bd c21e 853d 5c0c d13b
00000270: a9bb b73d dab1 4fba f33a fc3d 6046 7a3c
00000280: 73ab 183c 3b3c 853b 5439 753d 8955 793c
00000290: 06b1 ad3d 08ce b6bc 91e8 0b3b 8245 dfbc
000002a0: 4cda 653d d997 0ebd 4e82 e63c dfc5 8dbd
000002b0: ae5e 05be 22a9 b23c d7c9 e73c 899c ff3c
000002c0: 4de5 5e3d 263b 64ba 933b 6cbd 9ce6 793c
000002d0: 13e0 18bc a3a2 bc3c 4b2a 63bd c02d 24bd
000002e0: 6cf9 28bd 354f e3bc c8d0 46bb c45d f0bc
000002f0: ac47 25bd 41fb 89bd 0463 9abd 402a 24bd
00000300: 0e2c bdbd 29c1 513d bf5b c3bd dbb4 2d3d
00000310: c48d 293e 417d e33c 9356 ddbd ce27 9dbd
00000320: f7a9 0ebd efc1 19bd 6f71 3fbd 7a4c 7d3c
00000330: b710 323c a7c3 5cbc db74 8a3d 7feb 223e
00000340: b9cf 80bd 3b10 afbd fade c4bd b812 4fbd
00000350: c325 963d 11a2 b4bd 1078 01be 96c7 11be
00000360: 8a54 873d 4894 2cbe 7fe9 82bc b987 b1bc
00000370: 2773 37bd e6cd e33d c724 5ebd a377 56bd
00000380: f82a 1d3e 4c9b f6bd 0510 bbbd e102 7f3b
00000390: 7ea9 fcbd f16a 463d f5ae d7bd 7fba ebbd
000003a0: 990c ae3d 51c7 4fbd 33fc a3bd 0258 273e
000003b0: 879e 453b 9f0a a6bd c966 9f3d b63b e5bd
000003c0: b264 d63d a9f4 6ebd d4db 223d 0cd0 d73c
000003d0: bdcc 9abd e0c6 4ebd 69b7 273c 36c9 17be
000003e0: d121 dcbd 500e 023e 900c f3bd b538 37bd
000003f0: d5b7 033e cc29 63bc f79d 31be f477 5fbd
-0.075210504 0.16354112 -0.09134226 0.09445025 0.112124294 0.0425205 0.0068647983 -0.063647725
0.07623271 -0.06513706 0.03942668 0.14794885 -0.07167972 0.034758724 -0.04342447 -0.010430312
-0.04699693 0.11946783 -0.17533085 -0.04548334 0.17932026 0.059304543 0.16644426 0.07860104
-0.061138663 -0.0924758 -0.07173201 0.08313246 0.061580397 0.006536036 -0.12179622 0.03543249
0.07535864 0.1716666 0.104688056 0.033997227 0.07980369 -0.030659117 0.02813596 -0.09113689
-0.020034702 -0.13880484 0.033220172 -0.045810923 0.0046777325 0.110300556 -0.18307994 -0.18391171
0.0067141484 0.039878882 0.011852021 -0.058518637 -0.00068000134 -0.027086409 -0.02038623 -0.15515423
0.0012979001 -0.04715139 0.008689641 -0.15760903 0.080726184 0.012657123 -0.06953539 0.1115316
-0.038614664 0.014911357 -0.012501653 -0.040650506 -0.009825239 0.021103917 -0.032307457 0.05305957
0.011467615 0.010049401 -0.046250697 2.9397233e-05 0.01667143 0.045421172 0.0058773663 -0.026931733
-0.07645942 -0.05187047 0.01817764 -0.054597776 -0.033998933 -0.054012373 0.045925613 -0.019155769
0.0343369 0.06787296 0.009597508 0.013595245 -0.021258749 0.06382773 -0.00878939 0.034815695
-0.010686742 -0.03889084 0.009324896 0.045865282 0.024831902 -0.052631035 -0.0467658 0.0076773665
0.09170644 -0.0020577083 0.021713017 -0.014059226 0.028486567 0.03952797 0.03127214 -0.0010383327
0.038610145 -0.13015041 -0.051361486 0.029734094 0.022730077 -0.0037743475 0.002716707 0.021121353
0.036058247 -0.012448783 0.010076383 -0.030252073 -0.08778547 -0.0003358819 -0.099950686 0.015770612
-0.082235314 0.024575738 0.018715827 0.026520623 0.086525515 -0.11424498 -0.038425606 0.11132349
-0.072542585 0.06767508 -0.014199955 0.0904251 0.024360443 -0.0016504729 0.092396736 0.1002421
-0.020145804 0.04587857 0.0022663446 -0.06514679 -0.064184025 -0.04791721 -0.0800782 -0.0038363207
-0.011168747 -0.05961378 0.06500007 0.006379647 0.0897134 -0.0007922925 0.12315931 0.015275568
0.00931822 0.004066018 0.059869125 0.015218147 0.0848103 -0.02231504 0.0021348337 -0.027254824
0.056116387 -0.034812782 0.028138306 -0.069225065 -0.13024399 0.021809164 0.028294487 0.031202571
0.054417897 -0.00087063236 -0.057674002 0.0152527355 -0.009330767 0.02302677 -0.055460256 -0.040082693
-0.041253492 -0.02774773 -0.0030336846 -0.029341586 -0.040351555 -0.06737376 -0.07538417 -0.040079355
-0.092369184 0.051209603 -0.095389836 0.042408805 0.16557986 0.027769687 -0.10807528 -0.07673608
-0.03483006 -0.037538465 -0.046739038 0.015460128 0.010868243 -0.0134743815 0.0676057 0.15910147
-0.0628962 -0.085480176 -0.09612842 -0.05055496 0.07331421 -0.08819974 -0.12643456 -0.14236292
0.066079214 -0.1685344 -0.01598048 -0.021671163 -0.044787552 0.111232564 -0.054234292 -0.05236019
0.15348423 -0.12041339 -0.09133915 0.0038911628 -0.123370156 0.04844183 -0.10531417 -0.11510181
0.084984966 -0.050727192 -0.080070876 0.16342166 0.0030154304 -0.081074946 0.077832766 -0.111930296
0.10468425 -0.058338795 0.039760426 0.026344322 -0.07558582 -0.05048263 0.0102365995 -0.1482285
-0.107486375 0.12700772 -0.118676305 -0.044731814 0.12863095 -0.013864946 -0.17345415 -0.054557756

rnn.bias_ih_l0 f4 [128]
00000000: fd22 95ba 7a63 47be 2caf c1bd d13a 09bc
00000010: a025 95bd 8933 323d 2ce6 80bc a093 203e
00000020: 87b8 a33d cc19 7cbd bf06 0c3d fb69 c9bd
00000030: 0f84 ddbd 3e7d f43c a532 bb3d 5665 2bbe
00000040: 630b 853d e255 24be 2532 37be 3e52 bd3d
00000050: 9906 21be 1759 2bbe 5424 34bd 3c20 bf3d
00000060: 95f9 ce3c 505a 55bd 86ec 77bd 8453 243d
00000070: 4e2a 173e 8641 e7bc 00c3 f2bd 94cc 083e
00000080: 7d58 e43d 6242 b93c 789c e13d ff3e 71bc
00000090: e45c cebd 6e8f d73d eec9 6fbd 97df 703d
000000a0: fac1 e63c 8f7a ff3d 3f5f 483d 89a4 0d3e
000000b0: 5829 8dbd a627 f9bd ee0f 2f3d 438b fc3b
000000c0: 1bcc adbd f020 bdbd f0b9 833d 3a59 84bd
000000d0: 76f4 72be 7c54 41be 449f b83d 051f 073e
000000e0: c44b c9bc deeb 44be 1e89 efbc 1e0f 18be
000000f0: fee3 923d bd90 333d a746 493c 8da5 20be
00000100: 86a1 793d fe52 6b3c 9593 28be 327d 083e
00000110: 5f0c 19be 2629 a43d 3318 273e a33d 853d
00000120: 69c6 02be 67ff d2bb 6a11 03be 0ee0 48bc
00000130: deb7 173e 7514 90bd 3c0d 7a3b d9a4 c63d
00000140: 780a 65bc 4c28 c63d 298e c9bd 4b47 313e
00000150: fc51 b0bb 97c1 7fbd f999 14bd 0284 a3bd
00000160: 4acf 0b3e 9cbd a2bd a5a9 8b3d d51a 853d
00000170: 2c2d 08bc 7580 1bbd c489 343d 08b5 79bd
00000180: d179 6cbd cf48 83bd 4dc7 db3d 8ab7 1abd
00000190: 55a1 f9bc 878e a1bd 2b83 5d3d da64 81bc
000001a0: 3188 813c df2e 09be e00b 00be dd8a 2a3d
000001b0: a722 e93d 13fd 2e3d b947 803d dca0 abbd
000001c0: 781f 5dbe e70f a63d e5f3 163e f4d0 0abe
000001d0: 76e4 edbc e06d 0fbe e45d 09be 60aa 1bbe
000001e0: 8534 2abe 5850 9dbd 7d72 03be a5e3 0fbe
000001f0: 2438 bc3d 75bb eb3d 80b2 eb3d 36c2 0c3e
-0.0011378225 -0.19471541 -0.094572395 -0.008375839 -0.07282567 0.04350618 -0.015734755 0.15681314
0.0799418 -0.06154804 0.03418612 -0.09834667 -0.10816204 0.029844876 0.09140519 -0.16737875
0.064963125 -0.16048387 -0.17890222 0.09244202 -0.15725173 -0.16733204 -0.043979958 0.0933232
0.025265494 -0.05208808 -0.0605283 0.04011871 0.14762232 -0.028229486 -0.118535995 0.1335929
0.1114969 0.022614662 0.11016172 -0.014724492 -0.10076311 0.10525404 -0.058542185 0.058806982
0.028168667 0.12474548 0.04891896 0.13832296 -0.06892651 -0.121657655 0.0427398 0.007707031
-0.08486196 -0.09234798 0.06431949 -0.06462331 -0.23726067 -0.18879884 0.090147525 0.13195427
-0.02457226 -0.19230601 -0.029240187 -0.14849517 0.07172392 0.043839205 0.012284911 -0.15688153
0.060945056 0.014363049 -0.16462548 0.13329008 -0.14946125 0.08015661 0.16317825 0.06505897
-0.12771 -0.0064391377 -0.12799612 -0.01226045 0.14816234 -0.07035152 0.003815486 0.09699411
-0.013979547 0.09675655 -0.09841568 0.17312352 -0.005380867 -0.06244048 -0.036279652 -0.07984163
0.13653293 -0.07946321 0.068194665 0.064992584 -0.008311551 -0.037964303 0.044076696 -0.06096366
-0.05773336 -0.064103715 0.10731373 -0.037772693 -0.030472437 -0.07888513 0.05408017 -0.01579516
0.015812011 -0.13396786 -0.1250453 0.041636337 0.113835625 0.04272182 0.0626368 -0.08380291
-0.21594036 0.08108502 0.14741476 -0.13556272 -0.029039603 -0.14006758 -0.13414723 -0.15201712
-0.16621597 -0.0768134 -0.12836643 -0.14051683 0.091903955 0.11510364 0.115086555 0.1374596

rnn.bias_hh_l0 f4 [128]
00000000: cb39 cabd 1454 0bbe 423e 1a3e ab30 dcbd
00000010: b5ec bcbd 44ef 25be 50d5 1fbd 908d b03c
00000020: c164 b7bd 75a8 e1bc dfea 53be f9b2 2fbe
00000030: 37e3 2e3e 0a14 0fbd 70af 30bc 80e2 7cbd
00000040: 87fc 09be cc62 19be 3c6b f6bd ee36 ff3d
00000050: 12a0 3bbe 7c9b 38be dd1a ef3d 6105 c53d
00000060: b3f1 1f3d 1e58 2fbe 6530 e8bd 098d 153e
00000070: 2ac9 be3d 66b2 06bc eed3 eebd b1c3 103a
00000080: ed83 04bd 9e0c 9f3c 5500 c1bd ab6d 14be
00000090: c24d 30be 1ebe ffbc b4be 123e 5eae 923d
000000a0: 7231 2cbe 49eb 04bd a576 523c 1521 963d
000000b0: 3571 d33d 8f82 11be ccb7 04bd 666c d0bc
000000c0: d979 2cbe c176 c4bd f807 ecbd 4f58 083d
000000d0: 9109 c93d abac 0f3d c010 51bd a7c8 6b3c
000000e0: 3555 6cbe b6c7 b8bd 401b bfbd a69f d33d
000000f0: 67e7 e5bd 3300 babd 0fa7 bd3c be70 fb3d
00000100: 629d 22be ba5d c9bc 49ca 6b3d 2188 f8bd
00000110: 6449 d6bd 61bd 89bd 8ef3 76bd 8e7f 513c
00000120: ee17 a6ba bcbd 083e 015d 853d 5337 173e
00000130: 8cfc e63c 492f 4dbd 0f4a a23d bc42 22bd
00000140: d312 82bd 9deb 883d 7c4b 20bd 157d ebbd
00000150: 5f4d d0bd 9ab4 e3bd bf76 b63d 4a7f c23d
00000160: a6a4 cb3a 9366 123e 22ad 443d 42d3 563d
00000170: d2d0 1d3e 568b 543d 9c98 b53d 8b09 d03d
00000180: 07d0 20bd ccfe f9bc 6679 d5bd 83ae 18bd
00000190: f2bf 8ebd fbde 803d 6bb6 05bd 3b09 d7bd
000001a0: dd6d 113e b885 c43a 6442 f8bd b02c 81bd
000001b0: 7f58 ec3d ec74 04be 31a9 073e 0915 4dbc
000001c0: 85ae b4bd 469e a6bd 64b5 93bd a939 2abe
000001d0: 79b8 13be a25e 90bc 729b 303d bcab bd3d
000001e0: a13b 9d3c 4f9d ac3d b731 00be 0b1a b3bc
000001f0: 2554 073e e0f5 0bbe 1ab8 53bd 33be c63d
-0.098743044 -0.13606292 0.15062812 -0.1075147 -0.09224836 -0.16204554 -0.03902179 0.021551877
-0.08954764 -0.027546147 -0.20695065 -0.17158116 0.17078863 -0.03493122 -0.010784015 -0.061739445
-0.13475238 -0.14979094 -0.12032172 0.12461649 -0.1832278 -0.18028063 0.11675046 0.096201666
0.03904886 -0.17123458 -0.113373555 0.14604582 0.09315713 -0.008221244 -0.11661516 0.00055223244
-0.032352377 0.019415196 -0.094238915 -0.1449496 -0.17217162 -0.031218585 0.1433056 0.07162164
-0.16815737 -0.032450948 0.01284567 0.07330529 0.10324327 -0.1420996 -0.032401845 -0.025442313
-0.16843356 -0.09592963 -0.115249574 0.033287343 0.09816278 0.03507678 -0.051041365 0.014391101
-0.23079379 -0.09022467 -0.093313694 0.10333185 -0.11225777 -0.09082069 0.023150949 0.12277363
-0.1588035 -0.024580825 0.05756596 -0.121353395 -0.10463217 -0.06725574 -0.060290866 0.012786759
-0.0012671927 0.13353628 0.0651188 0.14767198 0.028196596 -0.050093923 0.07924282 -0.039614424
-0.06351247 0.06685565 -0.039134488 -0.11498467 -0.10171007 -0.111184314 0.08909368 0.09496935
0.001553674 0.14296941 0.048016675 0.052447565 0.1541169 0.051890694 0.088669986 0.1015807
-0.03926089 -0.030517004 -0.104235455 -0.037275802 -0.069702044 0.0629253 -0.03264467 -0.104998074
0.14202066 0.0014993465 -0.12122038 -0.063073516 0.11540317 -0.12935227 0.13248135 -0.012517222
-0.088223495 -0.08135657 -0.07212332 -0.16623558 -0.1442584 -0.01762325 0.043116994 0.09261271
0.019193472 0.08428442 -0.12518965 -0.021863004 0.13215692 -0.13668013 -0.051689245 0.09704246

gcn.lin_n.weight f4 [32, 32]
00000000: 9dee e4bd d2cc 903d dd31 b3bc b40a 4fbe
00000010: 0738 32be 966d d7bb ca13 8cbb 0d2c 7a3e
00000020: b653 df3b 5b58 5c3e 696a febd bb72 ca3d
00000030: 33b2 50bd df05 1cbe 3ea3 8d3e 4522 9cba
00000040: 920a d83c 8875 2a3e 4568 263d 1e9f c53d
00000050: 4b0c 4dbd ce5a 12be 6aae d73d 11bb cf3c
00000060: d34e 363e 5e41 783b 7b16 7dbd d391 ac3c
00000070: 9b98 8c3d 7bcf 293d c1e5 263e f78c 8b3e
00000080: 93a5 ce3d 0a0d c23d 2d0c 0c3e ad49 313e
00000090: 8c75 4e3d edc1 043e fab8 113e 7280 f5bd
000000a0: 5e13 88bd 8fe5 453d 560c 9cbd 8104 02bc
000000b0: 4810 803d 630b 59bc f58a 16bd 48c9 f3bd
000000c0: 9cce 293c 4dcf 1fbe 2640 83bd 487d 34ba
000000d0: 894d 09be 7e89 00be 0175 5abe 00f4 053e
000000e0: 8d75 1fbd ee38 43be f594 90bb 4562 00bd
000000f0: d7de 2ebc 564f 093c 8e4d 153e c7da 24be
00000100: 2bc8 0336 980d 8830 46b7 ddb2 3d5a e1b3
00000110: 246a 9432 cf7f 67b1 d28a 8634 4f26 e8b0
00000120: 6ff3 76b2 58a4 39b1 c3b5 85b2 c60d 02b6
00000130: 28ed 3133 91d0 11b4 80ec 2d32 684a 63b1
00000140: 094d 03b3 8963 e432 2686 03b4 99a8 a2b4
00000150: 8d12 ca34 68e0 ba31 8183 8ab2 3860 a032
00000160: f167 f432 d702 1a36 dafc a831 eac9 c3b4
00000170: 00e4 7ab2 3928 25b1 9f23 acb2 6c1f 0eb3
00000180: 523b 193e 4325 e53d 5ff3 e43d c162 4b3e
00000190: 7fd2 4e3c f0bf 47be 0bc0 ddbc 9f1a 88bd
000001a0: d8da 303e eac8 96bd 509a fb3d bd37 8d3d
000001b0: 3172 98bd cbb3 a1bc e590 c0bd 67ff 993c
000001c0: 7be9 2d3e a428 3ebe 094c 69bd 5e0a 283e
000001d0: c401 7abc a43c 323e 9812 bd3d 6269 003e
000001e0: 2a78 573d ea30 e0bd dba3 0cbe 078e cebd
000001f0: 472f e4bd f94d f43d 5efe a03d d313 683c
00000200: 2c61 1d3e 3e62 69bd 535f 38ba 07c7 d53d
00000210: 7adb bebd f7d2 b53d 472d 853d 7ad4 31bd
00000220: d5df 84bd 1452 153d 9449 95bc cfe6 d1bd
00000230: e883 4dbd 46f0 673b a63b 9ebd b4c2 efbc
00000240: 9c82 01be b83a f6bd d6f2 dfbd 1623 92ba
00000250: 0687 103d 62fc 33be 4e16 f3bc dad6 92bd
00000260: 7921 0a3e 5c5b 24be 85ac a7bc d7e3 0c3e
00000270: 2366 11be a922 26bd bb8f e03d 4e79 efbd
00000280: 298f 073e efdc 823d a3e8 f7bd 4be1 a73d
00000290: 4bdc e4bc 5801 3a3c 50f4 b23d f22c 163e
000002a0: e47d 02be 25f5 fbbc ed11 b13d 01ab 053e
000002b0: 7183 103e 7328 43bd 1da7 083e ffd3 93bd
000002c0: b437 913d ad36 183e 1d6e 063c 18e9 2ebe
000002d0: 6968 3abd 8e74 4fbe e988 263e f145 10bb
000002e0: 39cc c2bc 036d 8dbd 02ff d83d 1172 6f3c
000002f0: 4675 183e 6a5c 21be bd5d f53d f8df 033e
00000300: f3f0 cebd f4c6 0e3d 5d05 323d 30e4 9d3d
00000310: 05ab 4e3e 49d5 11bd 7caa 26be 73bd dfbd
00000320: afec c4bb 0075 b23d d537 ff3d 35a3 4c3d
00000330: 610b 803c a65e 4abd 762b 543d 43bf 7fbd
00000340: 8c78 233c 3d8f 123c 35a6 373e 8dc2 0abd
00000350: 228c 123e 7806 a5bd 5d2e e5bc 763e 44bd
00000360: 57c9 d7bd d270 43be 1f41 7e3d 1921 0d3e
00000370: 6491 cc3c 8dd3 a13d 427b 5c3d d4bd 373d
00000380: eb9d 513d 5710 8a3d 8e99 843c e1d6 543c
00000390: b513 3d3e cb73 0dbe f651 80bd e79a 29be
000003a0: ea18 c13d 083e bbbd 6121 8f3d 328a d9bc
000003b0: fbea 013e c201 253e 4d01 c0bd 6c39 a93d
000003c0: ee8e f0bd bc21 a13d 9694 da3c 698b f5bd
000003d0: ea1f 4a3d c453 b63d 4859 3bbe 5ab7 8e3d
000003e0: fbce 49be aab9 f33d 4f0f 2f3e e387 73bd
000003f0: 8a4f f4bd 6a27 f1bd e2c5 95bd 63b4 debb
-0.11178324 0.070703164 -0.021874363 -0.20218927 -0.17404185 -0.006574343 -0.00427482 0.24430867
0.006815399 0.2151808 -0.1242264 0.09885164 -0.050951194 -0.15236615 0.27663606 -0.0011912069
0.026372228 0.16646397 0.040626783 0.0964949 -0.05006055 -0.14292452 0.10531314 0.025357755
0.17803507 0.0037880759 -0.061789017 0.021065628 0.06865045 0.041457634 0.16298582 0.27255985
0.100901745 0.09475143 0.1367652 0.17313261 0.05040507 0.12964602 0.14230719 -0.119873896
-0.06644319 0.048314627 -0.076195404 -0.007935644 0.062531054 -0.013247344 -0.036753614 -0.11903626
0.010364201 -0.15606423 -0.0640872 -0.00068851234 -0.13408484 -0.12552449 -0.21333696 0.1308136
-0.038930465 -0.19064686 -0.0044122883 -0.031343717 -0.010673246 0.008380732 0.14580366 -0.16099082
1.9637034e-06 9.899166e-10 -2.581113e-08 -1.0493793e-07 1.7277735e-08 -3.3687575e-09 2.506045e-07 -1.689111e-09
-1.4374435e-08 -2.7014462e-09 -1.5565893e-08 -1.9379527e-06 4.1426716e-08 -1.3580053e-07 1.0123699e-08 -3.3075143e-09
-3.0570877e-08 2.6587957e-08 -1.2249129e-07 -3.0297522e-07 3.763893e-07 5.4388245e-09 -1.6125115e-08 1.8670207e-08
2.8452606e-08 2.2949441e-06 4.9181894e-09 -3.6468492e-07 -1.4603756e-08 -2.4033524e-09 -2.0039634e-08 -3.309053e-08
0.14964035 0.11188748 0.11179232 0.1986189 0.012623428 -0.19506812 -0.027069112 -0.066457026
0.17270982 -0.0736254 0.12285292 0.06895397 -0.07443655 -0.019739052 -0.094026364 0.018798543
0.16983597 -0.1857019 -0.05695728 0.16410205 -0.01525921 0.17405945 0.09232062 0.125402
0.05260483 -0.109468296 -0.13734381 -0.10085683 -0.1114183 0.119289346 0.07861017 0.014164883
0.153691 -0.056978457 -0.00070332474 0.10438352 -0.093192056 0.08878129 0.065027766 -0.043415524
-0.06488005 0.03645523 -0.018223561 -0.10249101 -0.050174624 0.0035391017 -0.07726221 -0.029267646
-0.1264748 -0.120229185 -0.10934989 -0.0011149372 0.03528502 -0.17576745 -0.029673722 -0.07169886
0.13489331 -0.16050476 -0.020468006 0.13758789 -0.14199118 -0.0405604 0.109649144 -0.11693059
0.13238205 0.06389796 -0.12104919 0.08197268 -0.027937075 0.011352859 0.08738005 0.14665583
-0.12743336 -0.030756542 0.08645997 0.13053514 0.14112641 -0.047645997 0.13344999 -0.072181694
0.07090703 0.14864607 0.008204964 -0.17081106 -0.04550973 -0.20259306 0.16263165 -0.0022014345
-0.023779022 -0.06905558 0.10595514 0.014614598 0.14888486 -0.1575791 0.1198077 0.12878406
-0.10104551 0.034857705 0.043462146 0.07709539 0.20182426 -0.035603795 -0.16275972 -0.109248064
-0.00600966 0.08713722 0.12461821 0.049960334 0.015630426 -0.04940667 0.05179926 -0.06243826
0.009977471 0.0089452835 0.17934497 -0.033876944 0.14311269 -0.080578744 -0.02797621 -0.04791113
-0.105364494 -0.19086006 0.062073823 0.13782157 0.024971671 0.07901678 0.053828485 0.04485877
0.051175993 0.06741398 0.016186502 0.012990684 0.18464549 -0.13813703 -0.06265633 -0.16562997
0.0942858 -0.09142691 0.069887884 -0.026555154 0.12687294 0.16113952 -0.09375248 0.082629055
-0.11746012 0.078677624 0.02668218 -0.11989481 0.049346842 0.08902696 -0.18295777 0.06968565
-0.19707863 0.11900647 0.17095684 -0.059455764 -0.11929233 -0.11775096 -0.07313134 -0.006796406

gcn.lin_n.bias f4 [32]
00000000: b015 923b 15c2 7c3a 6f36 2ebb ff5d 963d
00000010: 702b 36bd e136 da3d 0b35 bd3c b3a6 df3d
00000020: 5fee 203d 466d 1b3e 3fca b0bd 4956 5a3d
00000030: e42d c5bc 0faf d23d a7c2 e3bd c473 9d3d
00000040: bdf3 e1bd fa6b c0bd f9b3 0b3d e9a8 78bd
00000050: 316b 973d 1bde 333e 1d6a 45bc b973 86bc
00000060: 0c5e cc3d b057 1dbd 1d9f cb3d b9f9 b23c
00000070: fe9b 8dbd 9a3c a53c c4ea 03be 6bc9 5cbd
0.0044581518 0.00096419576 -0.0026582738 0.07342147 -0.04447502 0.106549986 0.023096582 0.10920467
0.03928983 0.15178403 -0.086323254 0.053304944 -0.024069734 0.10287296 -0.11121111 0.07688096
-0.110328175 -0.09395595 0.034107182 -0.06070796 0.07393492 0.17565195 -0.012049225 -0.016412603
0.099788755 -0.038413703 0.09942458 0.021847593 -0.06914519 0.020170499 -0.12882525 -0.053903025

gcn.lin_r.weight f4 [32, 32]
00000000: 53be 08be 3bf3 39be 7091 72be 6ecd 2abe
00000010: 07a9 36be 08bf 693d 8fee 473e 2bea 703c
00000020: e09e 3abe 1c03 2cbd 514f 3fbd 8dea d53d
00000030: 2a8c 563e 6889 20be b091 623d 874a aa3d
00000040: 7fef d8ba a320 71bd 9d82 f0bd f7c5 1f3c
00000050: b5fd 213d 607d 7ebd 0b4f 1a3e ad62 febc
00000060: d313 9b3d cd98 413e ca56 783d 0f30 8f3d
00000070: e199 133d 34ec 17be ca25 89bd ec2c 9e3d
00000080: e77e cdbc 6d4b 27be ab23 d33d c0a0 003e
00000090: 0b5e 1c3e a515 e7bd ee6d 933d affe 68bc
000000a0: 6fad c1bd e906 ef3d c9c0 1d3e 4071 c3bd
000000b0: 8641 793d f9f5 ecbb 77e0 1f3e 832d fe3d
000000c0: d938 183e 1afa 9d3c 63da eabd 02cc 08be
000000d0: 2942 ffbd 29d3 dbba 3db3 03be d187 4a3d
000000e0: 0101 573d 74d5 b5bd 7e64 493d 7b05 3bbe
000000f0: 8b8e 343b 6c9d 7abd 2cbe 1fbe ad59 083e
00000100: 0b07 93b3 18cb efb2 79dd 7233 aeab d2b1
00000110: 07d1 6fb3 1d33 15b2 bf70 7132 7247 3e33
00000120: dbff 5133 0718 b934 6e43 16b1 d2ca eb34
00000130: f527 92b9 f8c1 86b5 0565 1eb2 ac27 9533
00000140: f452 b032 65f0 5eb2 40fe 0eba 31e0 d630
00000150: 56b7 0838 e2ed 2ab2 7d3d 8a32 c6e1 313a
00000160: 752f b932 f40c 2130 e0c8 ef31 1e7f b2b2
00000170: 3313 3633 a9c9 e2b1 30bf 96b7 72be ffb1
00000180: 9021 713e 22b8 4f3a cb81 213e b425 3e3b
00000190: d539 ec3d c7a6 d7bc cccc 1bbe a30e f0bd
000001a0: 0c76 763d 2b62 e3bd e986 ef3c ad9c 36bd
000001b0: 77b8 63bc 6092 b5bc 6cbd 7e3c 8485 3e3e
000001c0: 9911 24bd 017f 1c3e d212 01be 6c33 ffbd
000001d0: 960d de3d 85f0 363e 7b97 80bd 58c5 12be
000001e0: 5240 0f3e cc09 37be 4ff8 15bd 4999 a0bd
000001f0: 13c7 6dbd c230 22bc c592 a23d ad51 22bd
00000200: af38 83bd c5d0 bcbd 9553 18be aa58 0b3e
00000210: f13f 24be 6636 0d3e 6e0e 053e 626b aa3d
00000220: 9116 c73d c170 24bd 5621 453d bd2b 0abd
00000230: 0b04 903d 00a6 8aba 9538 2abe 0dc9 a5bd
00000240: 8fc0 ba3d 069e ef3b 6ede 1ebd 5c6b 97bd
00000250: 24f8 063b b906 4e3d aced d1bd 20bd e2bd
00000260: 8d00 20be 228e be3c 711d 553d 677f 253d
00000270: c464 183e 23be 1e3d bb70 b0bd 9b3b 08be
00000280: 7d41 03be 24ae 10be 12dc f13c 6d82 14be
00000290: 2b5f 18be 35d9 e2bd 1e66 2c3e 1136 a03a
000002a0: 4c68 923d 8d46 e63c ab3d 92bd f34e da3d
000002b0: b5ff 973c 33d1 e23d d7f7 843d 35ad 093d
000002c0: ae37 6b3c d589 ea3d 80a1 cf3d b4a0 263e
000002d0: 0760 863d 806c 893b 2de4 34bd 8018 83bd
000002e0: 99c7 ac3c 439c a4bd f663 863d e960 1b3d
000002f0: 2557 1a3e e0d9 2a3e 3dcf 2ebd 1d01 713d
00000300: 9804 083e 22fc 0b3e f303 5f3e 330f 56bd
00000310: de5d 08bd 8bcc 98bd 4a43 f1bc dfe9 7c3d
00000320: c597 ac3d 98e7 b23d 9737 4a3e a593 08be
00000330: 57e4 c93d b2b6 0abd a46d 9a3d 748b d3bd
00000340: 6bc2 003c 4dd8 c83d 133b 883d 9f1e 0c3e
00000350: 2a71 293e 09b1 71bd f0e0 8bbc 7cbe 9b3c
00000360: 9be4 ac3d afe0 ebbd e76f 86bc f71a 47bd
00000370: a121 793c 259f 06be e0b2 01be 7cbd 53be
00000380: 7f5a 44bd 7916 c13d ca2a 8e3d da39 58bb
00000390: 4d2f 14be c550 80bc 0dab 24be 5118 b5bd
000003a0: ade1 233e 8c4d dabd 757b 003d c887 c9bd
000003b0: b6bf 3cbd 6d48 eabd abc6 d33d 1e8e 7abc
000003c0: 88cd b4bd f560 e23d 5e3b 2b3e 21dd be3d
000003d0: c3aa a7bc 7e0b 1f3d c00c b43d d8e4 cd3b
000003e0: 6115 35be 9cc3 ac3d b1ad f6bc 3b90 1bbe
000003f0: bce5 1ebe cf18 d6bd 0b6e 03be 3bc1 e1ba
-0.13353853 -0.18159191 -0.23688293 -0.16679928 -0.17837916 0.057066947 0.19524597 0.0147042675
-0.18224669 -0.041995153 -0.0467065 0.10445128 0.20951906 -0.15677416 0.05531472 0.08314996
-0.0016550868 -0.058869015 -0.117436625 0.009751788 0.039548595 -0.062131286 0.15069215 -0.031052912
0.075721405 0.18905945 0.060629643 0.06991588 0.036035422 -0.14836198 -0.06696661 0.07723412
-0.025084926 -0.16337366 0.103095375 0.12561321 0.1527025 -0.11283425 0.07198702 -0.014220878
-0.09456908 0.1167124 0.15405573 -0.09543085 0.060853504 -0.0072314707 0.1561297 0.124110244
0.14865436 0.019284297 -0.11467435 -0.13359073 -0.12463791 -0.0016771305 -0.12861343 0.04944593
0.05249119 -0.088786036 0.049168102 -0.1826381 0.0027550783 -0.061185285 -0.15599889 0.13315459
-6.846502e-08 -2.7915618e-08 5.6546444e-08 -6.131322e-09 -5.5836633e-08 -8.684563e-09 1.4053682e-08 4.43028e-08
4.8894304e-08 3.4476417e-07 -2.1866202e-09 4.3919732e-07 -0.0002787706 -1.004023e-06 -9.21978e-09 6.9455695e-08
2.052682e-08 -1.297676e-08 -0.00054547563 1.5634268e-09 3.259567e-05 -9.949391e-09 1.6093276e-08 0.0006785657
2.1558415e-08 5.8589866e-10 6.9786523e-09 -2.0779733e-08 4.239264e-08 -6.600392e-09 -1.7970422e-05 -7.443128e-09
0.2354796 0.0007923861 0.15772168 0.0029014172 0.11534468 -0.026324643 -0.15214843 -0.11721542
0.060171172 -0.111027084 0.029239135 -0.04458301 -0.01389896 -0.022164524 0.015548091 0.1860562
-0.040055845 0.15282823 -0.12604836 -0.1246098 0.10842435 0.17865188 -0.062788926 -0.14333093
0.1398938 -0.17874831 -0.03661376 -0.07841737 -0.05805118 -0.00989932 0.0793815 -0.039628673
-0.06407296 -0.09219507 -0.14875634 0.13608041 -0.16040017 0.13790283 0.12993786 0.08321263
0.09721101 -0.040146593 0.048127495 -0.03373312 0.07032021 -0.0010578036 -0.16623147 -0.08094988
0.09118759 0.007312539 -0.038786344 -0.07393524 0.002059468 0.05029938 -0.102504104 -0.11071229
-0.1562521 0.023261134 0.05203003 0.040404703 0.14882189 0.038755547 -0.08615252 -0.13303988
-0.1281795 -0.1412893 0.029523883 -0.14502878 -0.14880054 -0.11076585 0.1683583 0.0012223144
0.07148799 0.028109813 -0.071406685 0.106595896 0.018554548 0.11075058 0.06492584 0.03361245
0.014356537 0.114520706 0.101382256 0.16272241 0.065612845 0.0041938424 -0.044162918 -0.064011574
0.02109127 -0.08037617 0.06562035 0.037934218 0.15072306 0.16684675 -0.042678107 0.058838952
0.13283002 0.136704 0.2177885 -0.05226059 -0.033292644 -0.074608885 -0.029451031 0.061746474
0.08427385 0.08735579 0.19747768 -0.13337572 0.098580055 -0.033865638 0.075404435 -0.10329333
0.007858853 0.09806881 0.066518925 0.13683556 0.16547075 -0.059006725 -0.017075032 0.019011728
0.084420405 -0.11517464 -0.016410781 -0.0486097 0.015205772 -0.13146646 -0.12665892 -0.20677751
-0.047937866 0.094281144 0.06941755 -0.0032993467 -0.14471169 -0.015663514 -0.16080876 -0.088425286
0.16004057 -0.10659322 0.031367738 -0.09840351 -0.046081267 -0.11439595 0.10340627 -0.015292672
-0.088282645 0.11053649 0.16721866 0.09319521 -0.020467168 0.03882932 0.08791494 0.006283384
-0.17683937 0.08435747 -0.03011212 -0.15191738 -0.15517324 -0.104539506 -0.12834947 -0.0017223725

gcn.lin_2.weight f4 [32, 32]
00000000: 2348 933d e0ce 95bd 38d7 93b2 ccb8 143e
00000010: 0db3 0fbe 67f5 8a3d eab7 dbbd 4721 bf3d
00000020: 3f8c 35be a39f b2bd fe57 a7bd b4b8 cebd
00000030: 94ad b5bc 1c0c 213c 403e 8e3d 04e8 793d
00000040: a317 b23c 45c7 8330 4521 d93b 6e51 6dbd
00000050: fd9e bdbc a529 d0bd 603e 0db3 895a d7bc
00000060: 9915 a93d 01cd e03b b236 07be f9eb 703d
00000070: 49eb 8c3d ac9a cebd fce9 6fbd 1bb9 25be
00000080: 623e ddbd 78dc cebd ac69 6f31 6a1a d03c
00000090: e290 1cbe 70a7 27bc eae2 e4bd 880c f3bd
000000a0: a295 0abe 4b57 103e 594d a0bd a3b6 bbbc
000000b0: 92b0 c4bc 0b26 113e 1dd2 a8bd d75c 04be
000000c0: 052e a8bd c193 f236 b3dd 0b3e 5f1b cd3d
000000d0: 0bba 6f3b 0568 1d3e dd8e 44b2 5dff 51bc
000000e0: 5471 423e be61 6b3c 293a 583e 99fb 9cbd
000000f0: 9d3c 95bc 24d5 493d c395 f5bd abf4 cb3d
00000100: 0301 443d 10cc 46bc 20f0 2631 723a f43d
00000110: d7e3 08bd a07d 15be b78f 14be 99a2 cfbd
00000120: 12d5 12bd 2bcc 0cbe a03c 183e 768d 153e
00000130: cafd cc3c 2645 283e 241b 163e a8e2 053e
00000140: a92c da3d e2ed 8934 eaf7 ef3d b973 2b3e
00000150: 8471 14be b373 f33d 97d2 c2b2 b9b9 9e3c
00000160: 32ee 793c a7a9 be35 cced 833d 422e 293e
00000170: 1b45 033e 6c06 6e3d 465e e3bd 6d0a 9c3d
00000180: 35ec 3cbe 1c57 013e 1a79 22b3 dc87 a2bd
00000190: e862 0e3e d665 253e 0d64 dcbd cbc2 123e
000001a0: 9848 0abe 5e31 e83d d144 e8bd ba72 063a
000001b0: f4e9 c83c ea9c 5f3d 0702 87bd 4167 1a3e
000001c0: a736 3e3e d3ff 3832 5ee5 c2bd d516 0fbe
000001d0: 491b 0d3c fdd1 f83d 1727 cc34 6122 92bc
000001e0: 3ad3 313d 95a4 c83a e4c8 c6bd b0fc 863c
000001f0: c094 ebbd 7ec6 04bd 4ec7 203d d1db 4bbc
00000200: 31f6 abbc a9e3 98bc 4ebd 9baf 2f31 0d3d
00000210: 6b03 22bd 7bb3 a03d cb87 03bd 6bb7 06be
00000220: b2af bbbd 4452 9bbd 1113 0d3e 3e44 eb3b
00000230: d703 c9bc c63b 7a3c 5602 16be b454 143e
00000240: 9ea0 003e b1b9 bb34 537a 01be 3ca5 cf39
00000250: cecf ab3d 27f5 353e 3ed4 01b2 3c30 82bc
00000260: 2211 333e 62ef 10bd ab2b 183e 1815 87bd
00000270: 5ee0 de3d 9d7a 363e 2ced 72bd 33bf 2dbe
00000280: 965a 77be eeec 23be d13f 11b1 8471 743d
00000290: 143a 1c3c bc71 073e 5bd3 c73d 5fd6 1ebe
000002a0: 02a6 d73d 07e2 dd3d 39e1 cf3d 0659 53bc
000002b0: ce2b bdbc 37f5 ab3d ad7b 45bd aba3 71bd
000002c0: cbf7 55bc a44a 1536 f431 9dbd a81b cebd
000002d0: 51f3 863d f06f e23d 46ed 5e33 84f6 90bc
000002e0: 2a84 fbbd ebec b036 3ace 063e 5dd8 fabc
000002f0: 1cab dc3d 8ee4 27be 5c5e 2d3d 31b5 543c
00000300: 45cd f43d 7b05 38be 0fc6 47b2 0b63 e63d
00000310: 92a4 0dbe 6a11 32be edbe 0fbd e91d 2fbe
00000320: 6484 38be 24e2 71be c8a2 b0bd 1518 0e3d
00000330: c5eb b63c 56bf 0bbd cd83 8f3a b456 cc3c
00000340: 7eac c4bd 0c69 6c34 5411 4abe 822d 8d3d
00000350: b167 27bc f55c 103d d5cb 93b2 7b0a 8bbc
00000360: 329a fdbd ca29 10bb 18d1 04bd 8b30 853d
00000370: 2bd8 3cbd 2009 29be 06db 94bd 33ac 223e
00000380: f54c 243d ed1d 82bd 5b10 12b3 a2d2 143e
00000390: 8357 073d 7114 233e 3da5 0e3c b325 90bc
000003a0: a7e1 953d 9652 383d 6a0c d03d fdac fabd
000003b0: 6b37 c13c 10e2 a13d abff 07bd 19d7 d33d
000003c0: 4a97 56bd 03d9 66bb 0775 86bd c128 143e
000003d0: 4eb9 aabd 3af0 c7bd 65c5 0733 983b e8bb
000003e0: 9a8f d8bd 0971 053c 0892 efbd d74d 6bbc
000003f0: d372 9ebd ecb0 c13d c547 443e c3d4 253e
0.07191493 -0.07314849 -1.7210922e-08 0.1452362 -0.14033146 0.06785088 -0.10728438 0.09332519
-0.17729281 -0.087218545 -0.0817108 -0.10093823 -0.022177495 0.009829547 0.06945467 0.061012283
0.021739786 9.58814e-10 0.0066262805 -0.057938986 -0.0231471 -0.10164193 -3.288585e-08 -0.026288288
0.082560726 0.006860376 -0.13204458 0.05881879 0.068808146 -0.10088095 -0.058572754 -0.16183893
-0.10802914 -0.10100645 3.4839145e-09 0.02540322 -0.15289643 -0.010232791 -0.11176093 -0.118676245
-0.13533643 0.140958 -0.07827253 -0.022914236 -0.024009977 0.14174668 -0.08243201 -0.1292604
-0.082119025 7.229363e-06 0.1365879 0.10014986 0.0036579396 0.15371712 -1.1441185e-08 -0.012817231
0.18988544 0.014366565 0.21115936 -0.07665176 -0.01821738 0.049275532 -0.119914554 0.09958776
0.047852527 -0.012133613 2.4292675e-09 0.1192521 -0.03342041 -0.14598703 -0.14507948 -0.10138435
-0.03584773 -0.13749759 0.14866877 0.14604744 0.02502336 0.16432628 0.14658791 0.13074744
0.106530495 2.569132e-07 0.11717208 0.16743363 -0.14496428 0.11887302 -2.2680338e-08 0.019375669
0.015254544 1.4205478e-06 0.064418405 0.16521552 0.1281933 0.058111593 -0.111019656 0.07619176
-0.18449481 0.12630886 -3.7828706e-08 -0.07936069 0.13904917 0.16152129 -0.10761271 0.1433212
-0.13504255 0.11337541 -0.11341251 0.000512879 0.02452562 0.054593004 -0.065921836 0.1507845
0.18575536 1.0768377e-08 -0.095164046 -0.13973553 0.008612462 0.12149427 3.8026403e-07 -0.017838659
0.043414332 0.0015307838 -0.097062856 0.016477913 -0.11502981 -0.03241586 0.03925257 -0.012442545
-0.020991417 -0.018663244 -2.8328845e-10 0.034470733 -0.03955404 0.07846733 -0.032111924 -0.13155906
-0.091643706 -0.0758405 0.13776805 0.007179766 -0.024537964 0.01527304 -0.14649329 0.14485437
0.1256127 3.4966573e-07 -0.12644319 0.00039605226 0.08389245 0.177693 -7.5570465e-09 -0.01589214
0.17487004 -0.035384543 0.14860408 -0.0659582 0.108826384 0.17820211 -0.059308216 -0.16967468
-0.2415565 -0.1600835 -2.1136553e-09 0.05967857 0.009535331 0.1322698 0.0975711 -0.15511464
0.1052971 0.10834127 0.1015038 -0.012899643 -0.023092177 0.083963804 -0.04821365 -0.058993977
-0.013059567 2.2246177e-06 -0.076755434 -0.10063869 0.06589378 0.11056507 5.1904202e-08 -0.017695673
-0.12281068 5.2727896e-06 0.13164607 -0.030620748 0.10774824 -0.1639578 0.042326316 0.0129826525
0.119532146 -0.1797084 -1.1628358e-08 0.1124936 -0.1383231 -0.17389455 -0.03509419 -0.17101254
-0.18019253 -0.23621422 -0.08624798 0.034690935 0.02232922 -0.03411802 0.0010949314 0.024943687
-0.09603213 2.2017429e-07 -0.19733173 0.068934456 -0.010217593 0.0352449 -1.7205744e-08 -0.01697277
-0.12382926 -0.0021997564 -0.03242597 0.065033995 -0.04610459 -0.16507387 -0.07268338 0.15886001
0.040112454 -0.06353364 -3.400815e-08 0.14533475 0.033042442 0.15925767 0.008706388 -0.017596101
0.073184304 0.045000635 0.10158618 -0.12240026 0.023585996 0.07904446 -0.03320281 0.10343761
-0.052390374 -0.0035224564 -0.0656529 0.14468671 -0.08336125 -0.097626165 3.1611666e-08 -0.0070871823
-0.10574265 0.008144625 -0.11697775 -0.01436182 -0.07736745 0.09457573 0.19168003 0.16194443

gcn.lin_2.bias f4 [32]
00000000: 0e12 e53d 1c86 f83d 0a59 76bd 2f88 a1bd
00000010: 30c4 c13d 34e9 3e3d d596 203e e34e 48be
00000020: 0455 e23d 32bf 343e 7bf4 09be eb23 4e3d
00000030: 579b debc 80d0 dfbd 9588 d83d 18fd d43d
00000040: 89a9 81bd 8445 ecba 2b66 c0bd 3e5c 04be
00000050: 1e43 26be 78cc 1c3e 0612 543d 1f21 843d
00000060: 18d1 023d 3803 bbbc 5cce d2bd 5264 d1bd
00000070: 2239 d5bb 781d db3d bcda c43d f1c1 4dbd
0.11185084 0.12134954 -0.060143508 -0.07887303 0.09461248 0.04660912 0.15682538 -0.19561343
0.11051372 0.1765106 -0.13472168 0.050327223 -0.027173681 -0.1092844 0.10572926 0.10399836
-0.063311644 -0.0018026088 -0.09394487 -0.12925813 -0.1623654 0.15312374 0.051775 0.0645163
0.03193769 -0.022828683 -0.10293266 -0.10224213 -0.006507055 0.1069898 0.09612033 -0.050233785

nf.base_dist_mean f4 [55, 1]
00000000: 4b1a 263e 3ec3 5c3f 8b30 a4bf 409f 43bf
00000010: 23e1 f8be f6e3 a6bd 4c73 a8bf 7eee 1040
00000020: fd04 3640 969d 86bf 73cb 88be 5c09 6abe
00000030: 2a2f 383f 5ee6 c7bf 110d e1bf 0faa 3abe
00000040: 82d0 cc3f 1472 893f 5e0c a03f c9de 73bf
00000050: 44a7 d9bd 3e2e 8abf 5779 19be 42c2 d43e
00000060: 9f9e 8fbf be53 5b3f 5bae 36bf f430 6c3f
00000070: 284b 4bbf 278e 373e d7ad c0be 723c efbe
00000080: f0f7 b1be 7914 27bf 4e50 70bf d849 43be
00000090: 7f71 9a3d c816 9f3f e41a c73f 4873 7c3e
000000a0: 75b6 abbe 2ac7 553f 6b0e a2bf fb43 e43e
000000b0: a85a 0040 5601 843e a403 f23d 27b1 b1bf
000000c0: 6552 263f 1c21 1dbf bda2 93bf 3182 9d3f
000000d0: 7399 e2bd 878f b43f a51e febf
0.16220967 0.86235416 -1.2827314 -0.7641487 -0.48609266 -0.08148949 -1.3160186 2.2645564
2.8440545 -1.0516841 -0.2671772 -0.22855133 0.71946967 -1.5617177 -1.7582113 -0.18228935
1.6001132 1.0737939 1.2503774 -0.9526182 -0.106276065 -1.0795362 -0.14987694 0.41554457
-1.1220282 0.85674655 -0.71359795 0.92262197 -0.79411554 0.1792532 -0.3763263 -0.46725804
-0.34759474 -0.65265614 -0.93872535 -0.19071138 0.07541179 1.2428827 1.5555081 0.24653351
-0.3353764 0.83507025 -1.266065 0.44583115 2.0055332 0.2578227 0.11817101 -1.3882188
0.64969474 -0.61378646 -1.1534039 1.2305356 -0.11064424 1.4106301 -1.9853102

nf.base_dist_var f4 [55, 1]
00000000: 0000 803f 0000 803f 0000 803f 0000 803f
00000010: 0000 803f 0000 803f 0000 803f 0000 803f
00000020: 0000 803f 0000 803f 0000 803f 0000 803f
00000030: 0000 803f 0000 803f 0000 803f 0000 803f
00000040: 0000 803f 0000 803f 0000 803f 0000 803f
00000050: 0000 803f 0000 803f 0000 803f 0000 803f
00000060: 0000 803f 0000 803f 0000 803f 0000 803f
00000070: 0000 803f 0000 803f 0000 803f 0000 803f
00000080: 0000 803f 0000 803f 0000 803f 0000 803f
00000090: 0000 803f 0000 803f 0000 803f 0000 803f
000000a0: 0000 803f 0000 803f 0000 803f 0000 803f
000000b0: 0000 803f 0000 803f 0000 803f 0000 803f
000000c0: 0000 803f 0000 803f 0000 803f 0000 803f
000000d0: 0000 803f 0000 803f 0000 803f
1.0 1.0 1.0 1.0 1.0 1.0 1.0 1.0
1.0 1.0 1.0 1.0 1.0 1.0 1.0 1.0
1.0 1.0 1.0 1.0 1.0 1.0 1.0 1.0
1.0 1.0 1.0 1.0 1.0 1.0 1.0 1.0
1.0 1.0 1.0 1.0 1.0 1.0 1.0 1.0
1.0 1.0 1.0 1.0 1.0 1.0 1.0 1.0
1.0 1.0 1.0 1.0 1.0 1.0 1.0

nf.net.0.net_input.weight f4 [32, 1]
00000000: 6f93 3d3e 93af 003f bd25 023f a1de 85bf
00000010: acac 8bbe b801 76bf 6e2e eb3e b961 a1be
00000020: d15d 13bf 3d66 e0be 095a 193f 7378 1abf
00000030: dd6f 58bf 3a28 8a3f 52f4 45bf eb74 12bf
00000040: 4166 ddbd 672c 53bf c448 1a3f bae1 62bf
00000050: b034 213f 188f 4fbf e2ec 4dbc 853c 2bbf
00000060: 9f62 8fbd b9b3 48bf 7c92 783f 63b7 adbe
00000070: a598 1cbe 3ee2 603f 5b67 583f 3462 1d3f
0.18513273 0.50267905 0.50838834 -1.0458566 -0.27280176 -0.9609637 0.4593386 -0.3151987
-0.5756503 -0.43828002 0.5990301 -0.6034004 -0.8454569 1.0793526 -0.7732593 -0.5720965
-0.10810519 -0.8248963 0.6026728 -0.8862568 0.6297102 -0.8107772 -0.012568684 -0.6688922
-0.07001232 -0.78399235 0.9709852 -0.33928975 -0.15292604 0.8784522 0.8453271 0.6147797

nf.net.0.net_input.bias f4 [32]
00000000: 6187 31bf dc75 05bf 28af fe3e 0b58 a6be
00000010: 5f66 7bbe b06c b3be 543c bc3e 50ec 673f
00000020: 5c97 f1be 2aab 173e 7119 dcbe 25c0 3ebb
00000030: 3332 323e 8e91 27bf a66f 6b3f 3c56 683f
00000040: ab82 5cbf f5aa e63c be8e ff3d b88b fabc
00000050: 8890 2d3d f207 743e 8414 0dbf 9b8f 3b3f
00000060: efba aebe 616b 4cbf da82 2f3d c103 c6b7
00000070: 8c67 3e3f b2c7 043f c8b1 05bf f457 6f3f
-0.69347197 -0.52132964 0.4974301 -0.32489046 -0.2455077 -0.3504386 0.36764777 0.9059496
-0.4718579 0.14811388 -0.4298816 -0.0029106226 0.17401962 -0.65456474 0.91967237 0.90756583
-0.86136883 0.02815769 0.12478398 -0.030584201 0.042374164 0.23831156 -0.5510943 0.73266
-0.34126994 -0.7985135 0.0428494 -2.3605187e-05 0.7437675 0.5186721 -0.522244 0.9349358

nf.net.0.net_input.cond_weight f4 [32, 32]
00000000: 0121 f83d 049f 8f3d 05f7 c23d 6774 5b3e
00000010: cb09 303e a4a8 863d eb38 113e 1c42 873d
00000020: 8286 133e 60e7 903d e22e ed3c 0827 9c3c
00000030: 0ef9 bfbd 7f8a 153e ca7f af3c a419 5f3d
00000040: d067 1c3d befa 3c3e 586a 113e 953a 1abc
00000050: 4bd2 d93d cfe0 2f3e 9d65 8f3c bd7f 2c3e
00000060: 9e00 093d a671 433e 8918 00bc ab8d 8f3d
00000070: 3b2c aa3d f3a8 fb3d 6c4f 8f3d 391d 343e
00000080: f580 2e3e 4e27 723e 4217 013d 5144 f83c
00000090: 4b4b 113e cb47 393e f9a8 3d3e 1d9e 81bd
000000a0: 3336 4e3e fad4 393e 1a09 dd3a 68f3 673e
000000b0: 8686 9abd e334 3c3e 2d5c 2d3e 6f0e 6e3e
000000c0: 29d3 663d 8f8a 083c 0d8c bf3c 09ec 9fbd
000000d0: dbf9 5cbd 7583 7a3e 7673 f43d d219 803e
000000e0: 7f25 9c3d e109 6a3e d1ed 813d b382 04bd
000000f0: 28d9 263e b3ef e63d 3f36 ca3d f7dd ab3c
00000100: b79b 373d 92e7 103e 7bae 2b3c 6447 883b
00000110: e3fc 2d3e 2f0f f03d 62c8 963d cd25 543c
00000120: 71f0 fe3d ef1a e33d e2fb 5f3d 0681 b43d
00000130: fd03 3e3d 7577 f33d c35c 433e 31b1 1a3e
00000140: bc47 d93d 80fe 833d 2540 863d 3c4d dc3d
00000150: 8681 1c3e 78f9 b43d 2b77 563d 745f eb3d
00000160: a339 003e a841 46bc a6c2 863a 6469 d93b
00000170: d7c8 653d 0d29 403e c01f 4d3e 1b5e e43d
00000180: 9193 183d 1e09 823d dda6 163d 8030 0c3e
00000190: 4abc 053e 7333 e23c 4daf eb3d 84aa fc3c
000001a0: 1041 eb3d 4c67 f63d 725f 063d 4661 303e
000001b0: ef42 e13c cf46 053e 392d 023e c73c 3b3e
000001c0: d378 233e 61eb dd3d bf6e 633d 2e97 b43d
000001d0: 06cb 893d 1d42 eb3c 5bde 083e 01a2 923d
000001e0: d4fc 2fba d9d7 8d3d 89dd f33b 9ecf 593d
000001f0: 2bb3 363d 1ab6 143e fd19 333c 6282 013e
00000200: ae1c eb3d ce3b 613d 9496 d63d 712f 2a3c
00000210: 81f7 013e 9ca6 683d 2608 633d e8d1 b3bb
00000220: d139 663d 5823 0a3e 723d 393d c364 363e
00000230: 602f 0d3d 2548 893d b01e c33d c394 f83c
00000240: 69c4 8e3d 5f82 ee3d d2ae 9cbc 8523 9c3d
00000250: 0568 a73c b7e8 0f3e 9e24 783d a361 013e
00000260: 9a57 443d 634b 023e 038f cf3d 7741 883d
00000270: 1c7d 363e 407e 083e 1e69 313e fdf6 183e
00000280: 4dda 993d 504d dc3d b5a1 193d 88c6 963d
00000290: b932 b63d 7c79 163e 9088 e33d 71ad ff3d
000002a0: 0270 d63c eb92 cc3d c061 d93c 899f ad3d
000002b0: e2a7 8c3c 17b9 d53d 472d b43d 71b4 d73d
000002c0: be6b f13d b688 c23d 0074 a83d fe46 973d
000002d0: 5d80 0f3e 27cd 053e 71ea 2f3e 61e5 993d
000002e0: 489b be3d 417d 7d3d 3e21 e73d 08fc 723c
000002f0: e969 2f3c 0343 e03c 205d 463c e625 2c3e
00000300: 4be4 a13d 0762 b43d ed53 353d 936a aebd
00000310: 1f1f e33d e4ed 7dbc 6358 5f3c bc13 873d
00000320: 1969 853d f1ad 1e3e 31c7 433d 5cbc 1a3e
00000330: 7956 1a3e e986 2fbd 0ba9 343d 90c6 053c
00000340: ad60 2f3d 0eb7 e73d c7cc 1f3d 2e43 e73c
00000350: 05b5 1d3e f976 fa3d 8bb3 9d3b 3d78 d63d
00000360: 0ad2 c13d 286d 3a3d 4835 9a3d 02ae 283d
00000370: a5c9 62bc 8052 b13d 227f ae3b 0762 b43d
00000380: bb2c ec3d 119e c23d f9b2 af3d 099e 7d3d
00000390: 4076 8d3d e7bd 123e 6ec4 3f3d bd81 e43d
000003a0: 0beb 1b3e 24e9 203e 76c2 aa3d dc67 023e
000003b0: 99a0 063e 5782 643c 05c9 343e 5d45 1f3e
000003c0: bbbf f13b ee34 8a3d 7c7c c53d c2f4 143e
000003d0: 16bc 8f3c e812 163e 311d 083e a26d 103e
000003e0: 2218 233e fa11 c2bb e8e9 03bc b3ed 9b3d
000003f0: 42c5 763d f4bc a63d a5e6 0c3e 6a53 eb3c
0.1211567 0.07012752 0.095197715 0.21431123 0.17191236 0.065751344 0.14181869 0.06604406
0.1440678 0.07075381 0.02895302 0.01906158 -0.09373675 0.14603613 0.02142324 0.054467812
0.03818494 0.18455026 0.14200723 -0.009413381 0.10635813 0.17175601 0.017504508 0.16845603
0.033447854 0.19086322 -0.00781835 0.07009443 0.083092175 0.12288084 0.069975704 0.17589273
0.1704138 0.23647806 0.03151632 0.030306013 0.14188878 0.18093793 0.18521489 -0.06328986
0.20137863 0.1814765 0.0016863674 0.22651446 -0.075451896 0.1837955 0.16929694 0.23247693
0.05635372 0.008333816 0.023382211 -0.07808692 -0.05394922 0.2446421 0.11936085 0.250197
0.07624339 0.22855331 0.06344188 -0.032351207 0.16293776 0.11276188 0.09873628 0.020979865
0.044826236 0.14150837 0.010478611 0.004158901 0.16991 0.11721646 0.07362439 0.0129484655
0.12448204 0.110891216 0.054683574 0.08813672 0.046390522 0.11888019 0.19078355 0.15106656
0.10609385 0.064450264 0.06555203 0.10756919 0.15283784 0.08836645 0.05235974 0.114928156
0.12521987 -0.012100615 0.0010281398 0.006634878 0.05609974 0.1876566 0.20031643 0.11150762
0.037250105 0.06349395 0.036780227 0.13690376 0.13060108 0.027612424 0.11508045 0.030843027
0.11487019 0.12031421 0.032805867 0.17224607 0.027497737 0.13015293 0.12712564 0.18284903
0.1596406 0.108359106 0.055525538 0.08817898 0.06728177 0.028718049 0.13366072 0.07159806
-0.00067133945 0.06925935 0.0074421805 0.053176515 0.04460446 0.14522591 0.010931489 0.12647393
0.114800796 0.054988675 0.10477939 0.0103872875 0.12692071 0.056799516 0.055427693 -0.0054876693
0.05620748 0.13490045 0.045224614 0.17811875 0.03446901 0.067032136 0.095273376 0.030344373
0.06971056 0.1164596 -0.01912633 0.07623962 0.020435343 0.14053617 0.060581796 0.12634902
0.047935106 0.1272407 0.10134699 0.066531114 0.17821163 0.1332941 0.17325255 0.14937969
0.07512341 0.10756934 0.03750773 0.073620856 0.08896393 0.1469478 0.111100316 0.12484253
0.026176456 0.0998896 0.026535869 0.084776945 0.017169897 0.10435694 0.087976985 0.10532463
0.11788128 0.09498732 0.0822525 0.073865876 0.1401381 0.1306654 0.17179276 0.07514454
0.09306961 0.06188703 0.11285637 0.014830597 0.010706403 0.027375704 0.012107164 0.16811332
0.079048716 0.0880776 0.04426949 -0.08516421 0.1108992 -0.015498612 0.013631913 0.06595561
0.065141864 0.15496041 0.047797386 0.15110916 0.15072049 -0.04285327 0.044106524 0.008165017
0.042816807 0.11314212 0.03901365 0.028230276 0.15401085 0.122297235 0.004812663 0.104721524
0.0946389 0.045514256 0.07529694 0.04118157 -0.013842021 0.08658314 0.005325214 0.0880776
0.11531969 0.09502805 0.08579058 0.061918292 0.0690732 0.14330254 0.04681819 0.11157558
0.1522638 0.15713936 0.08337872 0.12734932 0.131472 0.013947091 0.17654808 0.15553804
0.0073775924 0.06748377 0.09642884 0.14546493 0.017545741 0.1465565 0.13292386 0.14104322
0.15927175 -0.005922553 -0.008051373 0.07613697 0.060246713 0.08141509 0.13759859 0.028726298

nf.net.0.net_input.mask f4 [32, 1]
00000000: 0000 803f 0000 803f 0000 803f 0000 803f
00000010: 0000 803f 0000 803f 0000 803f 0000 803f
00000020: 0000 803f 0000 803f 0000 803f 0000 803f
00000030: 0000 803f 0000 803f 0000 803f 0000 803f
00000040: 0000 803f 0000 803f 0000 803f 0000 803f
00000050: 0000 803f 0000 803f 0000 803f 0000 803f
00000060: 0000 803f 0000 803f 0000 803f 0000 803f
00000070: 0000 803f 0000 803f 0000 803f 0000 803f
1.0 1.0 1.0 1.0 1.0 1.0 1.0 1.0
1.0 1.0 1.0 1.0 1.0 1.0 1.0 1.0
1.0 1.0 1.0 1.0 1.0 1.0 1.0 1.0
1.0 1.0 1.0 1.0 1.0 1.0 1.0 1.0
