checkpoint/PSM/model.pth (torch, 71267 bytes, 37 tensors)

rnn.weight_ih_l0 f4 [128, 1]
-0.09522004 -0.16804908 0.08207446 -0.051138137 0.1825185 -0.0032553931 -0.056753784 -0.03731723
0.005624929 -0.07833125 0.104798585 -0.11085847 -0.19973761 -0.04433316 0.121020675 -0.06063949
-0.017373525 0.011149617 0.09836009 -0.12930764 0.11408732 -0.11833487 0.10786117 0.0025015494
0.042103715 -0.13571683 0.028427169 -0.16737421 0.05892138 -0.13701092 0.047740325 -0.016899128
0.065910816 -0.06339573 0.12204002 -0.074018456 -0.084528506 0.12412447 -0.13721804 -0.17702495
0.022679571 0.072051644 0.018966217 -0.06752789 -0.056868467 -0.043926798 -0.120038785 0.0073424736
-0.062290907 -0.07113765 0.08301354 -0.11138022 -0.19259746 -0.12868243 -0.07996791 0.044396553
-0.10664157 0.13041565 0.088614546 -0.062009856 0.03277295 0.028934127 -0.028912723 0.16670403
-0.013016633 -0.07303707 -0.061054576 0.029027252 -0.08362314 0.041210506 0.046661336 -0.02579143
0.021066673 0.07713657 -0.038877144 0.048577964 0.134972 -0.09292838 0.14214778 0.1240129
-0.0006883469 0.24098389 0.05615018 0.032336984 -0.14472148 0.15168759 -0.10065537 0.15027949
-0.046357635 0.12238707 0.11855004 0.039703038 0.13978124 -0.037710316 0.03949988 0.16607246
0.033664227 0.021268565 -0.1235628 -0.05099022 0.024029903 -0.13269974 -0.10588234 0.10562595
-0.1992987 -0.0863158 -0.09383153 -0.036698367 0.0031792133 -0.2264472 -0.0782874 0.043905076
0.009703902 0.25205016 -0.009866455 -0.06418921 0.078113526 -0.16931078 -0.06021535 0.037233267
-0.22400019 -0.02709517 -0.18368281 -0.04933782 -0.08239929 0.12901084 -0.048937637 -0.090857506
00000000: b902 c3bd 0f15 2cbe a816 a83d 3976 51bd
00000010: 21e6 3a3e 6f58 55bb a876 68bd f4d9 18bd
00000020: 5351 b83b 226c a0bd a4a0 d63d c409 e3bd
00000030: 0488 4cbe b096 35bd b0d9 f73d 1d61 78bd
00000040: ec52 8ebc e2ac 363c 0471 c93d 3969 04be
00000050: 9da6 e93d 8d59 f2bd 51e6 dc3d 09f1 233b
00000060: f274 2c3d 5af9 0abe 18e0 e83c 2564 2bbe
00000070: 8c57 713d 974c 0cbe 5c8b 433d 0a70 8abc
00000080: 40fc 863d 9fd5 81bd 1ef0 f93d fd96 97bd
00000090: 481d adbd f834 fe3d e382 0cbe 0746 35be
000000a0: 82ca b93c d08f 933d 0a5f 9b3c 104c 8abd
000000b0: e9ee 68bd 96ec 33bd e5d6 f5bd 2299 f03b
000000c0: c024 7fbd 9eb0 91bd 0103 aa3d 501b e4bd
000000d0: 4538 45be 54c5 03be 37c6 a3bd 29d9 353d
000000e0: e566 dabd ae8b 053e 8b7b b53d 0cfe 7dbd
000000f0: ee3c 063d 4307 ed3c 60da ecbc 76b4 2a3e
00000100: b743 55bc 7694 95bd 5d14 7abd 8fca ed3c
00000110: 9c42 abbd 59cc 283d f51f 3f3d 8d48 d3bc
00000120: 0494 ac3c c7f9 9d3d a43d 1fbd b0f9 463d
00000130: 1a36 0a3e 3c51 bebd 308f 113e 7afa fd3d
00000140: 2e72 34ba 7bc4 763e bbfd 653d c973 043d
00000150: de31 14be fe53 1b3e 6724 cebd dee2 193e
00000160: 81e1 3dbd 12a6 fa3d 5dca f23d a79f 223d
00000170: d022 0f3e 2276 1abd a0ca 213d e60e 2a3e
00000180: 80e3 093d 6a3b ae3c 7e0e fdbd 1fdb 50bd
00000190: 5cda c43c 71e2 07be d7d8 d8bd 6b52 d83d
000001a0: f514 4cbe 57c6 b0bd bf2a c0bd 0751 16bd
000001b0: 595a 503b c6e1 67be 2555 a0bd cfd5 333d
000001c0: 1dfd 1e3c b80c 813e e9a6 21bc a275 83bd
000001d0: fcf9 9f3d ce5f 2dbe 5fa4 76bd e981 183d
000001e0: 4e60 65be b1f6 ddbc 5917 3cbe 7416 4abd
000001f0: f5c0 a8bd 6b1b 043e d572 48bd 8013 babd

rnn.weight_hh_l0 f4 [128, 32]
-0.028714467 0.11050823 0.036142163 0.019178396 0.0968656 -0.04422222 -0.06421495 -0.06240877
0.10405614 -0.05484434 0.043768197 0.04324219 -0.086561196 -0.020174874 -0.0048487093 -0.0692349
0.055592082 -0.01962917 -0.06528061 0.013765424 0.139924 0.08584525 0.04402147 -0.024699619
-0.0804453 -0.072157115 -0.0904663 -0.009342815 -0.048331093 0.058805455 -0.10152859 0.015353527
-0.058882985 0.13461582 0.14591171 0.01276925 0.007201358 -0.0013350013 0.0121552525 -0.030868452
-0.039839737 -0.111450255 0.08432849 0.013544523 0.007885072 0.006706679 -0.18423225 -0.18002611
0.027518274 -0.008266276 -0.066970795 -0.0056432267 0.020395631 -0.032060403 0.006094604 -0.18727806
0.027729891 -0.09476354 0.018945288 -0.100543864 0.0066927536 0.022871435 -0.02595857 0.070201926
-0.02232783 0.032918163 0.07209089 0.011979102 0.072649814 -0.04690511 -0.16078031 0.008820947
0.1188364 -0.04731747 0.0135034155 0.041860417 -0.039250273 -0.013221294 -0.0076330975 -0.0032816846
-0.020082712 -0.11534127 -0.0073460266 -0.03251427 0.01510355 0.04215572 -0.04957122 -0.019525476
-0.043437026 0.07159001 0.007942394 -0.042279102 -0.05840533 0.12296514 -0.07617578 0.07069616
-0.06949255 -0.0670645 0.035298165 0.05572618 0.037581317 -0.09121131 -0.09146025 -0.035623174
0.13751669 -0.16831525 0.043315563 0.062159248 0.009920611 -0.07354225 0.01392042 -0.07459764
0.09581422 -0.17602988 -0.07347726 0.0012491579 0.027395649 0.021234622 -0.035087038 0.05302337
0.033565376 0.016445039 -0.027735716 -0.07406432 -0.1357293 0.124761544 -0.16502053 0.029517312
-0.104923755 0.06744078 0.047262903 -0.015326463 0.071120486 -0.11462184 -0.036848433 0.064066134
-0.04384153 0.043965235 0.0021038319 0.10093761 -0.01543428 -0.05155408 0.074618384 0.07441924
0.028782947 3.2527732e-05 -0.03895733 0.03065071 -0.039755605 -0.0020183292 -0.13766414 -0.010355891
-0.024950786 -0.10098463 0.038220637 -0.024343131 0.041844 0.044834394 0.06366572 0.04353565
0.008099293 -0.0014509532 0.012859388 0.015756072 0.05582766 0.050980337 0.079474054 0.0113572655
-0.015201879 0.004723864 -0.065096125 -0.07320661 -0.081022836 0.01869229 0.05874313 0.0739813
0.047219355 0.044900846 -0.04930793 0.015677432 -0.08423051 -0.04848609 -0.054075915 -0.0016765513
0.026061825 0.032151148 0.06475578 0.018384797 -0.0071823597 -0.12179862 -0.020190714 -0.011876953
-0.14464052 0.04495581 0.030170374 0.00895179 0.136405 -0.004358695 -0.08086355 -0.053573374
-0.014886177 -0.029768534 0.0604923 0.054923527 0.0015642352 -0.050101142 0.030162642 0.032704093
-0.0046513304 -0.079312555 -0.09574419 0.06630266 0.048410274 -0.05595494 -0.14541128 -0.18280052
0.022027506 -0.17400932 -0.013970294 -0.013769521 -0.072580285 0.097527996 -0.03454557 0.010988328
-0.03413884 -0.06084869 0.036844365 -0.0072335172 -0.05868981 0.0046067815 -0.0870895 -0.07645123
0.11237353 -0.046736993 0.023846649 0.12418621 -0.024410985 -0.08014183 0.083143495 -0.0642721
0.07989652 -0.04030313 -0.043468222 0.07880345 -0.027326835 -0.0035441294 -0.016978532 -0.1035877
-0.102495916 0.012698481 -0.105669886 -0.020199444 0.073314056 0.03355914 -0.13102472 0.019293249
00000000: 9a3a ebbc 2452 e23d ce09 143d 031c 9d3c
00000010: 7961 c63d 5c22 35bd 2183 83bd 57a0 7fbd
00000020: 631b d53d 75a4 60bd 4846 333d b91e 313d
00000030: ff46 b1bd c745 a5bc ece1 9ebb 07cb 8dbd
00000040: 86b4 633d 5acd a0bc d7b1 85bd 5f88 613c
00000050: 3d48 0f3e a2cf af3d db4f 343d db56 cabc
00000060: 81c0 a4bd 1cc7 93bd 6546 b9bd 9b12 19bc
00000070: d3f6 45bd fddd 703d 39ee cfbd 5c8d 7b3c
00000080: 492f 71bd bbd8 093e e169 153e 1e36 513c
00000090: 5ff9 eb3b 36fb aeba d326 473c d6df fcbc
000000a0: fe2e 23bd 0840 e4bd 6ab4 ac3d d9e9 5d3c
000000b0: 6430 013c b3c3 db3b 61a7 3cbe c458 38be
000000c0: 016e e13c 466f 07bc fc27 89bd d1ea b8bb
000000d0: bd14 a73c c551 03bd 3eb5 c73b d2c5 3fbe
000000e0: cc29 e33c 6313 c2bd 2633 9b3c f1e9 cdbd
000000f0: e34e db3b e05c bb3c 11a7 d4bc 07c6 8f3d
00000100: dae8 b6bc 32d5 063d 63a4 933d ff43 443c
00000110: 6dc9 943d 931f 40bd 98a3 24be bc85 103c
00000120: 8060 f33d f7cf 41bd 6e3d 5d3c d475 2b3d
00000130: e5c4 20bd 209e 58bc 101f fabb 8811 57bb
00000140: 8084 a4bc 0b38 ecbd f0b6 f0bb af2d 05bd
00000150: e174 773c 7aab 2c3d 310b 4bbd e4f3 9fbc
00000160: 06eb 31bd c89d 923d d120 023c da2c 2dbd
00000170: 6d3a 6fbd 26d5 fb3d 0c02 9cbd 26c9 903d
00000180: 1c52 8ebd 1d59 89bd cf94 103d 2341 643d
00000190: deee 193d ffcc babd 834f bbbd 9be9 11bd
000001a0: 2dd1 0c3e d55a 2cbe a96b 313d b29a 7e3d
000001b0: 0f8a 223c 529d 96bd 7912 643c a6c6 98bd
000001c0: 3f3a c43d 2d41 34be 3f7b 96bd c9ba a33a
000001d0: d76c e03c 3bf4 ad3c 6db7 0fbd 092f 593d
000001e0: d97b 093d bfb7 863c 0336 e3bc 09af 97bd
000001f0: 9ffc 0abe fb82 ff3d 24fb 28be 4ace f13c
00000200: 44e2 d6bd 641e 8a3d bf96 413d d81b 7bbc
00000210: 9ea7 913d dbbe eabd 62ee 16bd 1b35 833d
00000220: 2d93 33bd e414 343d 71e0 093b 61b8 ce3d
00000230: 10e0 7cbc 5f2a 53bd 86d1 983d 1d69 983d
00000240: 37ca eb3c 636e 0838 b991 1fbd 3317 fb3c
00000250: c6d6 22bd f245 04bb d4f7 0cbe c1ab 29bc
00000260: 9765 ccbc 08d1 cebd 3e8d 1c3d 3f6b c7bc
00000270: 9d64 2b3d 45a4 373d 2c63 823d 7052 323d
00000280: e6b2 043c e92d beba 2fb0 523c e112 813c
00000290: 8bab 643d c2d0 503d 4bc3 a23d d313 3a3c
000002a0: 4d11 79bc a5ca 9a3b 1e51 85bd 59ed 95bd
000002b0: 4def a5bd 9320 993c a39c 703d 8283 973d
000002c0: 1569 413d f3e9 373d 1df7 49bd f56d 803c
000002d0: 0c81 acbd 5a99 46bd b57e 5dbd babf dbba
000002e0: 9c7f d53c ecb0 033d ae9e 843d b79b 963c
000002f0: 005a ebbb 8e71 f9bd ff66 a5bc 8d97 42bc
00000300: a51c 14be 9523 383d dc27 f73c 87aa 123c
00000310: c1ad 0b3e 62d3 8ebb ca9b a5bd c16f 5bbd
00000320: 27e5 73bc 24dd f3bc c6c6 773d 7ef7 603d
00000330: 0607 cd3a db36 4dbd a517 f73c baf4 053d
00000340: 306a 98bb 9f6e a2bd 8815 c4bd b0c9 873d
00000350: da49 463d 0231 65bd b2e6 14be 0f30 3bbe
00000360: 0773 b43c 802f 32be a9e3 64bc 8f99 61bc
00000370: f9a4 94bd c2bc c73d a87f 0dbd 6308 343c
00000380: 2bd5 0bbd 7a3c 79bd 1eea 163d 2407 edbb
00000390: ba64 70bd 7cf4 963b fb5b b2bd 7692 9cbd
000003a0: 1824 e63d 4a6f 3fbd 0c5a c33c 5755 fe3d
000003b0: 8cf9 c7bc 6621 a4bd 2347 aa3d 17a1 83bd
000003c0: c9a0 a33d e514 25bd bc0b 32bd b463 a13d
000003d0: 87dc dfbc a044 68bb 9016 8bbc ca25 d4bd
000003e0: 61e9 d1bd 4a0d 503c 7469 d8bd 4e79 a5bc
000003f0: ae25 963d 4f75 093d 582b 06be e00c 9e3c

rnn.bias_ih_l0 f4 [128]
-0.07290376 -0.11360136 -0.16653615 -0.0019491421 -0.07775014 0.13935348 0.013178469 0.13399242
0.05857511 0.02836311 0.06323583 -0.058906384 -0.17625557 0.07336699 0.1025436 -0.08501118
0.21145011 -0.05818599 -0.19677988 0.021501781 -0.055019308 -0.06686325 -0.08578267 0.067415
0.06471962 -0.068462096 0.028277485 0.08588398 0.07000804 0.052755307 -0.063992865 0.088995256
-0.0010208588 0.06468636 -0.0017580531 -0.0093453415 -0.10036185 0.16893491 -0.037896954 0.04254315
0.0012244711 0.14206846 0.05553963 0.11598942 -0.14216486 -0.08995024 0.047389176 0.07515925
0.06854925 -0.011925771 0.015562622 -0.08063804 -0.15130113 -0.08690606 0.04599958 0.10114376
-0.010109704 -0.21771663 0.053967994 -0.122054465 0.01525744 0.100978956 0.05648104 -0.17935379
0.10204857 0.03920412 -0.114984944 0.1475599 -0.080624945 0.11073682 0.13714999 0.045193277
-0.101930015 -0.01073772 -0.099351145 -0.07326148 0.1556788 6.7440305e-05 -0.035903156 0.11958409
-0.03936018 0.13668299 -0.04746003 0.15756848 -0.015580856 -0.15267901 -0.013995745 -0.057722714
0.13354988 -0.09778616 0.10368665 0.065029055 -0.038554624 -0.06346046 0.039319046 -0.07135576
-0.10133604 4.760882e-05 0.0015337144 -0.032230377 -0.061285358 0.0014750565 0.07912383 -0.0027470998
-0.0060226703 -0.038236685 -0.08059476 0.044976156 0.053300664 0.08487141 0.082373396 0.0045878957
-0.040743515 0.16514628 0.096113995 -0.1511456 0.06140069 -0.03941344 -0.1802106 -0.1755869
-0.12780304 -0.09629991 -0.055347588 -0.08308342 0.04735106 0.16815141 0.17815156 0.09559954
00000000: 914e 95bd d4a7 e8bd 7488 2abe 5b7a ffba
00000010: 773b 9fbd aeb2 0e3e 81ea 573c 4f35 093e
00000020: 74ec 6f3d c159 e83c c981 813d d247 71bd
00000030: 577c 34be 6f41 963d 6102 d23d 571a aebd
00000040: 6186 583e 6f54 6ebd aa80 49be 8124 b03c
00000050: ed5b 61bd 9aef 88bd d3ae afbd e010 8a3d
00000060: b88b 843d db35 8cbd 2fa6 e73c f1e3 af3d
00000070: 6060 8f3d f315 583d b10e 83bd 2543 b63d
00000080: 56ce 85ba 487a 843d 796e e6ba 341d 19bc
00000090: 838a cdbd 46fd 2c3e d639 1bbd ba41 2e3d
000000a0: 6f7e a03a 657a 113e 867d 633d dc8b ed3d
000000b0: aa93 11be d537 b8bd 271b 423d 18ed 993d
000000c0: 8d63 8c3d 4f64 43bc 5efa 7e3c 8f25 a5bd
000000d0: afee 1abe cefb b1bd 0e6a 3c3d 7624 cf3d
000000e0: 2ca3 25bc 1cf1 5ebe 8b0d 5d3d b1f7 f9bd
000000f0: 57fa 793c 0ece ce3d aa58 673d 85a8 37be
00000100: d7fe d03d 8094 203d 3a7d ebbd f119 173e
00000110: b11e a5bd fcc9 e23d 0c71 0c3e 961c 393d
00000120: afc0 d0bd 43ed 2fbc 9d78 cbbd 1d0a 96bd
00000130: 436a 1f3e bd6e 8d38 300f 13bd 81e8 f43d
00000140: 2438 21bd a0f6 0b3e 7365 42bd a259 213e
00000150: d946 7fbc e357 1cbe 694e 65bc a76e 6cbd
00000160: 4dc1 083e 1c44 c8bd ab59 d43d f42d 853d
00000170: 74eb 1dbd 8ff7 81bd 020d 213d f822 92bd
00000180: 4589 cfbd 95af 4738 ea06 c93a 0004 04bd
00000190: 5b06 7bbd af56 c13a ad0b a23d b008 34bb
000001a0: d259 c5bb 129e 1cbd de0e a5bd eb38 383d
000001b0: cc51 5a3d 10d1 ad3d 62b3 a83d 0f56 963b
000001c0: ace2 26bd 1b1c 293e 6ad7 c43d eac5 1abe
000001d0: 4a7f 7b3d fd6f 21bd 2189 38be 0dcd 33be
000001e0: cdde 02be e338 c5bd 27b4 62bd a427 aabd
000001f0: 2ff3 413d e22f 2c3e 5d6d 363e b1c9 c33d

rnn.bias_hh_l0 f4 [128]
-0.13505247 -0.057513185 0.055763107 -0.10426481 -0.0956528 -0.06135154 -0.009148154 0.03924219
-0.1103567 0.058865927 -0.17084587 -0.10031076 0.09669393 0.009712344 0.007542621 0.020128109
0.03750892 -0.048252784 -0.14341591 0.04654568 -0.08031444 -0.0798705 0.067587934 0.07025909
0.078106105 -0.18695875 -0.02407189 0.18142709 0.021969093 0.07095006 -0.06220934 -0.034355942
-0.090125605 0.06253821 -0.1797103 -0.14293094 -0.16550685 0.04217908 0.13364664 0.05114764
-0.19326249 0.019409504 0.026407758 0.056668 0.024129568 -0.109157346 -0.021198206 0.053094424
-0.0027502351 -0.015086262 -0.14232995 -0.016119726 0.1508659 0.13697803 -0.08509228 -0.012975543
-0.20871139 -0.11734359 -0.008197423 0.110051 -0.14566663 -0.011774081 0.06586434 0.049046375
-0.11691355 0.00032339373 0.10556458 -0.10680635 -0.036090873 -0.036490686 -0.08484505 -0.006992165
0.024406882 0.12827979 0.09351958 0.08590837 0.035942473 0.020298751 0.03923032 -0.016522057
-0.08863227 0.10697992 0.0114775235 -0.12184708 -0.11058756 -0.20136587 0.111105435 0.116279416
-0.000997427 0.124313146 0.08356011 0.052503258 0.12348684 0.026233621 0.083535455 0.089625716
-0.09024236 0.029172547 -0.18573143 -0.0317175 -0.0974163 0.1334921 -0.0021915762 -0.09086311
0.119349614 0.083474845 -0.07685748 -0.038138878 0.05484045 -0.08402978 0.13999431 0.064985424
0.07363035 0.014388621 -0.10535775 -0.18053395 -0.045200057 0.08348483 -0.005626418 0.06696976
0.053515326 0.055773042 -0.05220946 0.03407099 0.08294542 -0.052966036 0.027637318 0.056874566
00000000: 324b 0abe f292 6bbd db67 643d ca88 d5bd
00000010: 9de5 c3bd c14b 7bbd 24e2 15bc 6bbc 203d
00000020: b202 e2bd 661d 713d 38f2 2ebe ba6f cdbd
00000030: 7807 c63d 8620 1f3c 1728 f73b b4e3 a43c
00000040: f4a2 193d b6a4 45bd 9fdb 12be afa6 3e3d
00000050: e67b a4bd 2593 a3bd 8b6b 8a3d ffe3 8f3d
00000060: 18f6 9f3d 1d72 3fbe 6a32 c5bc 06c8 393e
00000070: 87f8 b33c 444e 913d 39cf 7ebd d1b8 0cbd
00000080: c693 b8bd 0814 803d fa05 38be 7d5c 12be
00000090: a17a 29be f9c3 2c3d aada 083e 3080 513d
000000a0: 9ae6 45be ae00 9f3c 1555 d83c b41c 683d
000000b0: 5fab c53c e38d dfbd dca7 adbc 8a79 593d
000000c0: 4a3d 34bb 5e2c 77bc f1be 11be 840d 84bc
000000d0: 977c 1a3e f843 0c3e dc44 aebd 5f97 54bc
000000e0: 70b8 55be d651 f0bd 7c4e 06bc 6b62 e13d
000000f0: a229 15be 13e8 40bc e2e3 863d dae4 483d
00000100: 5f70 efbd 2c8d a939 3e32 d83d 4abd dabd
00000110: 06d4 13bd 4277 15bd 3ec3 adbd 881e e5bb
00000120: f1f0 c73c c75b 033e 3287 bf3d baf0 af3d
00000130: 6a38 133d 9149 a63c f9af 203d 4459 87bc
00000140: d684 b5bd 4a18 db3d 390c 3c3c f68a f9bd
00000150: bb7b e2bd db32 4ebe 3f8b e33d e723 ee3d
00000160: 19bc 82ba e497 fe3d 9021 ab3d a80d 573d
00000170: abe6 fc3d e4e7 d63c a314 ab3d b08d b73d
00000180: fdd0 b8bd 44fb ee3c 6130 3ebe 36ea 01bd
00000190: 3282 c7bd 27b2 083e 8ca0 0fbb 7016 babd
000001a0: 926d f43d dcf4 aa3d 7467 9dbd 8337 1cbd
000001b0: 61a0 603d ce17 acbd ab5a 0f3e 1417 853d
000001c0: 82cb 963d 40be 6b3c cec5 d7bd e4dd 38be
000001d0: b223 39bd 18fa aa3d d15d b8bb 7127 893d
000001e0: e332 5b3d 4672 643d 96d9 55bd 068e 0b3d
000001f0: 4adf a93d eaf2 58bd a867 e23c 4ef5 683d

gcn.lin_n.weight f4 [32, 32]
-0.01376091 0.08968217 0.033806555 -0.049044807 -0.05216711 -0.048677746 -0.059493136 0.09581164
0.08043285 0.029794639 -0.002148729 0.05032382 -0.12403837 -0.06749935 0.13763055 -0.024800677
0.028359765 0.04835232 0.095429346 0.032699198 -0.013847383 -0.011768512 -0.004017156 0.03155095
0.06388461 -0.00949642 -0.10661729 -0.07965925 -0.047574375 0.05158685 0.07547986 0.11080059
0.05505551 0.1279281 0.0950476 0.098669685 0.06568773 0.10828454 0.10821064 -0.14543493
-0.060311567 0.029650709 -0.12833911 0.06611055 0.04857697 -0.09583607 0.03801025 -0.16202626
0.019771744 -0.17069411 -0.059738435 0.030188568 -0.12540735 -0.09677634 -0.23285142 0.09889395
-0.045821995 -0.0941839 -0.034064043 -0.032493744 -0.0030975684 0.049131677 0.110777386 -0.084889784
-0.024197219 0.021405565 0.02353664 -0.02274326 0.022742944 -0.02329176 -0.011993215 -0.02407537
0.023844676 -0.023768906 0.019612763 0.04003608 -0.020952087 -0.023699347 0.01846743 -0.02531197
0.025114544 -0.02326332 0.02718259 0.026439926 0.035984267 0.020946445 -0.021610059 -0.022753913
-0.02269816 -0.04071326 -0.026015235 -0.036578063 -0.023090364 0.021434244 -0.023084193 0.022492437
0.091771394 0.060295016 0.035792988 0.09801408 -0.06459622 -0.09027603 0.04259956 0.026738998
0.045916058 -0.07697346 0.07810435 -0.047070727 -0.026417645 0.07770467 -0.14100781 -0.09664889
0.086229585 -0.15938607 -0.09063349 0.020770214 0.004961462 0.09593679 0.19087899 -0.041080005
0.107108444 -0.089784 -0.10167681 -0.04424099 -0.08745689 0.027140213 0.06612099 -0.0283729
0.08565859 -0.03107396 0.050785568 0.11692535 -0.060369667 0.050130006 0.036171116 -0.09205359
-0.022143641 0.015918469 -0.004553604 -0.028414784 -0.0711201 -0.0774219 -0.018375905 -0.11663273
-0.08283007 -0.15840685 -0.14170149 0.055315778 0.081580356 -0.16083346 -0.058895085 -0.11012039
0.09799829 -0.18299046 -0.0740674 0.107874565 -0.18933111 -0.015797837 0.07819367 -0.09658554
0.06569493 -0.026132658 -0.02875788 0.14485969 -0.05129621 0.05371704 0.110575415 0.18348716
-0.1261747 -0.010764629 0.094632335 0.037796676 0.1788189 -0.0281643 0.09567602 -0.0006238966
0.06061865 0.17067616 -0.03281382 -0.09796127 -0.083598055 -0.17559047 0.13470821 -0.012750948
-0.006771381 -0.12219555 0.15314363 0.054506663 0.1745089 -0.22238012 0.15741608 0.087981515
-0.055729616 0.03767968 -0.06566919 0.09236535 0.09525381 0.05852739 -0.06666939 -0.021651646
-0.10015598 0.10426068 0.026255121 0.06735043 0.1111294 -0.069171295 -0.0067218165 0.03879003
-0.060911234 0.10228305 0.156219 -0.11571566 0.053883985 -0.15343876 0.06509478 -0.01092205
-0.0046538194 -0.07911991 0.15138753 0.23987424 0.13081431 0.051397543 0.13319242 0.07824877
-0.057829756 0.034367666 -0.0369232 0.03622719 0.120850764 -0.07631878 0.0046390207 -0.095441125
-0.008002952 0.003009775 0.09166629 -0.0627529 0.18102017 0.15411519 -0.07877202 0.10110226
-0.1397778 0.084283575 -0.08522475 -0.057727706 -0.014500267 0.07630951 -0.12537009 0.06884294
-0.1191287 0.16284613 0.16362762 0.024205742 -0.06180466 -0.12856565 -0.058572885 -0.011144654
00000000: 7175 61bc 49ab b73d be78 0a3d 35e3 48bd
00000010: 2ead 55bd 5162 47bd 13af 73bd e538 c43d
00000020: fab9 a43d e313 f43c b1d1 0cbb 5a20 4e3d
00000030: d407 febd 193d 8abd 06ef 0c3e ca2a cbbc
00000040: bd52 e83c 150d 463d 7670 c33d 98ef 053d
00000050: 22e0 62bc b8d0 40bc 59a2 83bb 923b 013d
00000060: efd5 823d df96 1bbc 2a5a dabd 6424 a3bd
00000070: 59dd 42bd bc4c 533d 2f95 9a3d 6beb e23d
00000080: e381 613d 95ff 023e 51a8 c23d 5513 ca3d
00000090: 4a87 863d 49c4 dd3d 8a9d dd3d e5ec 14be
000000a0: 4309 77bd 0be6 f23c 546b 03be f864 873d
000000b0: a5f8 463d b445 c4bd a3b0 1b3d 36ea 25be
000000c0: 5af8 a13c 70ca 2ebe 4ab0 74bd 044e f73c
000000d0: c96a 00be ac32 c6bd 9a70 6ebe e988 ca3d
000000e0: d8af 3bbd 7de3 c0bd bd86 0bbd 2918 05bd
000000f0: 9300 4bbb 4c3e 493d 41df e23d b2da adbd
00000100: 3f39 c6bc b95a af3c e9cf c03c 1350 babc
00000110: 694f ba3c 5cce bebc 317f 44bc b639 c5bc
00000120: e955 c33c 02b7 c2bc f2aa a03c dffc 233d
00000130: b6a3 abbc 2225 c2bc 0249 973c 0c5b cfbc
00000140: 04bd cd3c b892 bebc 06ae de3c 8b98 d83c
00000150: 3d64 133d e197 ab3c 9407 b1bc 6a66 babc
00000160: 7ef1 b9bc f3c2 26bd e71d d5bc e1d2 15bd
00000170: 0128 bdbc de96 af3c 101b bdbc 0f42 b83c
00000180: a4f2 bb3d e8f7 763d ab9b 123d 9bbb c83d
00000190: 064b 84bd a4e2 b8bd e07c 2e3d be0b db3c
000001a0: 7a12 3c3d 43a4 9dbd 2cf5 9f3d 3ccd 40bd
000001b0: d169 d8bc a023 9f3d 5a64 10be daef c5bd
000001c0: 2399 b03d 1a36 23be 0d9e b9bd 4c26 aa3c
000001d0: c393 a23b 827a c43d c875 433e 8243 28bd
000001e0: ac5b db3d ace0 b7bd ee3b d0bd 0a36 35bd
000001f0: 991c b3bd 2755 de3c 716a 873d 496e e8bc
00000200: c56d af3d d18e febc 8704 503d 8f76 ef3d
00000210: 2f46 77bd 1f55 4d3d 2a28 143d 9886 bcbd
00000220: 9566 b5bc 7367 823c 6636 95bb 1fc6 e8bc
00000230: 6aa7 91bd 608f 9ebd 1189 96bc 24dd eebd
00000240: d0a2 a9bd 6835 22be 321a 11be cc92 623d
00000250: 9a13 a73d 87b1 24be f93b 71bd cd86 e1bd
00000260: 54b3 c83d da61 3bbe a6b0 97bd 57ed dc3d
00000270: 04e0 41be 776a 81bc 0124 a03d a4ce c5bd
00000280: 108b 863d 2814 d6bc a595 ebbc 1956 143e
00000290: fa1b 52bd 6606 5c3d 5d75 e23d 0fe4 3b3e
000002a0: f133 01be 205e 30bc 99ce c13d b0d0 1a3d
000002b0: 4d1c 373e d1b8 e6bc caf1 c33d fe8c 23ba
000002c0: 434b 783d bbc5 2e3e c967 06bd eb9f c8bd
000002d0: 7535 abbd fdcd 33be f3f0 093e 5ae9 50bc
000002e0: 76e2 ddbb a941 fabd afd1 1c3e 6142 5f3d
000002f0: 76b2 323e 9db7 63be ae31 213e a72f b43d
00000300: bd44 64bd 0256 1a3d 917d 86bd 0b2a bd3d
00000310: 6e14 c33d 6bba 6f3d f689 88bd cb5e b1bc
00000320: 941e cdbd a086 d53d fb14 d73c 06ef 893d
00000330: d097 e33d aea9 8dbd af42 dcbb 4be2 1e3d
00000340: 0f7e 79bd c779 d13d e0f7 1f3e 55fc ecbd
00000350: 74b5 5c3d 0d1f 1dbe 6950 853d 66f2 32bc
00000360: 117f 98bb 9f09 a2bd 5505 1b3e 98a1 753e
00000370: 30f4 053e 3b86 523d 9863 083e e440 a03d
00000380: e5de 6cbd 1cc5 0c3d c83c 17bd f662 143d
00000390: 9b80 f73d 054d 9cbd ed02 983b a376 c3bd
000003a0: d01e 03bc a53f 453b 89bb bb3d 9884 80bd
000003b0: 5a5d 393e 5fd0 1d3e 3a53 a1bd b40e cf3d
000003c0: e921 0fbe de9c ac3d 508a aebd e373 6cbd
000003d0: 8792 6dbc 2948 9c3d 0461 00be 87fd 8c3d
000003e0: bff9 f3bd 23c1 263e 008e 273e 1f4b c63c
000003f0: e226 7dbd b7a6 03be 1fea 6fbd 1198 36bc

gcn.lin_n.bias f4 [32]
-0.06788563 -0.047131643 -0.029787047 -0.0013215329 0.012085419 0.13685971 0.06480304 0.1518079
0.09142867 0.19968846 -0.059766263 0.116958484 -0.015535226 0.12211454 -0.0011564416 0.047070827
-0.09527036 -0.096300595 0.04385437 -0.085155256 0.124254756 0.15668073 -0.11332392 -0.0013911731
0.11340176 -0.026524035 0.053274266 0.09444736 -0.0005376882 0.018862663 -0.1662672 -0.04930518
00000000: 9f07 8bbd 1c0d 41bd f703 f4bc 4937 adba
00000010: ec01 463c f424 0c3e 75b7 843d 8873 1b3e
00000020: f43e bb3d 227b 4c3e 78cd 74bd ee87 ef3d
00000030: 7687 7ebc 3017 fa3d be93 97ba 57cd 403d
00000040: 1b1d c3bd 3f39 c5bd a4a0 333d e165 aebd
00000050: 4779 fe3d ea70 203e 5f16 e8bd 0658 b6ba
00000060: 2f3f e83d ef48 d9bc 1e36 5a3d 9e6d c13d
00000070: a5f3 0cba df85 9a3c f341 2abe 3af4 49bd

gcn.lin_r.weight f4 [32, 32]
-0.019026699 -0.11942506 -0.09489538 -0.025972268 -0.05705588 0.0062339203 0.10268062 -0.035511516
-0.012103008 -0.07884815 -0.009807506 0.051026694 0.12963705 -0.07014299 0.0057778107 0.059519757
-0.00083801267 -0.09762216 0.03562545 0.012122438 0.04107526 0.046792187 -0.02582304 -0.0041886196
-0.016959319 0.08746453 -0.0127847055 -0.032222744 -0.031380706 -0.07304173 -0.07965319 0.083332434
-0.054179203 -0.14091371 0.10987429 0.05793035 0.16484332 -0.12210652 0.05366531 -0.03473356
-0.06591503 0.11652498 0.1131359 -0.03200776 0.058796268 -0.064492695 0.19025925 0.075506605
0.1433175 4.945667e-05 -0.11680369 -0.106791794 -0.134822 0.042921104 -0.17648253 0.018745257
0.029054344 -0.028643813 0.017397964 -0.18516353 0.0023371996 -0.031177837 -0.17118147 0.18719965
-0.006957837 0.023415236 0.0012493223 -0.02232101 0.022652546 -0.023951877 -0.022193616 -0.020212233
0.02232904 -0.012118353 0.02066796 0.006885936 -0.024367074 -0.0028892765 0.01733467 -0.025804615
0.02248398 -0.024705207 0.0072559393 0.012470151 0.024208384 0.019661821 -0.01963487 -0.020472506
-0.020589655 0.011143043 -0.02495487 -0.023639742 -0.025186908 0.023893386 -0.021782385 0.017903175
0.07972429 -0.07659176 -0.0043339757 0.0026671733 -0.012740435 0.054363016 -0.012934416 0.0378541
-0.05831299 -0.017854178 -0.051673155 -0.09140487 0.064452514 0.09577981 -0.04326808 0.09582455
-0.11833286 0.14737643 -0.09428436 -0.14592004 -0.019167269 0.06080039 0.07482194 -0.14428294
0.18547326 -0.096608244 0.009521447 0.013469801 0.019716708 -0.075745955 0.14345554 -0.06795227
-0.14245166 -0.0527427 -0.1134083 0.123510785 -0.11234471 0.08971492 0.08084196 0.028758403
0.15822788 -0.09226465 0.06916788 0.060533702 0.03603622 -0.069397636 -0.110885575 -0.17898197
0.1605853 -0.03382477 -0.0720479 -0.015952608 0.050772 0.089636125 -0.1335446 -0.11871443
-0.20220047 0.06525483 -0.003107865 -0.012441443 0.117644444 0.09180532 -0.14108829 -0.08379854
-0.16598724 -0.19104832 0.126535 -0.06259595 -0.15084946 -0.07710664 0.18269795 0.03178221
0.048824508 0.027540762 0.011596633 0.016590215 0.034931008 0.12144162 -0.00078808196 0.0066757086
0.024073979 0.10483403 0.016389815 0.16495854 0.07870504 0.001946745 -0.038112286 -0.11901764
0.054097757 -0.15173247 0.09623281 0.08020677 0.111521885 0.12734956 -0.019630011 -0.017392507
0.15421444 0.13875754 0.09459433 -0.05277312 -0.13078614 0.0057163388 0.05438189 0.1351889
-0.010561416 0.080542624 0.095651396 -0.10278302 0.1721047 -0.02834528 0.018934889 -0.037274268
-0.064592764 0.16975252 0.04078273 0.058159728 0.08382938 -0.13229284 0.08154785 0.00040591293
0.16912763 0.01426048 0.057368 0.029485714 0.103548795 -0.13700897 -0.059034925 -0.19869539
-0.13611618 0.08722811 0.04070113 0.0013780796 -0.14796384 0.01265696 -0.13001685 -0.046420697
0.092799045 -0.0062775887 0.04070234 -0.12192245 -0.008934237 -0.075421676 0.111591786 0.01179661
-0.084951736 0.10027472 0.08737077 0.13005917 -0.07169935 0.07894641 0.09482388 0.047130246
-0.1403191 0.112461284 -0.041133564 -0.088816494 -0.11158178 -0.112281 -0.13500643 -0.023493098
00000000: e1dd 9bbc 2095 f4bd 8258 c2bd cbc3 d4bc
00000010: 6db3 69bd ea45 cc3b 384a d23d 8674 11bd
00000020: b24b 46bc 247b a1bd a9af 20bc 5e01 513d
00000030: 93bf 043e 21a7 8fbd ca53 bd3b fdca 733d
00000040: 14ae 5bba 21ee c7bd feeb 113d 319d 463c
00000050: 883e 283d 2aa9 3f3d d78a d3bc b040 89bb
00000060: 45ee 8abc 9a20 b33d f176 51bc fffb 03bd
00000070: 0e89 00bd e796 95bd 3621 a3bd 32aa aa3d
00000080: 03eb 5dbd af4b 10be c605 e13d 6048 6d3d
00000090: b0cc 283e fc12 fabd 28d0 5b3d c744 0ebd
000000a0: 76fe 86bd a6a4 ee3d cbb3 e73d 921a 03bd
000000b0: 5bd4 703d bf14 84bd 52d3 423e 35a3 9a3d
000000c0: d3c1 123e b26f 4f38 c636 efbd a8b5 dabd
000000d0: c70e 0abe 0ace 2f3d d6b7 34be a78f 993c
000000e0: 6003 ee3c 6ea6 eabc 2d86 8e3c 829b 3dbe
000000f0: b42b 193b aa68 ffbc 324a 2fbe 44b1 3f3e
00000100: 91fe e3bb 4fd1 bf3c 4dc0 a33a 8dda b6bc
00000110: d591 b93c ba36 c4bc 63cf b5bc 2094 a5bc
00000120: 64eb b63c 0e8c 46bc db4f a93c 6ba3 e13b
00000130: 759d c7bc 045a 3dbb 7001 8e3c 3364 d3bc
00000140: 5330 b83c 9362 cabc 3bc3 ed3b 9b4f 4c3c
00000150: a950 c63c d411 a13c 4fd9 a0bc f5b5 a7bc
00000160: a3ab a8bc 4f91 363c 286e ccbc 22a8 c1bc
00000170: c654 cebc 10bc c33c f970 b2bc aea9 923c
00000180: 7d46 a33d 24dc 9cbd 0604 8ebb becb 2e3b
00000190: 42bd 50bc c1ab 5e3d dfea 53bc e70c 1b3d
000001a0: 9ad9 6ebd ed42 92bc 3ba7 53bd 7a32 bbbd
000001b0: aeff 833d 3428 c43d df39 31bd a93f c43d
000001c0: 8058 f2bd d9e9 163e 2918 c1bd 106c 15be
000001d0: ad04 9dbc d409 793d 3f3c 993d e8be 13be
000001e0: b4ec 3d3e 8bda c5bd d8ff 1b3c 71b0 5c3c
000001f0: ef84 a13c b220 9bbd 02e6 123e 8f2a 8bbd
00000200: d9de 11be bb08 58bd 9c42 e8bd 39f3 fc3d
00000210: fc14 e6bd 75bc b73d 7890 a53d be96 eb3c
00000220: 7d06 223e 40f5 bcbd e4a7 8d3d 30f2 773d
00000230: b79a 133d 5920 8ebd fa17 e3bd 0d47 37be
00000240: 7970 243e d88b 0abd d98d 93bd 0baf 82bc
00000250: 4df6 4f3d 2593 b73d eabf 08be 8d20 f3bd
00000260: a40d 4fbe 53a4 853d 53ad 4bbb 32d7 4bbc
00000270: 92ef f03d 6d04 bc3d 7379 10be 929e abbd
00000280: 8ff8 29be 2ca2 43be 6492 013e 4e32 80bd
00000290: 4878 1abe 16ea 9dbd 2c15 3b3e 102e 023d
000002a0: 35fc 473d 2a9d e13c ceff 3d3c 34e8 873c
000002b0: d113 0f3d 62b6 f83d 4997 4eba e7bf da3b
000002c0: cb36 c53c 39b3 d63d ef43 863c e4ea 283e
000002d0: 1c30 a13d ec29 ff3a a11b 1cbd 85bf f3bd
000002e0: 9c95 5d3d c25f 1bbe b515 c53d 7243 a43d
000002f0: 9665 e43d ec67 023e 1ecf a0bc bb7a 8ebc
00000300: 64ea 1d3e 7516 0e3e acba c13d a128 58bd
00000310: cdec 05be 2050 bb3b 8bbf 5e3d f66e 0a3e
00000320: ca09 2dbc 88f3 a43d e1e4 c33d e77f d2bd
00000330: 373c 303e 5c34 e8bc 571d 9b3c e7ac 18bd
00000340: 3649 84bd 9bd3 2d3e cb0b 273d e538 6e3d
00000350: bdae ab3d c677 07be 8f02 a73d b6d0 d439
00000360: cb2f 2d3e caa4 693c b5fa 6a3d 068c f13c
00000370: 6411 d43d 144c 0cbe 9bce 71bd ce76 4bbe
00000380: 0a62 0bbe a7a4 b23d 3ab6 263d aea0 b43a
00000390: d583 17be 235f 4f3c 2323 05be a123 3ebd
000003a0: 6d0d be3d 3bb4 cdbb 7fb7 263d 7ab2 f9bd
000003b0: e860 12bc ae76 9abd 3c8a e43d 9246 413c
000003c0: 2dfb adbd d55c cd3d 72ef b23d 3b2e 053e
000003d0: 1cd7 92bd a8ae a13d 0633 c23d a50b 413d
000003e0: cfaf 0fbe 1a52 e63d ab7b 28bd 6ce5 b5bd
000003f0: fd84 e4bd 95f3 e5bd 203f 0abe 9974 c0bc

gcn.lin_2.weight f4 [32, 32]
0.06855382 -0.016029716 0.019508665 0.121582694 -0.08513779 0.096637964 -0.09123049 0.17764798
-0.09753268 -0.041732322 -0.11024732 0.025849352 -0.077870026 0.04475088 0.023420757 0.068704754
0.014067285 0.04234849 0.04395853 -0.022752168 0.014605761 -0.01345928 -0.117606625 -1.908442e-05
0.132288 -6.9200115e-07 -0.040237132 0.12218577 -1.6307776e-08 -0.12827383 -0.0633243 -0.03353855
0.0030872277 -0.103993416 0.017403094 0.092677675 -0.065780036 -0.07714749 -0.11872982 -0.091507524
-0.10308514 0.112482294 -0.091928735 0.07858116 0.016753372 0.08153499 -0.073208086 -0.011019923
-0.015887722 0.08722074 0.14691047 0.10858949 -0.026385948 0.18937986 -0.074503705 -2.570313e-05
0.180058 2.0262381e-07 0.11806707 -0.02761935 -5.418387e-08 -0.08808417 -0.06734219 0.09700761
0.008338868 -0.017410232 0.031117544 0.14653666 -0.09751788 -0.19206096 -0.089825764 -0.05579996
-0.018715192 -0.14580703 0.17842004 0.19009896 0.053913917 0.120990835 0.13689652 0.15049045
0.14923698 -0.031885765 0.12612715 0.21219052 -0.186249 0.08958009 -0.046633888 -1.3074687e-05
0.04879969 -5.87576e-07 0.06722225 0.16197191 1.5192109e-06 -0.011304706 -0.067018434 0.09463699
-0.030496208 0.11901718 -0.019760104 -0.09343163 0.09778532 0.11954825 -0.15727526 0.11228764
-0.14976887 0.058779854 0.035402488 -0.07869034 -0.06078078 0.06184307 -0.017563285 0.0060424875
0.12280838 0.05692171 -0.16310892 -0.10754063 0.01174043 -0.054691967 0.17766169 2.535835e-07
0.00020677017 5.420494e-05 -0.16929823 -0.01435267 -9.617397e-07 -0.09023179 0.04921942 0.009101525
0.05581744 -0.021629263 0.020358061 0.11900549 0.05010087 0.024628751 -0.05911541 -0.120176405
-0.057079352 -0.08517866 0.04095795 0.09901547 -0.10825105 -0.01973955 -0.08699423 0.1371434
0.105501495 0.058289066 -0.09509985 0.019076888 0.05461652 0.22309619 -0.031329002 4.95557e-05
0.16114074 -0.0033070247 0.10201604 -0.022285888 -5.196645e-07 0.039684426 0.005339674 -0.043020934
-0.091372594 -0.07712332 0.016440634 0.06835783 0.17050616 0.1942413 0.16548313 -0.04264691
0.21854548 0.19280785 -0.04376281 0.13827953 -0.10510899 0.13883592 0.0028623329 0.028456857
0.0031038094 -0.06687424 -0.029334828 -0.045803074 0.10792648 0.22938533 -0.12790753 2.1764507e-05
-0.05121265 5.1758343e-06 0.11114761 0.106633976 -4.3187003e-07 -0.09951163 -0.017583208 0.05816734
0.11320482 -0.1409503 0.021073258 0.16709977 -0.080702916 -0.20637302 0.037064765 -0.060712386
-0.080763504 -0.19510357 0.0002837862 0.13791834 -0.0504245 -0.055210393 0.044083267 0.14902069
0.00088233734 0.06723114 -0.1612475 0.051679228 -0.0072233244 0.12871248 -0.020726422 3.949197e-06
-0.05725149 -3.8434592e-08 0.06346338 0.10250787 3.640793e-08 -0.20252502 0.04268658 0.13881561
-0.006088443 -0.11435676 0.03360782 0.03501372 -0.03646354 0.08639296 -0.0007848297 -0.031023731
0.055056762 -0.02197583 0.07761629 -0.12428274 -0.02726612 0.023385594 -0.010367743 0.038748264
0.000292301 -0.053519342 -0.11587725 0.17043161 -0.10940351 -0.23146169 -0.09037481 2.747609e-05
-0.14136367 1.844297e-07 -0.120430015 -0.0495213 -2.6372953e-07 0.011584023 0.100509964 0.12675028
00000000: f265 8c3d c050 83bc a3d0 9f3c 5900 f93d
00000010: b95c aebd 20ea c53d 0dd7 babd 5ae9 353e
00000020: 37bf c7bd 83ef 2abd 59c9 e1bd 05c2 d33c
00000030: 527a 9fbd b34c 373d e3dc bf3c 14b5 8c3d
00000040: 787a 663c 9c75 2d3d dc0d 343d c162 babc
00000050: 004d 6f3c 5084 5cbc bedb f0bd 7b17 a0b7
00000060: 8176 073e f5c1 39b5 b1cf 24bd 883c fa3d
00000070: 2e15 8cb2 375a 03be 2cb0 81bd b85f 09bd
00000080: 1653 4a3b 80fa d4bd ef90 8e3c cbcd bd3d
00000090: afb7 86bd 81ff 9dbd 9f28 f3bd 4c68 bbbd
000000a0: 4d1e d3bd 1e5d e63d 2245 bcbd 29ef a03d
000000b0: 5e3e 893c d1fb a63d 1fee 95bd e88c 34bc
000000c0: f826 82bc caa0 b23d b36f 163e 2b64 de3d
000000d0: 5827 d8bc cbec 413e 6695 98bd 0d9d d7b7
000000e0: 2061 383e cf90 5934 26cd f13d fa41 e2bc
000000f0: ccb7 68b3 7965 b4bd b4ea 89bd edab c63d
00000100: bf9f 083c e79f 8ebc 38ea fe3c b50d 163e
00000110: 74b7 c7bd a1ab 44be 92f6 b7bd 808e 64bd
00000120: 9a50 99bc 704e 15be beb3 363e 4da9 423e
00000130: d7d4 5c3d 0bca f73d 9a2e 0c3e 2b1a 1a3e
00000140: 94d1 183e a69a 02bd 7a27 013e 7948 593e
00000150: 0fb8 3ebe c475 b73d 2d03 3fbd 5a5b 5bb7
00000160: 2fe2 473d eab9 1db5 d2ab 893d f7db 253e
00000170: b0e7 cb35 6037 39bc f640 89bd 0ad1 c13d
00000180: 2fd3 f9bc 47bf f33d f1df a1bc 1559 bfbd
00000190: ab43 c83d b7d5 f43d c40c 21be 10f7 e53d
000001a0: 035d 19be 25c3 703d 3302 113d 6728 a1bd
000001b0: 44f5 78bd 294f 7d3d e1e0 8fbc 0f00 c63b
000001c0: f682 fb3d bd26 693d 0606 27be 433e dcbd
000001d0: ef5a 403c af04 60bd f2ec 353e 4024 8834
000001e0: 72d0 5839 1c5a 6338 845c 2dbe 7627 6bbc
000001f0: 2015 81b5 72cb b8bd 4d9a 493d 901e 153c
00000200: d4a0 643d da2f b1bc f3c5 a63c 26b9 f33d
00000210: 9236 4d3d 3cc2 c93c 0023 72bd 0c1f f6bd
00000220: 0acc 69bd 2672 aebd 86c3 273d 9fc8 ca3d
00000230: bab2 ddbd d6b4 a1bc 082a b2bd 526f 0c3e
00000240: 2b11 d83d 84c0 6e3d b6c3 c2bd 2247 9c3c
00000250: 92b5 5f3d 5473 643e d752 00bd 07da 4f38
00000260: 1402 253e abba 58bb c9ed d03d e590 b6bc
00000270: 137f 0bb5 238c 223d 6ff8 ae3b b836 30bd
00000280: 8e21 bbbd d5f2 9dbd 82ae 863c 31ff 8b3d
00000290: 2b99 2e3e 31e7 463e 6974 293e 87ae 2ebd
000002a0: 63ca 5f3e 6c6f 453e a240 33bd 2699 0d3e
000002b0: 6243 d7bd 012b 0e3e fa95 3b3b 5b1e e93c
000002c0: 4869 4b3b 5df5 88bd 984f f0bc 019c 3bbd
000002d0: 8f08 dd3d fde3 6a3e 31fa 02be ec92 b637
000002e0: 5bc4 51bd 14ac ad36 5ca1 e33d ea62 da3d
000002f0: c4db e7b4 c1cc cbbd a90a 90bc e040 6e3d
00000300: eed7 e73d 4755 10be d3a1 ac3c 341c 2b3e
00000310: 9247 a5bd 7353 53be 39d1 173d 8dad 78bd
00000320: 5667 a5bd 3bc9 47be 24c9 9439 773a 0d3e
00000330: ec89 4ebd 4b24 62bd a890 343d e198 183e
00000340: a84c 673a 7bb0 893d 111e 25be 99ad 533d
00000350: a3b1 ecbb 34cd 033e 75ca a9bc 5883 8436
00000360: 8a80 6abd 4813 25b3 17f9 813d a5ef d13d
00000370: f15e 1c33 b862 4fbe 20d8 2e3d ae25 0e3e
00000380: 9081 c7bb e133 eabd 5aa8 093d 8c6a 0f3d
00000390: cb5a 15bd cbee b03d 08bd 4dba 7b25 febc
000003a0: 3383 613d a806 b4bc 4af5 9e3d f387 febd
000003b0: 335d dfbc 2593 bf3c 77dd 29bc 80b6 1e3d
000003c0: fa3f 9939 1937 5bbd 0d51 edbd a085 2e3e
000003d0: f30e e0bd 4b04 6dbe 6e16 b9bd 747c e637
000003e0: a3c1 10be a607 4634 03a4 f6bd d9d6 4abd
000003f0: b696 8db4 eaca 3d3c 2bd8 cd3d d3ca 013e

gcn.lin_2.bias f4 [32]
0.12883505 -0.0014051113 -0.13575518 -0.10816115 0.019624557 0.08368994 0.09551635 -0.22550046
0.12190879 0.117291495 -0.08289254 -0.07656217 -0.14646374 -0.17571492 0.017546628 0.09061432
-0.12862135 -0.049429066 -0.101090066 -0.17186917 -0.25329894 0.11104452 0.055334076 0.041554574
-0.0993398 -0.036597684 -0.21682985 -0.20942655 -0.09498218 0.07007021 0.092216015 0.0036085078
00000000: 56ed 033e b62b b8ba 6803 0bbe 9883 ddbd
00000010: aec3 a03c a265 ab3d 139e c33d 98e9 66be
00000020: 51ab f93d 8636 f03d 90c3 a9bd a1cc 9cbd
00000030: 97fa 15be 9dee 33be f2bd 8f3c 0094 b93d
00000040: 51b5 03be 2276 4abd 4f08 cfbd 79fe 2fbe
00000050: 66b0 81be 4f6b e33d fca5 623d 2135 2a3d
00000060: aa72 cbbd 74e7 15bd a508 5ebe ea73 56be
00000070: 0486 c2bd f880 8f3d c0db bc3d b77c 6c3b

nf.base_dist_mean f4 [25, 1]
0.16220967 0.86235416 -1.2827314 -0.7641487 -0.48609266 -0.08148949 -1.3160186 2.2645564
2.8440545 -0.020212416 -1.4055965 -0.2625427 -1.3025557 -0.93823177 1.3252184 1.0710232
-0.34759474 0.47574672 1.7358835 0.9376786 -0.95568764 -0.6355421 -0.7642589 1.693541
0.23213202
00000000: 4b1a 263e 3ec3 5c3f 8b30 a4bf 409f 43bf
00000010: 23e1 f8be f6e3 a6bd 4c73 a8bf 7eee 1040
00000020: fd04 3640 8294 a5bc 96ea b3bf ff6b 86be
00000030: 25ba a6bf f52f 70bf c2a0 a93f 4a17 893f
00000040: f0f7 b1be 1395 f33e 6e31 de3f b40b 703f
00000050: f2a7 74bf e3b2 22bf 79a6 43bf f4c5 d83f
00000060: 04b4 6d3e

nf.base_dist_var f4 [25, 1]
1.0 1.0 1.0 1.0 1.0 1.0 1.0 1.0
1.0 1.0 1.0 1.0 1.0 1.0 1.0 1.0
1.0 1.0 1.0 1.0 1.0 1.0 1.0 1.0
1.0
00000000: 0000 803f 0000 803f 0000 803f 0000 803f
00000010: 0000 803f 0000 803f 0000 803f 0000 803f
00000020: 0000 803f 0000 803f 0000 803f 0000 803f
00000030: 0000 803f 0000 803f 0000 803f 0000 803f
00000040: 0000 803f 0000 803f 0000 803f 0000 803f
00000050: 0000 803f 0000 803f 0000 803f 0000 803f
00000060: 0000 803f

nf.net.0.net_input.weight f4 [32, 1]
0.2819091 0.22138649 0.40704292 -0.54014826 -0.80362964 -0.84212226 0.23721553 0.6986859
0.4005178 0.61776644 0.9584817 -0.52992326 0.31513613 -0.3168137 0.2708966 -0.6212621
-0.20783405 0.6457041 0.15736665 0.7088066 0.28469163 0.69112015 0.5618369 -0.42297193
0.9044751 0.21480697 -0.6250028 1.0449568 -0.5076991 0.51882994 0.29290643 0.6183405
00000000: 6456 903e 24b3 623e ee67 d03e 2847 0abf
00000010: acba 4dbf 5395 57bf a1e8 723e 14dd 323f
00000020: ab10 cd3e f125 1e3f 0f5f 753f 0da9 07bf
00000030: 8659 a13e 6835 a2be f6b2 8a3e 080b 1fbf
00000040: 73d2 54be dd4c 253f b924 213e 5974 353f
00000050: 1ac3 913e 40ed 303f 8bd4 0f3f c78f d8be
00000060: ae8b 673f 5cf6 5b3e 2f00 20bf 25c1 853f
00000070: 91f8 01bf 0ad2 043f d5f7 953e 904b 1e3f

nf.net.0.net_input.bias f4 [32]
0.67175186 -1.0279837 -0.2481272 -0.844385 0.380698 -0.32531166 -0.49081632 -0.626711
0.44745085 -0.5763808 -0.937687 1.0592033 -0.85793614 -0.6404881 -0.062981665 -0.69727284
0.6346175 -0.9075203 0.57330364 -0.94393444 -0.06614463 -0.63244313 0.015860796 -0.9215662
0.9239297 -0.40891048 -0.16235577 0.7709202 0.84615237 0.44241828 -0.7013144 -0.54115033
00000000: eef7 2b3f f894 83bf 0f15 7ebe 9e29 58bf
00000010: d9ea c23e 408f a6be 474c fbbe 2270 20bf
00000020: 4718 e53e b18d 13bf 410c 70bf f993 873f
00000030: b4a1 5bbf 07f7 23bf 88fc 80bd 7980 32bf
00000040: 4b76 223f 4053 68bf 07c4 123f b0a5 71bf
00000050: d676 87bd cbe7 21bf 80ee 813c c3eb 6bbf
00000060: a886 6c3f b75c d1be 9740 26be 075b 453f
00000070: 719d 583f a684 e23e 5789 33bf d488 0abf

nf.net.0.net_input.cond_weight f4 [32, 32]
0.24820735 0.1532646 -0.04228111 -0.07936434 0.25068614 0.23504427 -0.00094724394 -0.0051666587
0.18329899 0.22743644 0.14475127 -0.07315196 0.079806 0.040567648 -0.058190346 0.19565023
0.0015106563 -0.03551537 -0.023905411 -0.007795056 -0.05268525 0.27279696 0.15553017 -0.099247426
-0.02062814 0.17698179 0.057112165 0.043724027 -0.074519426 0.27728397 0.22271307 0.12354979
0.08488068 0.07512453 0.21858324 0.089130685 0.08398475 0.019493638 0.14264701 0.12695996
-0.009552282 -0.048270427 -0.024643824 0.11033419 0.0682192 0.10171437 0.03333917 0.090114795
0.18678446 0.07102702 0.15368518 0.23144078 0.07452786 0.11140309 -0.04239601 0.14300522
0.07701168 0.07165303 0.12111401 0.16322482 0.1421458 0.093354605 0.024159348 0.104295574
0.12158264 0.043396723 0.10382123 0.071620055 0.09680766 -0.04303394 0.06367758 0.14036104
0.074849896 0.21611099 0.0096492525 0.17061351 0.09916153 0.12737879 0.055400614 0.17415561
0.09267573 0.007538665 -0.00018082422 0.18233049 0.09245922 0.15315512 -0.0004866431 0.07337321
0.16063161 0.13036078 0.122897856 0.08959353 0.052244272 0.004571063 0.006135413 0.083875656
0.11733403 0.08873389 0.089705124 0.04094669 0.09844196 0.090257786 0.047971625 0.032244436
0.15482338 0.1247382 0.13480891 0.043574724 0.113610506 0.070762 0.01801206 0.16721885
0.019673288 0.07476079 0.11602885 0.0028495684 -0.039911915 0.15458469 0.18533577 -0.10027994
-0.020871274 0.16474465 -0.0281362 0.112449355 0.11892075 0.15498386 0.096363135 0.13474976
0.030724874 0.14261325 0.16124423 0.05138061 0.07600304 -0.011045091 0.018839594 0.15563403
-0.0038630022 0.1370922 0.031181335 0.17595509 0.16239311 0.21283333 0.12898973 0.08458579
0.087566726 0.14144762 0.104605615 0.05462897 0.16874982 0.024126248 -0.030362895 0.067724876
0.06247272 0.07502561 0.076639 0.20184119 0.037960254 0.06655948 0.053488865 -0.0050754626
0.041668627 -0.03215476 0.17999712 0.14462927 -0.08448967 -0.033710703 -0.004642135 0.19224735
-0.035376165 0.01725815 0.01989754 0.17880085 0.1356469 0.1090873 0.14417268 0.037864864
0.09318592 0.19584106 0.14397463 0.19543888 0.096785456 0.002795672 -0.03507253 0.22474876
0.21545298 0.004713785 0.23518738 0.17307813 0.22727652 0.045791432 -0.028505 0.05762888
0.09339889 0.10664126 0.070305444 0.08451686 0.15063263 0.10493871 -0.018164745 0.06915657
0.07591686 0.16547373 -0.016872836 0.095418274 0.09293151 0.059273966 0.05418347 0.19213337
0.06098394 0.043760993 0.09580403 0.09342054 0.163552 0.079285204 0.11429144 -0.005743021
0.13016334 0.10708735 -0.005977344 0.04728083 -0.01827033 0.16294831 0.13719206 0.09178865
0.010284098 0.06617036 0.13603269 -0.035295416 0.05794567 0.011872875 0.0076283533 0.17447479
0.04332944 0.21390575 0.07070677 0.09300564 0.07104971 -0.0030797343 -0.09147188 0.17362529
0.021931102 -0.015581083 0.117769346 0.13406257 0.050024357 0.117737144 0.10223383 0.08503178
0.049774244 0.087843835 0.047323074 0.13739981 0.021631524 0.14868653 0.0939782 0.026165586
00000000: 112a 7e3e 65f1 1c3e f52e 2dbd c589 a2bd
00000010: ef59 803e 72af 703e 7750 78ba 134d a9bb
00000020: bbb2 3b3e 19e5 683e ad39 143e b2d0 95bd
00000030: 5471 a33d 432a 263d 0059 6ebd 8958 483e
00000040: 3701 c63a 9178 11bd 48d5 c3bc ab6d ffbb
00000050: 7dcc 57bd 0bac 8b3e 4d43 1f3e 3c42 cbbd
00000060: 58fc a8bc b73a 353e 72ee 693d f717 333d
00000070: a49d 98bd 2af8 8d3e e50e 643e ac07 fd3d
00000080: ecd5 ad3d e4da 993d 49d4 5f3e 268a b63d
00000090: 3200 ac3d 1fb1 9f3c 0f12 123e cb01 023e
000000a0: 2d81 1cbc 36b7 45bd d8e1 c9bc e4f6 e13d
000000b0: 82b6 8b3d a04f d03d a78e 083d 1b8e b83d
000000c0: 6d44 3f3e 9d76 913d a65f 1d3e d0fe 6c3e
000000d0: 10a2 983d 4e27 e43d 70a7 2dbd f66f 123e
000000e0: 4db8 9d3d d3be 923d 9f0a f83d 6824 273e
000000f0: ab8e 113e b330 bf3d d3e9 c53c eb98 d53d
00000100: 5200 f93d c3c0 313d 3aa0 d43d 89ad 923d
00000110: 1843 c63d 5b44 30bd 6469 823d ceba 0f3e
00000120: e74a 993d 334c 5d3e e617 1e3c 4fb5 2e3e
00000130: 3315 cb3d 966f 023e c1eb 623d d955 323e
00000140: c6cc bd3d e806 f73b a29b 3db9 d8b4 3a3e
00000150: 425b bd3d b2d4 1c3e 2224 ffb9 b244 963d
00000160: 9d7c 243e 4c7d 053e dfb1 fb3d d07c b73d
00000170: 17fe 553d dbc8 953b 930b c93b 00c7 ab3d
00000180: d34c f03d 1dba b53d 52b7 b73d b7b7 273d
00000190: f09b c93d 13d9 b83d e57d 443d be12 043d
000001a0: 058a 1e3e be76 ff3d 590b 0a3e 697b 323d
000001b0: a0ac e83d abeb 903d 078e 933c 6b3b 2b3e
000001c0: e029 a13c 2f1c 993d 89a0 ed3d d3bf 3a3b
000001d0: ad7a 23bd 734b 1e3e a9c8 3d3e 925f cdbd
000001e0: 3cfa aabc d2b2 283e e37d e6bc d94b e63d
000001f0: b98c f33d 17b4 1e3e 095a c53d d7fb 093e
00000200: bbb2 fb3c 3509 123e 351d 253e 7974 523d
00000210: 7ba7 9b3d 78f6 34bc 7e55 9a3c 875e 1f3e
00000220: 6c2a 7dbb e661 0c3e 0070 ff3c 922d 343e
00000230: 614a 263e fbf0 593e e215 043e 513b ad3d
00000240: 2f56 b33d a5d7 103e 783b d63d a0c2 5f3d
00000250: c1cc 2c3e 69a4 c53c 9bbb f8bc 57b3 8a3d
00000260: 65e3 7f3d 07a7 993d e8f4 9c3d 75af 4e3e
00000270: 367c 1b3d 5650 883d 2417 5b3d 1150 a6bb
00000280: b9ac 2a3d b6b4 03bd 2a51 383e b219 143e
00000290: ec08 adbd 3c14 0abd 0d1d 98bb 7ddc 443e
000002a0: 99e6 10bd f760 8d3c 2a00 a33c 9217 373e
000002b0: 05e7 0a3e 2a69 df3d 01a2 133e 3018 1b3d
000002c0: 42d8 be3d 8f8a 483e 166e 133e 2121 483e
000002d0: 7437 c63d 9837 373b 37a8 0fbd 8a24 663e
000002e0: b59f 5c3e 1876 9a3b f6d4 703e 653b 313e
000002f0: 2dbb 683e cc8f 3b3d 5183 e9bc 430c 6c3d
00000300: eb47 bf3d bc66 da3d 4dfc 8f3d 2d17 ad3d
00000310: 713f 1a3e 1bea d63d 3bce 94bc f6a1 8d3d
00000320: 4c7a 9b3d f271 293e e738 8abc a86a c33d
00000330: e052 be3d 42c9 723d 7cef 5d3d 9cbe 443e
00000340: 4cca 793d ba3e 333d e734 c43d 4553 bf3d
00000350: 2d7a 273e 4860 a23d a111 ea3d f42f bcbb
00000360: 8a49 053e 9d50 db3d 98dd c3bb 8ba9 413d
00000370: a9ab 95bc ecdb 263e 137c 0c3e b0fb bb3d
00000380: a27e 283c 5384 873d 274c 0b3e ed91 10bd
00000390: 7058 6d3d 7286 423c 44f7 f93b 85a9 323e
000003a0: 367a 313d 1c0a 5b3e b6ce 903d be79 be3d
000003b0: 8382 913d 5ed5 49bb 9c55 bbbd d4ca 313e
000003c0: dba8 b33c cc47 7fbc 0e31 f13d b347 093e
000003d0: 57e6 4c3d 2c20 f13d f85f d13d 2425 ae3d
000003e0: 14e0 4b3d 78e7 b33d d7d5 413d 89b2 0c3e
000003f0: 9834 b13c 4841 183e a477 c03d 3659 d63c

nf.net.0.net_input.mask f4 [32, 1]
1.0 1.0 1.0 1.0 1.0 1.0 1.0 1.0
1.0 1.0 1.0 1.0 1.0 1.0 1.0 1.0
1.0 1.0 1.0 1.0 1.0 1.0 1.0 1.0
1.0 1.0 1.0 1.0 1.0 1.0 1.0 1.0
00000000: 0000 803f 0000 803f 0000 803f 0000 803f
00000010: 0000 803f 0000 803f 0000 803f 0000 803f
00000020: 0000 803f 0000 803f 0000 803f 0000 803f
00000030: 0000 803f 0000 803f 0000 803f 0000 803f
00000040: 0000 803f 0000 803f 0000 803f 0000 803f
00000050: 0000 803f 0000 803f 0000 803f 0000 803f
00000060: 0000 803f 0000 803f 0000 803f 0000 803f
00000070: 0000 803f 0000 803f 0000 803f 0000 803f
