checkpoint/PSM/model.pth (torch, 71267 bytes, 37 tensors)

rnn.weight_ih_l0 f4 [128, 1]
000000 3c e6 5d bd ab ba 59 be 59 45 70 3e ce a2 b7 be
       -0.054174647 -0.21262614 0.23463954 -0.35866398
000010 2a 7d 30 be ba a8 15 3e 82 9a 53 bd a4 5a d5 3a
       -0.17235246 0.14615145 -0.051661022 0.0016277623
000020 6d 80 24 bd 70 f8 83 bd f6 3f f7 bd 41 d6 81 be
       -0.04016154 -0.0644387 -0.120727465 -0.25358775
000030 3e 39 62 be 1e 78 49 be c8 71 a8 bd 4c 18 3a be
       -0.22092149 -0.19674727 -0.08224827 -0.18173331
000040 ef 1d ad be 92 16 db bd da 0e b2 bc 09 75 a7 bd
       -0.338119 -0.10697664 -0.021735597 -0.081766196
000050 69 ce 00 be 09 37 10 be df 4d c8 bc 5e e2 49 bd
       -0.12578739 -0.14083494 -0.024451194 -0.049288146
000060 57 ce 83 be 2e 02 4e 3c 98 0f 1b be 8a 9a be 3c
       -0.25743362 0.012573762 -0.15142667 0.02326705
000070 c7 3d 09 be 97 3f eb 3c 5a 91 36 be 27 64 f5 bb
       -0.13402472 0.028716845 -0.17828885 -0.0074887457
000080 15 4c bb bd 3c 13 39 be fe 0a 03 3e 4d 3a 14 be
       -0.09145371 -0.18073744 0.12797162 -0.14475365
000090 ba 20 3d 3d 49 6c 1e 3e e2 4a 46 bd 03 3c b7 bc
       0.04617379 0.15470995 -0.048411258 -0.022367483
0000a0 9c 4f 9b bd e8 30 de bc 74 7b e9 3d ab a1 66 be
       -0.07583544 -0.02712293 0.114005 -0.22522609
0000b0 58 aa 2b be 25 35 3d 3c 69 59 47 bd 35 99 d5 bd
       -0.167642 0.011548315 -0.048669253 -0.104296125
0000c0 e9 ba 96 be 88 01 3c 3b 2c db f4 3a f0 cd 59 3d
       -0.29439476 0.0028687436 0.0018681041 0.053174913
0000d0 2c fd 09 3d 4c 9f ff bb 7a 77 9b bd f4 da c0 3d
       0.03368871 -0.007800972 -0.07591148 0.09416762
0000e0 98 bf 03 bd 21 95 2b be 0f e1 12 bc 75 4b 03 bb
       -0.03216514 -0.16756107 -0.008964791 -0.002003399
0000f0 91 3c f1 3d 73 c7 6d bd 69 85 98 3d 1f d6 0c be
       0.1177913 -0.058051538 0.07447321 -0.13753556
000100 5c d0 39 bb db af fc bd d8 f3 0b be 98 7d fa bd
       -0.0028352952 -0.12338229 -0.13667238 -0.12230986
000110 92 2a b0 3c fa 2d 23 be 42 fd 7c 3d c2 3b d3 3d
       0.021504674 -0.15935507 0.061764963 0.10314132
000120 5f fd 3f bd 4a 01 24 be de 90 02 be 50 89 cd bd
       -0.046872493 -0.16016117 -0.12750575 -0.10035956
000130 e4 0a b4 3d 50 af 5a 3d 01 b6 f9 bc 4d 96 de bd
       0.0879114 0.053389847 -0.030482294 -0.10868511
000140 af 93 1d be bd 10 97 3c 74 c4 1c 3d 31 be ce 3c
       -0.15388368 0.018440599 0.03827329 0.025237175
000150 f1 a7 0e 3e 89 84 84 bd 52 2d 69 3d 5a df 65 3d
       0.13931252 -0.064705916 0.056927986 0.056121208
000160 b6 b3 5b bd 34 97 3f ba b3 e6 b3 bd 1f f7 ad 3c
       -0.053638183 -0.0007308603 -0.08784237 0.021236
000170 5a 14 30 bd 0d 33 1c 3b e5 74 54 bd a3 7e 83 3d
       -0.04298816 0.002383414 -0.05186929 0.064206384
000180 19 c9 03 3e 7a b8 98 be 63 da 1f 3e ea 42 9c be
       0.12869681 -0.29828244 0.15610652 -0.305198
000190 6f ea 9e bd 9e cd 54 3c 63 3f d6 bc 95 26 3f be
       -0.077595584 0.012988476 -0.026153272 -0.18667062
0001a0 b4 62 81 3d df 5e 5b 3e 2d aa 56 3e b6 95 2a be
       0.06317654 0.21422909 0.20963354 -0.16658673
0001b0 33 26 65 be 72 0f f9 bd 1a 85 e5 bd 54 4f 60 be
       -0.22377853 -0.12161149 -0.11207028 -0.21905261
0001c0 3e 44 a5 be 23 91 bb bd 04 24 4c be 2f b5 38 bc
       -0.32278627 -0.09158542 -0.19935614 -0.011273666
0001d0 29 d1 4f 3e e9 9f 6b bd fc 9b 55 bd fd 0c 34 bd
       0.20294632 -0.05752555 -0.05215071 -0.0439577
0001e0 e1 31 44 be 60 f6 a6 bb f3 26 6a be d8 f8 ce 3c
       -0.19159652 -0.005095288 -0.2286642 0.025265142
0001f0 9a 92 85 bc 87 b2 e8 bb ec e8 bc bd 6f f9 58 be
       -0.016305257 -0.0071013602 -0.09224114 -0.21188901

rnn.weight_hh_l0 f4 [128, 32]
000000 e2 92 a9 bc bb b2 4a 3d 30 18 ba 3b db e4 74 3b
       -0.020699922 0.049486857 0.005679153 0.0037367854
000010 15 c1 51 bd d8 93 0b bd a4 35 5b bb fb bb 85 3c
       -0.051209528 -0.03407654 -0.003344872 0.016324988
000020 a9 7a ac 3c f6 27 54 bc 9b 0a cb bc b0 47 18 3d
       0.021054583 -0.012948981 -0.02478533 0.03717774
000030 f1 fb 12 bd c1 00 a5 bc 09 b2 0e 3d 57 d8 28 3c
       -0.0358848 -0.020141961 0.034837756 0.010305486
000040 d7 aa 22 3d 1f dc d1 bb 72 31 0e 3d 46 b8 47 3a
       0.039713707 -0.0064044143 0.034715123 0.00076187064
000050 73 a6 af bc c9 5f 18 bd 7c 70 f8 3c 08 73 8a 3d
       -0.021441674 -0.037200723 0.030327074 0.06760222
000060 62 0b ba 3b ec cb ac bc 85 43 0e bb b1 1c e0 bc
       0.0056776265 -0.021093331 -0.0021707725 -0.027357431
000070 59 cc 98 3b 4b f2 27 bb 58 68 84 bd 23 87 57 3d
       0.004663032 -0.0025626596 -0.064652145 0.05261911
000080 9b a3 4d bd 63 14 0a 3d 03 37 26 3d f0 5f 27 3d
       -0.050204854 0.03371085 0.040579807 0.040862978
000090 b3 0e 00 be 67 3e b1 bc 82 38 82 bc d2 91 5e 3c
       -0.12505607 -0.021636201 -0.015896086 0.013584571
0000a0 8c 7c 46 3d 2c fb c9 bd a2 dc 2c bd fe 71 84 3d
       0.04845862 -0.0986236 -0.0422026 0.06467055
0000b0 b6 31 06 be 22 11 8b bd 80 a3 91 3d a7 b8 ad 3c
       -0.131049 -0.06790377 0.07111263 0.021206213
0000c0 6f 12 05 3e 1c 87 b8 bc 8c b1 f6 3d 84 f4 06 bc
       0.12995313 -0.022525363 0.12045583 -0.008237008
0000d0 28 3a 3b bd a7 66 f0 bd a0 f8 80 3d cf 67 c0 3d
       -0.04570976 -0.117383294 0.062974215 0.093948
0000e0 7c ac 62 3d 31 4a 89 bd c2 1b 18 bb 80 6c 8e bd
       0.055340275 -0.06703604 -0.0023209904 -0.069542885
0000f0 4c 46 23 bd fd 24 1d bc 64 c3 dd bd 44 a7 2a 3e
       -0.039861962 -0.009591338 -0.108282834 0.1666537
000100 68 93 88 bc 3d 7a d0 3c 9c 29 f4 3c 24 fa 05 bd
       -0.016671851 0.025448913 0.029804997 -0.032709256
000110 ea 3c a9 bd 7e 99 1b bc dc 5e 86 3b fc de 1b 3d
       -0.082635716 -0.009497045 0.0041006636 0.03805445
000120 20 34 ba 3b 97 ab 9d bd 5a d4 c8 bc 73 e3 d3 3c
       0.0056824833 -0.07698744 -0.02451532 0.025865292
000130 44 95 c6 bc 8b 95 42 bc 20 0f 4d 3d 39 32 7d bb
       -0.024241097 -0.011876474 0.050063252 -0.0038634671
000140 94 60 14 3c be b7 75 bb 58 c2 7a 3d e8 ea 44 bb
       0.009056229 -0.0037493552 0.061220497 -0.0030047242
000150 2a c1 a6 ba 43 73 7b bd 06 86 0e 3d 42 af 11 3e
       -0.0012722362 -0.06138922 0.034795783 0.14227012
000160 cc bc 6c bb 08 40 14 bd d2 8d 3e bc 2f fd ca bc
       -0.0036123274 -0.036193877 -0.011630492 -0.02477893
000170 d7 e3 21 bd 3b 72 92 bb 23 f0 0e be 09 c3 ee 3d
       -0.039523926 -0.0044691837 -0.13958792 0.11658294
000180 a5 cf bd bb 0f 58 e6 3b 1d 5f 62 3c 20 8f 12 bd
       -0.0057925754 0.0070295404 0.013816622 -0.035781026
000190 5a 5d 2e bd 62 a7 3e bc 35 2d 07 3c 98 19 9e 3c
       -0.042569496 -0.011636587 0.008250524 0.019299313
0001a0 3d a1 6e 3c 8c c7 91 bc f1 f4 5c bc 46 33 ec 3a
       0.014564809 -0.017795347 -0.013486133 0.0018020652
0001b0 99 fe 58 bc a5 92 b3 39 c1 d5 5f 3c 93 67 0e bb
       -0.013244295 0.000342508 0.013661803 -0.0021729216
0001c0 ed 57 26 3b 3f bb b7 bb 23 7b 39 3d b4 3d 2d 3c
       0.0025381998 -0.0056070383 0.045283448 0.010573793
0001d0 f1 8c 2f bc 17 0e fb bc 70 6c b4 3c dd 35 b4 3d
       -0.010714755 -0.030646367 0.022024363 0.08799336
0001e0 82 fc 41 bb cc a8 87 bc fe 65 6a bc 85 67 16 bc
       -0.002959997 -0.01655998 -0.014306543 -0.009179954
0001f0 8d 21 5d bc e2 83 26 bb a6 d0 9a bd d7 88 80 3d
       -0.013496769 -0.0025408198 -0.07559328 0.062761
000200 ef fe 57 bc 0d ac bf b9 58 0a 0c bc 63 43 af bb
       -0.0131833395 -0.00036558547 -0.008547388 -0.0053486093
000210 fd 73 e5 3b 8c f7 33 3b b8 e3 b0 bb e7 50 86 3c
       0.0070023523 0.0027460782 -0.00539824 0.016396
000220 81 e2 bf 3c 36 1a d6 3c c9 19 c3 3c f7 e4 cc 3c
       0.023423435 0.026135545 0.023816006 0.025011523
000230 c5 3a 54 bd df 40 f4 3b c4 77 b2 3b 81 00 be bc
       -0.05181386 0.0074540223 0.005446406 -0.0231936
000240 8f 57 a3 3d 30 69 b9 bb 5c 80 76 3b 0d d3 eb 3b
       0.07975685 -0.0056582913 0.003761313 0.00719679
000250 37 b2 1c b9 9a 3e c3 3c e8 c8 b9 3d 2f 1b b1 3c
       -0.0001494371 0.023833562 0.09071523 0.021619407
000260 40 08 6d ba ec 1a 7a 3b c8 b9 12 bb 47 7a cc bb
       -0.0009042062 0.003816302 -0.0022388566 -0.0062401625
000270 56 2a d2 bb f1 42 b8 bb 53 d0 a7 bd 28 93 92 3d
       -0.0064137382 -0.0056232144 -0.081940316 0.07156974
000280 c3 f0 19 bd 01 eb d1 3c d2 05 b0 ba be 74 59 bd
       -0.037583124 0.025624754 -0.0013429469 -0.05308985
000290 22 fb a4 bd 1d fd 97 bd 97 cd 15 3d 18 ce 80 3d
       -0.08055712 -0.074213244 0.03657302 0.06289309
0002a0 03 5e ae 3c de f0 d5 bc 18 8f c3 bd 00 f8 ef 3c
       0.021285063 -0.026115831 -0.09548777 0.02929306
0002b0 b0 60 2a bd 25 1c 94 bc 47 13 7c 3d 44 d9 08 bb
       -0.041596115 -0.018079827 0.06154182 -0.0020881454
0002c0 aa 64 d0 bb bd d3 17 bc 15 87 a4 3d 1c 2d f4 3c
       -0.0063596563 -0.009266791 0.08033577 0.029806666
0002d0 c9 98 77 3d 4e 9d a8 bd b7 4d 6a 3d 8e 82 14 3e
       0.06044844 -0.082331285 0.05720302 0.14502928
0002e0 de 89 a5 bc 71 70 49 bd 41 4e 2f bd 02 26 0f bd
       -0.020207342 -0.049179498 -0.042799238 -0.034948356
0002f0 4b 59 0a bd 44 5f 2c 3c d4 04 77 bd 19 19 19 3e
       -0.033776563 0.01052076 -0.06030734 0.1495098
000300 26 b5 bf 3b 79 29 c4 3c 8c 4a f3 3c 56 83 2f 3c
       0.005850452 0.023945557 0.029698633 0.010712465
000310 21 44 25 bd ff f3 89 3c 25 95 b0 bb e0 1d e3 bb
       -0.040348176 0.01683998 -0.005388873 -0.0069310516
000320 dd 00 a3 3b 89 1d 54 ba 85 f4 2d 3c 49 2d a5 3c
       0.004974468 -0.0008091559 0.01061738 0.020163195
000330 c4 25 b6 bc 4e 7f 5f bc fc a6 38 3c 4e 9c ed 3b
       -0.022234805 -0.013641192 0.011270281 0.007251299
000340 23 6f c7 3c 86 79 7b 3a 3b 5e 7c 3c 29 33 2e bc
       0.024344986 0.00095929985 0.015403326 -0.010632315
000350 05 22 ab bc 9a 03 73 bc bf 13 5b 3b 52 81 9e 3d
       -0.020890245 -0.014832402 0.0033428518 0.0773951
000360 ba 28 80 3b 93 91 4a bc ab f1 ef 3b 6e 35 5f bc
       0.003911105 -0.012363809 0.0073225102 -0.0136235785
000370 2e 2e 95 bb 11 85 f0 b9 d8 78 c6 bc 2c 6e 1e 3d
       -0.004552624 -0.0004587551 -0.024227545 0.038679287
000380 3b 32 96 bc 0d c2 4d bb 85 80 06 3d 6d 92 9d bd
       -0.018334499 -0.003139618 0.03283741 -0.07693944
000390 d0 14 ce bd fd 34 b4 bc cd 6d 14 3d 3a da 27 3d
       -0.100625634 -0.021997923 0.036237527 0.0409796
0003a0 8a 8b d9 3c 48 6b 94 bd 34 69 35 bd 78 ef 9f bc
       0.026555795 -0.07247025 -0.044289783 -0.019523367
0003b0 dd 1d 95 bb bc b4 57 bc ff f2 59 3d ce 72 27 bd
       -0.004550679 -0.013165649 0.053210255 -0.04088097
0003c0 27 46 1b bb 1b 41 12 bc 28 84 37 3c f5 84 ec 3c
       -0.0023692937 -0.008926655 0.011200942 0.028871993
0003d0 e6 b5 96 bc f2 7a a8 bd a0 46 76 3d 41 66 04 3e
       -0.018397283 -0.08226575 0.060125947 0.12929632
0003e0 60 8d de bc 26 13 32 bd f7 26 2c bd 87 5a d7 bc
       -0.027167022 -0.043475293 -0.042029347 -0.026288284
0003f0 ee 4a 06 bd 63 c5 24 3b 32 65 06 be 9e 10 bb 3d
       -0.032786302 0.0025142066 -0.1312454 0.09134029

rnn.bias_ih_l0 f4 [128]
000000 af a5 a9 3c 25 1c ea 3b 19 12 88 be b0 51 83 be
       0.020708887 0.0071444684 -0.26576307 -0.2564826
000010 1e a3 fb bd d9 bf 6e 3d 62 c8 48 be ce 79 01 bd
       -0.122869715 0.05828843 -0.1960769 -0.031610303
000020 94 68 94 bd 7c b9 94 be 91 17 8d bd a0 6e 4b be
       -0.07246509 -0.29047763 -0.068892606 -0.19866419
000030 14 ed 91 bd 43 5a 05 be 5f 92 3a be f3 1f 70 be
       -0.07125297 -0.13022713 -0.18219899 -0.23449688
000040 73 3f 13 be 7b cc 43 be e5 40 a0 bd 55 cf 76 bd
       -0.14379673 -0.19120972 -0.07824878 -0.06025632
000050 ca f2 03 3d 29 78 a8 3d 78 09 46 be 4c cc 43 be
       0.032213964 0.08226044 -0.1933955 -0.19120902
000060 ef 9f 99 bd f6 41 58 be 1c 92 60 be 82 79 42 be
       -0.07501208 -0.21118912 -0.21930736 -0.18991664
000070 69 93 f0 bc d8 f9 1b be 12 85 19 be 4e f0 82 3d
       -0.029367166 -0.15232027 -0.14992169 0.06393491
000080 ec 2e 2e be 7f ff 27 be 5b 9b 59 be 37 f8 dc bd
       -0.17010087 -0.16406058 -0.2125067 -0.10789531
000090 d6 c0 a2 3c 1c 61 46 bd 38 88 29 be 63 37 78 be
       0.019867342 -0.048432454 -0.1655587 -0.24239878
0000a0 1b 68 fc bd 6a 8f 4a be 24 43 72 be e8 34 8a be
       -0.12324544 -0.1978127 -0.23658425 -0.2699349
0000b0 24 fc fa ba 5a ac 6d bd 75 79 67 be 12 20 58 be
       -0.001914863 -0.058025695 -0.22604926 -0.21105984
0000c0 b8 d1 a1 bd 53 c9 31 be 8a f7 d0 3c 1e 6c 3f be
       -0.07901329 -0.17361955 0.02550866 -0.18693587
0000d0 d8 75 ea bc 7b 3c 39 bd 9e f0 6d be 8e 1a be bd
       -0.028620645 -0.045223694 -0.2323632 -0.09282409
0000e0 c4 2a 5f be f9 b5 2f bc ea bf 5c be 5e f6 2b be
       -0.21793658 -0.010724538 -0.21557584 -0.167932
0000f0 f6 6d b2 bc e7 68 fa bd c6 62 3d be c0 c0 ff 3d
       -0.02178095 -0.1222704 -0.1849471 0.12487936
000100 fc 7c 8e bd f1 e1 07 be c9 ca c0 bb 3c 6b 1f bd
       -0.06957433 -0.13269784 -0.005883549 -0.038920626
000110 96 73 e2 3d f0 b4 8c 3d f7 88 05 be 83 01 b3 ba
       0.110572025 0.068704486 -0.13040529 -0.0013657067
000120 c4 48 af 3c 2f 7d 65 3d 29 b9 10 3e bb 23 4b bd
       0.021397002 0.056027588 0.14133133 -0.049594622
000130 fa f0 cb bd ae 64 21 3d 6e 7f 56 be d0 ab 5d bd
       -0.09958072 0.039402656 -0.20947048 -0.05411893
000140 78 a1 2e 3d c3 1b 97 3d fb f8 6a bd d7 1d b4 3d
       0.042634457 0.07378342 -0.057366353 0.08794754
000150 aa 40 0a bc 90 5f cc 3d 44 e3 74 bd 75 2a 11 be
       -0.008438269 0.099791646 -0.05978705 -0.14176352
000160 be 14 23 3e 1d 63 ca 3d 4e 1c 44 bd ee bb e2 bd
       0.15925881 0.098821856 -0.047878556 -0.11071001
000170 8d e6 e9 3d 35 3f 8b 3d cc 25 74 3d 59 67 a1 3c
       0.11420927 0.06799165 0.05960636 0.0197026
000180 7a 9a 16 3d d1 29 bd bd 7e a0 61 be 01 f0 06 be
       0.036768414 -0.092364915 -0.22033879 -0.13177492
000190 71 29 bb 3d bb cc 48 be 27 86 44 be d6 38 ad bd
       0.09138764 -0.19609348 -0.191918 -0.08458106
0001a0 29 52 d0 bd 66 d1 4f 3c a4 91 17 bd 7f 7d 17 be
       -0.10171921 0.012684202 -0.037004128 -0.14793967
0001b0 60 63 a0 3d b4 e0 fc 3c 83 3f 8b be 70 be 76 be
       0.07831454 0.030868866 -0.27196893 -0.24096084
0001c0 08 f3 3e be 51 bc 3d be c4 d2 bb 3d 43 b4 8c be
       -0.18647397 -0.18528868 0.0917106 -0.2748128
0001d0 01 92 7a be e3 3d c2 bd da 54 5d 3d bc 0f 91 3d
       -0.24469759 -0.0948446 0.054036 0.07083079
0001e0 a2 fc 87 bd 6f 23 2a be dc 1d 53 be 1f 83 d6 bb
       -0.06639983 -0.1661508 -0.20616859 -0.0065463926
0001f0 df 83 9e bd 86 13 41 be 31 ae e7 3d 9d ef 57 3d
       -0.07739996 -0.18855104 0.11312521 0.052718747

rnn.bias_hh_l0 f4 [128]
000000 26 36 17 be 10 b4 3c be 1a 16 7b be 54 45 4b be
       -0.1476675 -0.18428063 -0.2452015 -0.19850665
000010 bf c0 01 be e1 41 21 be b7 c8 0a bd bb c4 0b be
       -0.12671183 -0.15747787 -0.033882823 -0.13649265
000020 f0 b9 1a be 99 77 1b be ba 99 3e be fb 10 2f be
       -0.15109992 -0.15182342 -0.1861333 -0.17096321
000030 10 86 60 bd e0 98 cf bd 88 e9 0c be a9 ce 9f bd
       -0.054815352 -0.101365805 -0.1376096 -0.07803089
000040 b1 a1 a0 bc 57 e4 97 be 6e 69 08 bd 9a 12 9b bd
       -0.01960835 -0.29666397 -0.03330367 -0.07571907
000050 96 d3 7e be 98 30 37 be 05 ac db bc 3a 2a 2f bd
       -0.24885401 -0.17889631 -0.026815424 -0.04276488
000060 81 b1 f6 bd 55 1c 42 bc 33 fe bc bd f8 af a8 bb
       -0.12045575 -0.011847575 -0.09228172 -0.0051479302
000070 46 dc ac 3d 44 a4 dd bd be 2c 85 bd 20 f4 df 3d
       0.08440451 -0.10822347 -0.065026745 0.10935235
000080 d6 95 8d be ac 7c c2 bb a0 12 a3 bd 54 6a 33 be
       -0.27653378 -0.005935272 -0.07962537 -0.1752103
000090 af c8 d2 3c 0a 2e 09 be 28 6e 5c bc 81 2d 1f be
       0.025730459 -0.13396469 -0.013453998 -0.15544702
0000a0 b3 0c f5 bd 23 8c 82 be 79 36 fd bd 87 b4 0b be
       -0.11965313 -0.2549754 -0.123639055 -0.13643084
0000b0 4c 40 a4 3d d5 ae 4b be 76 20 8c be 59 a3 8a be
       0.08020076 -0.19890912 -0.27368516 -0.2707775
0000c0 e2 16 39 be 68 5c 56 be 60 14 fb bd 32 e6 29 be
       -0.18075135 -0.20933688 -0.122597456 -0.16591719
0000d0 50 ea 4d 3a fb 68 56 3d 8c ab 16 bd d7 fe c3 ba
       0.00078550447 0.05234621 -0.036784694 -0.0014953268
0000e0 72 8d 3e be 35 48 71 bc 45 cc 41 be 3e 1b 75 3c
       -0.18608645 -0.014726688 -0.18925579 0.014960108
0000f0 90 1b 01 be 34 a2 97 bd 9f b4 a2 3d c4 60 dd bd
       -0.1260817 -0.07403985 0.07944607 -0.10809472
000100 1c 09 b6 3b 81 01 29 bd 21 c1 b6 3d ed 06 39 bc
       0.005555285 -0.0412612 0.08923555 -0.011293155
000110 fc 55 9b 3d dc 67 8d 3d f5 36 b4 3d 69 ca b4 bd
       0.075847596 0.06904575 0.08799545 -0.08827669
000120 bc 2a 3b 3b 60 93 d5 3d 47 ca a8 3c ad 7c cb bd
       0.0028559407 0.104285 0.020604266 -0.099358894
000130 53 ac 4e 3e 01 eb 12 3d e3 fb d8 3d a0 a5 00 3d
       0.20182924 0.03586865 0.105949186 0.031407952
000140 56 72 0b be b8 c2 1d bd f8 ce 5d bd e7 66 99 bd
       -0.13617834 -0.038515776 -0.05415246 -0.0749033
000150 27 eb db bc a0 4d 7b 3d d5 a0 16 bc b8 1d ce bd
       -0.026845528 0.061353326 -0.009193619 -0.10064262
000160 74 40 20 be 69 bd fc 3c c4 2d 85 3d 7c 97 f6 3d
       -0.15649587 0.030852037 0.0650287 0.12040612
000170 e2 25 79 bd 1d e8 4d bd 86 de 31 3e 6b 91 16 be
       -0.060827143 -0.05027019 0.17370042 -0.1470391
000180 30 4b f8 bd dd c5 ee bd af 4d 78 be 0d c2 3a be
       -0.12123716 -0.11658833 -0.24248384 -0.18238087
000190 f2 c1 93 bd c1 31 6f bd ed e9 50 be 07 6b de bc
       -0.072147265 -0.05839706 -0.20401736 -0.027150644
0001a0 f9 eb 90 bb 6a f9 f6 bc 6f 9e af 3d 60 00 22 ba
       -0.0044226614 -0.030148227 0.08575141 -0.00061798654
0001b0 02 a8 3b be 45 9e 9f 3c a2 b9 52 be 07 da 2f be
       -0.18325809 0.019484648 -0.20578626 -0.17173015
0001c0 05 47 d9 bd 92 10 3e be b5 e2 22 be 9b 8f 08 bd
       -0.10609249 -0.18561009 -0.15906794 -0.033340078
0001d0 9a 94 04 bc 97 b6 c0 bd 51 29 3c 3d f1 97 d2 bd
       -0.00809207 -0.09409826 0.04593784 -0.10282887
0001e0 e9 72 ec bd 0d 8e 47 be 8e cb 73 be 58 0b 3d 3d
       -0.11545355 -0.19487782 -0.23808119 0.046153396
0001f0 58 35 3b be a1 e8 4e be 07 c2 b7 3d 27 cb 4b 3e
       -0.18282068 -0.20205928 0.08972555 0.19901715

gcn.lin_n.weight f4 [32, 32]
000000 92 31 f2 bd 74 d5 0e be b1 a1 66 3d 8f bf d3 3c
       -0.11825861 -0.13948613 0.056306545 0.025848178
000010 67 08 d4 3d ee 6d 03 bc 19 54 78 3d 09 1e b9 3d
       0.10353165 -0.008021815 0.060627077 0.09038932
000020 8f 56 8a 3d 73 2f c9 3d da 5c 48 bc 1b 64 88 bc
       0.06754791 0.09823503 -0.012229169 -0.016649297
000030 73 18 9c bd 6a 2b 72 bd ac fc 07 3d b8 e2 30 bd
       -0.07621851 -0.059123434 0.03319995 -0.043184966
000040 97 aa c2 bd 13 4a 98 3b 3a 19 90 3d 8b b8 80 3d
       -0.09505194 0.004647502 0.070360616 0.06285199
000050 9c fa b8 bd 7f 1e a4 3d 39 27 0d be 0c 71 39 3e
       -0.09032175 0.08013629 -0.13784494 0.1810953
000060 b6 21 9f bd 9b fd c9 bc 53 50 f1 3d df c8 d3 bc
       -0.07770102 -0.024657061 0.11782899 -0.025852619
000070 20 1b 45 3d b8 42 60 3c fc 3a 89 3d d9 f1 00 3e
       0.04812157 0.013687782 0.067007035 0.12592258
000080 0f 6b 23 3d 1a 78 0f bc 74 a1 a5 3d 1b 0a 38 bc
       0.03989702 -0.008756662 0.08087435 -0.011232878
000090 19 15 38 3c 53 c9 5a bd 4f 40 9c bc a3 22 e8 bd
       0.011235499 -0.053414654 -0.019073633 -0.113347314
0000a0 6a c0 a3 bc 76 ba 22 3e dd 68 31 3e 4f 22 e8 3d
       -0.019989211 0.15891442 0.17325158 0.11334669
0000b0 d9 af 88 3d f9 3d ef 3b e3 2b 56 3e ed a8 18 3d
       0.06674165 0.007301089 0.20915179 0.037270475
0000c0 d0 8c b5 bd 28 be a8 bc 2b cc ac ba f8 22 8e bc
       -0.088647485 -0.020598486 -0.0013183405 -0.017350659
0000d0 3e 9a 29 bb 04 75 44 bd 70 cb a4 3d a8 3b 16 3e
       -0.002587929 -0.047963157 0.08046615 0.14671195
0000e0 80 45 f4 3d 12 95 81 3d eb 05 12 be 88 27 a2 3d
       0.119273186 0.06327261 -0.1426007 0.07917696
0000f0 ea e8 40 3d c3 af 9e 3c 42 75 06 3e f0 2c 55 3d
       0.047097124 0.01937092 0.13130668 0.05204481
000100 f3 4e a3 bc ed 4a ca 3d 96 8c b8 3d 8a cd ac 3d
       -0.019935107 0.09877572 0.0901119 0.08437641
000110 b0 70 45 3d 10 43 51 3e 55 5b 02 be a8 2d 89 bc
       0.04820317 0.20435739 -0.12730153 -0.016745403
000120 f4 33 c0 3c f6 dc d0 bc 30 0f 8d 3d c7 a7 61 bd
       0.023462273 -0.025495987 0.068876624 -0.055091646
000130 07 40 f2 3c a8 65 9b bd b8 a6 4f 3e 84 45 6b 3e
       0.029571546 -0.07587749 0.20278442 0.22975737
000140 ea 79 eb bd 81 8e 34 bd b8 4c 94 bd fd 2b 9c bd
       -0.11497863 -0.044081215 -0.072411954 -0.076255776
000150 72 6b aa bc 66 b4 3d 3e d2 59 db bd 27 ef a8 bd
       -0.020803187 0.18525848 -0.10710491 -0.0824874
000160 ea bb 57 3a 4d d1 38 bd 4b d8 a6 3d 38 96 ae bc
       0.00082296005 -0.04512148 0.08146723 -0.021311864
000170 31 e5 1d 3e 72 79 84 3d 30 8a a4 3d 0f ec 1b be
       0.15419461 0.06468476 0.0803417 -0.15226768
000180 98 54 92 bd 50 6c 38 be 90 c4 b0 3c 70 e4 00 be
       -0.07145041 -0.18010068 0.021578103 -0.12587142
000190 54 1a 09 be 90 66 63 bd 9f 84 4c 3d 1e d8 61 3c
       -0.1338895 -0.055517733 0.049931165 0.0137844365
0001a0 eb d8 2c bd 48 df c6 3c 66 98 90 bd ba f9 70 bc
       -0.042199057 0.02427639 -0.07060318 -0.014707977
0001b0 2f aa 9f bd 11 2a 9b bd 1a 6c fa 3c 79 15 5a bd
       -0.07796132 -0.07576383 0.030569125 -0.053243134
0001c0 18 93 02 3e f2 a2 f6 3c 88 00 12 be 7e 8d ed 3d
       0.12751424 0.030106995 -0.14258015 0.11599253
0001d0 c5 79 52 3d bb 2e 21 3e a9 29 35 bc 96 60 4a bd
       0.05138566 0.15740483 -0.011057296 -0.049408518
0001e0 fc d9 dc 3d a1 46 f1 3d 6e 2f 6b bd 72 93 04 be
       0.10783765 0.117810495 -0.05741828 -0.12946871
0001f0 f7 e3 22 bd 81 d7 02 be 73 6e 2d bd 58 c5 d1 bd
       -0.039768185 -0.1277752 -0.04234166 -0.102427185
000200 27 72 ac bd 45 4d fd 3d 16 e1 a1 be ad 96 29 3d
       -0.0842021 0.123682536 -0.3161704 0.04140346
000210 50 59 28 be 9b 7e 31 be cd 56 a8 3d 0c 99 0e 3d
       -0.1644032 -0.17333452 0.08219681 0.034813926
000220 fc 5d 45 3c fa f5 8f bd 48 57 2a bd b7 b5 a7 3d
       0.012046333 -0.07029338 -0.041587144 0.08188956
000230 ea b6 07 be 14 09 55 3d 8e 47 23 3b 89 32 9a 3d
       -0.1325337 0.05201061 0.0024914476 0.0752917
000240 f1 cc 57 3d cf 4f df 3b 86 af 49 bc a8 6b 7a 3c
       0.05268568 0.006814934 -0.012309914 0.015284456
000250 6a 4f ef 3d b2 02 87 bd 67 ea 04 3e 4c 1e 06 bd
       0.11685069 -0.06592311 0.12980042 -0.032743737
000260 3d 2b 69 3e ec 23 84 bc 40 37 11 3e fe 4d 84 bd
       0.227704 -0.01613041 0.14181232 -0.06460188
000270 5d 6d dc 3c 40 da f8 3b 77 a6 a4 bc a5 b1 58 3d
       0.026907617 0.007594377 -0.020098908 0.05290379
000280 fb 8a 91 3d ff d8 58 3e 50 69 86 3b 34 39 38 bd
       0.071065865 0.21176527 0.0041019097 -0.04497643
000290 9f 3d 0a bd 54 bd f8 bd 4e 0e 44 3e 2e 5f bc bd
       -0.033750173 -0.121454865 0.19146082 -0.091978416
0002a0 8e dd 7b 3e c4 11 3d 3d 73 6f 8f 3d 31 bb e7 3c
       0.24596235 0.04615952 0.07003679 0.028287502
0002b0 30 2f ff bc 07 5d 52 3a 56 d1 e2 bd 2c 44 39 3d
       -0.03115043 0.00080247264 -0.11075084 0.04523103
0002c0 3a f0 0c 3e 74 3f b9 bd 39 90 4d 3e 8c 01 45 be
       0.13763514 -0.09045306 0.20074548 -0.19238871
0002d0 c6 5a 06 3e df 6d 54 be 92 e6 1c bd a1 89 a7 bd
       0.13120565 -0.20745037 -0.038305826 -0.081805475
0002e0 19 1d 36 bd 6b 79 6e be ad ab e2 bc 98 56 3f bd
       -0.044461343 -0.23288505 -0.027669752 -0.04671344
0002f0 31 54 34 be 7b a5 b6 bc 11 50 9e bd 98 23 f5 3d
       -0.17610241 -0.022295704 -0.07730115 0.119696796
000300 47 c6 3b 3c 2f 6c 8e 3d 1a f4 13 3d b5 62 64 bb
       0.011460847 0.06954228 0.036121465 -0.0034848873
000310 43 24 d3 3c 9e 0b 18 bb 29 e3 5f bd ea 7a 1e 3d
       0.025774127 -0.0023200284 -0.054659996 0.03869144
000320 10 0b 8e 3c 7b ac a5 3d 50 16 c6 3d 40 7e 1f bd
       0.01733926 0.08089539 0.096722245 -0.03893876
000330 ea e5 69 bd 55 58 5c bd 04 78 27 3c e4 f3 4c bb
       -0.05710403 -0.053795177 0.010221485 -0.00312733
000340 c9 7b a9 3d 91 26 a4 3c 14 6c ce 3c 57 f0 8d 39
       0.08275563 0.020037921 0.02519802 0.00027072683
000350 f0 7e 7d 3d 53 a5 7a bc 69 d0 4a bd b7 24 1a 3e
       0.061888635 -0.015298205 -0.04951516 0.15053068
000360 d7 83 09 3d 60 51 20 bd 38 f8 f8 3b 2b af 70 bc
       0.033572998 -0.039140105 0.0075979494 -0.014690201
000370 b1 92 39 bc 79 75 a9 39 82 35 dd bd 6e de 23 3e
       -0.011326478 0.00032321716 -0.108012214 0.16002819
000380 aa 4b 2a b6 12 80 4c 3a 48 28 8c ba e5 6a 00 b5
       -2.5376016e-06 0.00078010664 -0.0010693157 -4.783927e-07
000390 b8 48 ff 39 b8 f5 53 b9 bc 19 7e ba e3 2c 71 36
       0.0004869157 -0.00020214065 -0.0009693166 3.5937926e-06
0003a0 ab b4 c7 b3 ee d3 3d 3b 87 ef 97 bb da 8a 60 3a
       -9.299523e-08 0.0028965431 -0.004636708 0.00085656124
0003b0 51 a1 df b9 65 b9 80 b9 3b c1 8a af a4 9a 84 b1
       -0.00042654065 -0.00024552192 -2.5239352e-10 -3.8592862e-09
0003c0 1d 9f 08 bb e2 1f eb b4 81 c7 17 38 3c f4 91 bb
       -0.0020846792 -4.379536e-07 3.6187008e-05 -0.004454164
0003d0 01 6e e1 3a db 02 b6 ba 43 e3 29 ba 43 0a 4b 3b
       0.0017198921 -0.0013886349 -0.0006480703 0.0030981458
0003e0 af b8 97 39 2e 1a 96 34 0b 90 9e b7 78 06 97 b6
       0.00028938564 2.7958725e-07 -1.8902143e-05 -4.5009037e-06
0003f0 9c e9 76 b4 37 03 9e b4 3a 2c 27 bb e3 05 82 bb
       -2.2995522e-07 -2.9432132e-07 -0.0025508539 -0.003967987

gcn.lin_n.bias f4 [32]
000000 55 38 f5 bc 86 4c 44 bd 78 d3 49 3d 6e ea c3 bd
       -0.029934088 -0.04792454 0.049273938 -0.09566198
000010 8c ad 94 bd 0b c1 b0 3b 6c 37 3f bd 6c 91 2e bd
       -0.07259664 0.0053941063 -0.046683714 -0.042619154
000020 a0 8c fd 3c e9 fa 78 bc 6a 4d 0d be a7 d7 aa 3d
       0.030950844 -0.01519654 -0.13799062 0.08341914
000030 91 14 16 3e a5 2f a2 bc df 42 47 bd 61 fd 83 bd
       0.14656283 -0.01979811 -0.048647758 -0.064448126
000040 eb 6c e0 3d ff 63 71 3c 2c 98 d3 3b 1c 03 a0 3d
       0.109582745 0.014733314 0.0064573493 0.07813093
000050 e0 8e 16 bd cb b3 b5 bd 43 75 20 3d ba 02 0f 3e
       -0.03675735 -0.088721834 0.03917433 0.13965884
000060 38 81 ba af 84 f8 5e 3d 77 c1 c7 bc 75 e3 1f bd
       -3.3925018e-10 0.05443622 -0.024384243 -0.03903528
000070 22 ec 29 bd eb a4 ef 3d 77 8c 83 bd ee d9 e7 bd
       -0.04148496 0.117013775 -0.06423276 -0.11320864

gcn.lin_r.weight f4 [32, 32]
000000 0b 4e 7e 3c de 79 06 3d b3 fc f8 bd 16 99 68 bd
       0.015521537 0.032831065 -0.121575736 -0.05678662
000010 41 8c 96 3d 68 ab 15 bd 7b 3f d3 3c 64 48 ac bd
       0.0735097 -0.03654042 0.025787106 -0.08412245
000020 57 84 a5 bd 25 d3 6b 3d c6 fd c5 3d a8 0e 93 bd
       -0.080818824 0.05757441 0.09667544 -0.0718053
000030 6c e6 7f 3d 81 83 0b be a6 f0 9f 3d 35 eb 9d 3c
       0.062475607 -0.13624384 0.07809572 0.019277195
000040 5b 48 ce bd 32 f7 64 3d 18 c4 99 bb 52 c1 0d 3e
       -0.100723945 0.055899806 -0.0046925656 0.13843277
000050 a3 cc 80 bc 34 7c 30 be d1 af 87 bd 0d 6e 3b 3e
       -0.015722578 -0.1723488 -0.06625331 0.183037
000060 c5 1e f3 3d c5 65 8f 3c 7a 0c ad bd 91 62 95 3d
       0.11871103 0.017504582 -0.08449645 0.07294191
000070 75 d9 f0 3d d5 9e 2f bb f3 ee a8 bd c6 be ec bd
       0.11760227 -0.0026797552 -0.08248701 -0.11559825
000080 57 f4 ac 3d c1 7c 35 be b6 27 de 3d cc 48 5f bd
       0.084450416 -0.17723371 0.10847418 -0.054512784
000090 ba 9d 23 3e 7a d6 9c 3d 1f 8b 45 bd 27 b6 b0 bd
       0.15978137 0.07658096 -0.04822838 -0.08628493
0000a0 1e 84 86 bd b7 b5 14 bc ab 80 1e 3e 47 a3 02 bd
       -0.06568168 -0.009076527 0.1547877 -0.031893995
0000b0 84 6c df 3d 36 bd ed 3d 63 c6 5b 3d 36 8c db bc
       0.109093696 0.11608355 0.053655993 -0.026800256
0000c0 15 df 40 bc 06 0b b1 bd 89 31 37 be de c5 1d bd
       -0.011771937 -0.08644681 -0.1788999 -0.03851878
0000d0 53 b4 bd bc 39 f0 cb 3d e4 57 9e 3d dd 50 e7 bc
       -0.023157274 0.09957928 0.077316076 -0.0282368
0000e0 c9 84 4b 3c 5e 25 ca 3c 08 02 33 be e6 05 15 3e
       0.012421795 0.024676021 -0.17481244 0.14553031
0000f0 47 b3 47 3c d3 36 cc bd a9 7a c1 3a 2a a4 30 bc
       0.012188739 -0.099713944 0.0014761287 -0.010781327
000100 99 b4 52 bd 6a 44 af bd f6 2b 78 bd 45 93 18 be
       -0.051441763 -0.08557971 -0.0605888 -0.14899929
000110 77 6d 90 3d bb ad 00 3e ea c2 ac 3d 67 a4 8c 3d
       0.07052129 0.12566273 0.084356144 0.06867295
000120 64 42 02 3d 22 90 43 3e 40 95 98 3d b2 18 1e be
       0.031801596 0.19097951 0.07450342 -0.15439108
000130 74 55 ba 3c ac 36 5c bd d4 d6 16 bd 25 24 42 3c
       0.022745825 -0.053763077 -0.03682597 0.011849438
000140 eb 71 d7 3d 12 1a 0b bd a7 68 76 bc 5a 41 b2 bc
       0.10519775 -0.03396041 -0.0150395995 -0.021759678
000150 18 9a 6c bc 7e 26 57 3d 51 91 2f be bf 02 85 3d
       -0.014441036 0.052526943 -0.17145278 0.064946644
000160 eb 0f 6c 3d 5f a9 1d 3b 84 55 13 be d5 cb 26 3d
       0.057632368 0.0024057252 -0.1438809 0.040721733
000170 89 99 d9 3d f6 7b cc 3d fa 51 40 3e a2 d1 f8 bd
       0.10624988 0.09984581 0.18781272 -0.12149359
000180 a2 cc c4 3d 26 14 e1 bd 1a 36 41 bd bb 8f a6 3d
       0.09609343 -0.10990171 -0.047170736 0.08132883
000190 f0 17 d0 3d 09 2d ee 3c c3 6a ad 3d ff 12 c8 3d
       0.10160816 0.029074209 0.08467629 0.09769248
0001a0 56 af d5 3c d6 a1 57 3d 33 17 16 3e ac 59 a8 bd
       0.026084583 0.052644573 0.14657287 -0.082202286
0001b0 72 78 b1 3d 4c 86 b2 3d a2 eb b9 3c bd 5a 5b 3d
       0.08665551 0.08717021 0.022695366 0.05355333
0001c0 a6 37 7e bd 46 c1 9c 3d e7 32 e7 3d ce cd b2 bb
       -0.06206479 0.076540515 0.11289006 -0.0054566627
0001d0 66 27 bb bd 58 bd c3 3d 0a 74 f3 3b 2b a1 c2 bd
       -0.09138374 0.09557599 0.0074296044 -0.095033966
0001e0 30 b7 13 3e ce 00 81 bc 8c 9e 78 bd d0 88 19 bd
       0.14425349 -0.015747454 -0.060698077 -0.03748399
0001f0 d0 0c c7 3b f3 a7 94 bd 31 5e 01 3e 38 30 95 bd
       0.0060745254 -0.07258596 0.12633587 -0.072845876
000200 ae 99 b6 bd 5f 67 9e 3e 14 7c 9f bd 02 68 a1 3e
       -0.08916031 0.3093824 -0.07787338 0.31524664
000210 0e 44 00 3d fb 32 e0 3b 9b 1f e7 bd 60 74 39 bd
       0.031314902 0.006842015 -0.11285325 -0.045277
000220 7e 93 2d 3e 21 77 89 3b 58 8a 53 3d c5 0c 7a 3e
       0.16950795 0.0041951095 0.051645607 0.24418934
000230 ac 35 0f bf a0 4d f3 bd a7 b6 94 3d 3c 3a e8 3d
       -0.5594127 -0.1188004 0.07261401 0.11339232
000240 99 6c 05 3f 2a 0f 46 be e8 44 0c 3e 33 fc 13 be
       0.5211883 -0.19341722 0.1369816 -0.14451675
000250 e3 61 37 bd 0c b7 25 3b ba c9 b5 bd 69 d2 a0 3d
       -0.044771086 0.0025286106 -0.08876367 0.078526326
000260 ee e5 a4 3e c3 76 30 be 8d 3a 03 3e 0a 7a 8f bd
       0.32206672 -0.17232804 0.12815304 -0.07005699
000270 06 56 91 bc 9a 91 8c 3c 6f 22 65 3c fb ed a1 bd
       -0.017741214 0.017159272 0.01398526 -0.07906719
000280 ac e2 0b 3e c2 eb 14 bd 83 ab 1a bd bc a3 49 bd
       0.13660687 -0.03635765 -0.037761223 -0.049228415
000290 b1 2c 99 3c a5 8c 13 3e f9 58 c6 bc dc 47 4b 3e
       0.018698068 0.1440912 -0.024212347 0.19851631
0002a0 bb 30 b8 bc 47 3d 8e 3b 1e 15 2d be d9 bd f2 3c
       -0.022484174 0.004340801 -0.16902587 0.029631542
0002b0 c9 66 1f 3d 88 81 ad 3b 01 53 15 3d 90 9a 52 be
       0.038916383 0.0052949823 0.03645611 -0.20566773
0002c0 4c 9e ea 3d 09 fa d8 bc b0 2f 64 3e c9 7a 5b be
       0.11455974 -0.026486414 0.22283816 -0.21433558
0002d0 61 e3 28 be 4e 38 ff bc 7c fd 50 3d d2 c9 a0 bd
       -0.16492988 -0.031154778 0.05102299 -0.07850994
0002e0 46 b9 91 bd e1 f6 82 bd a9 9b 42 bd 00 3c a9 bc
       -0.07115416 -0.06394745 -0.04751173 -0.020658493
0002f0 a6 d4 23 3e 68 f2 5d 3d 35 85 13 be 63 91 a3 bd
       0.15999088 0.054186255 -0.14406283 -0.07986715
000300 84 3d e4 bc 3f af 22 bd 8f bf 18 bd f5 5b 33 3c
       -0.027861364 -0.03971791 -0.03729206 0.010947217
000310 0e 73 32 3d cf 91 c9 3b 4c f3 f8 3b 4e eb bf 3b
       0.043566756 0.006151415 0.0075973626 0.005856908
000320 3b 35 99 3c cd b0 ad bc 23 5c 56 bd 86 6a c2 3d
       0.01870214 -0.02120247 -0.052333962 0.09492974
000330 76 b5 cc bd 5c cf a9 3b f6 a5 04 3c 59 c3 a7 ba
       -0.099955484 0.00518219 0.008096209 -0.0012799307
000340 69 53 42 3d 5e 45 a9 bc d9 97 44 3d c3 ad 50 3b
       0.047442827 -0.02066296 0.047996376 0.0031841851
000350 02 f3 b8 3c b8 a9 60 bd 76 bf 96 3d 41 87 69 3c
       0.022576813 -0.054849356 0.07360737 0.014253438
000360 e0 ec 9e 3d 65 17 59 bb 1c 83 05 3d 00 5c 87 bc
       0.07760024 -0.0033125516 0.03259574 -0.016523361
000370 3a a8 8e bc c7 aa 0e bb 56 b1 f7 bc fb 7f 67 3d
       -0.017414201 -0.0021769272 -0.030235928 0.056518536
000380 e3 ab e5 b0 36 7b cd bb 6a df a8 34 38 31 ec b6
       -1.6710796e-09 -0.0062707914 3.1454994e-07 -7.039078e-06
000390 d8 a3 13 b9 90 44 89 32 91 fa 1b ba 39 b0 7d 36
       -0.00014080049 1.5980078e-08 -0.0005950118 3.7802513e-06
0003a0 b4 9b ae 13 c0 8c 41 3c 5a f3 bf 3a 4d 2f 4a 39
       4.407731e-27 0.011813343 0.0014644668 0.00019281842
0003b0 88 ba 51 ba de 66 65 3a 6e 30 9c a7 d6 cd 40 b3
       -0.00080005126 0.0008750985 -4.3351206e-15 -4.489069e-08
0003c0 08 58 18 bb 1c f4 e3 33 c6 92 60 38 bc 5f 38 b5
       -0.002324583 1.06149145e-07 5.3542455e-05 -6.8684653e-07
0003d0 fe 67 cf 3a 14 fb 89 ba 71 71 ce 3a 46 47 56 3b
       0.0015823839 -0.0010527098 0.0015750361 0.003269629
0003e0 9e 8a f2 b9 72 63 a9 2e 89 d6 8a b7 b9 16 44 b7
       -0.00046261115 7.702895e-11 -1.6550783e-05 -1.1687801e-05
0003f0 ab fc 22 b0 da a5 06 16 d9 66 ce 39 90 65 00 bb
       -5.929432e-10 1.0876767e-25 0.0003936801 -0.0019591786

gcn.lin_2.weight f4 [32, 32]
000000 ff 3d 8e bc e8 b5 a7 3d 5a 6c 52 3e 2c f8 ff bd
       -0.017363546 0.08188993 0.20549145 -0.12498507
000010 fc d0 c7 3d c9 c2 d0 bc 3f 29 66 bd de ab f0 33
       0.097566575 -0.025483506 -0.05619168 1.1207133e-07
000020 09 bb 1e 3e dd 19 70 bd e9 9c 3b 3d f2 70 99 3e
       0.15501036 -0.058618415 0.045803938 0.29968983
000030 ca 6c bf 3e 70 16 c5 3d 58 eb 55 bc 0f 52 2b 3e
       0.37387687 0.0962342 -0.013056599 0.16730522
000040 3b e7 aa 3e eb 6c 7f bd e9 53 f1 bd 43 f7 3f bd
       0.3337954 -0.06235973 -0.11783583 -0.046866667
000050 22 07 28 bc 6e e2 91 3d dc da 37 bd ed a0 13 3e
       -0.010255607 0.07123266 -0.044886455 0.14416857
000060 33 9c 12 11 3d 8e bf 3d e5 74 f0 33 c5 bc 15 be
       1.1565502e-28 0.09353302 1.1197134e-07 -0.14622791
000070 a7 19 3d 3e 7e b0 65 3c 0e 13 0a 3d e6 f5 f3 bc
       0.18466817 0.01401913 0.03370958 -0.02978034
000080 4a d6 b4 3d 83 e4 8d 3d cc 86 fa 3d de 1f b3 3d
       0.08829935 0.06928351 0.12232742 0.087463126
000090 91 6a 08 be 18 be fd 3d 43 ff 6a 3b 5b c6 c6 b1
       -0.13321902 0.12389773 0.0035857714 -5.785109e-09
0000a0 0c 32 5d 3c b0 12 dd 3d 67 3c 6e bd 39 5f a1 3d
       0.013500702 0.1079458 -0.058163073 0.078794904
0000b0 4f 4d 97 3e f0 ac a8 bd 3b fe 6a bc 24 94 38 be
       0.2955117 -0.0823611 -0.01434284 -0.18025261
0000c0 38 50 85 3e 45 4f b8 bb 8a fe 90 3d bd f6 10 be
       0.26037765 -0.005624684 0.070797995 -0.14156623
0000d0 73 60 a3 bd 16 ed f4 bc 13 b7 88 3d c4 9b b6 3d
       -0.079773806 -0.029898208 0.06675544 0.08916429
0000e0 c7 53 94 0e d6 36 2b bc a2 46 20 90 9c e1 56 be
       3.656549e-30 -0.010450086 -3.160885e-29 -0.209845
0000f0 12 ad 42 3d 87 26 6c 3e 6a 27 97 bd c0 5c 10 3d
       0.047528334 0.23061572 -0.073805645 0.035244703
000100 7a cc 9c 3c 95 ce 03 3e b7 90 ef 3d 4b 7e df 3b
       0.01914047 0.12871774 0.11697524 0.006820475
000110 39 45 c8 3c ce 28 1e 3e 99 b5 75 3d ed b2 60 32
       0.02444707 0.15445253 0.05998764 1.3079199e-08
000120 a7 ba 24 3e 51 93 f4 3d 9d 18 c3 3d 86 52 9b 3e
       0.16086827 0.11942161 0.09526179 0.30336398
000130 c2 bf cd 3d e2 8c fc 3d e2 49 35 bb c9 83 c9 bc
       0.100463405 0.12331559 -0.0027662446 -0.024598973
000140 d7 52 7b 3e 3a ac b5 3d 03 d4 09 3e ec 68 a5 3e
       0.2454332 0.0887074 0.13459782 0.32306612
000150 63 19 ef 3d f6 2e 97 3e 02 46 26 3e c9 7d 10 bd
       0.11674764 0.29528016 0.16237643 -0.035276208
000160 0e a4 5e 10 b7 a9 93 3e 59 77 bb b4 6e b0 a2 bc
       4.3908163e-29 0.2884042 -3.49183e-07 -0.019859519
000170 c1 df 84 bd 77 5e 98 bc 20 d7 f5 3d 41 bf e7 3d
       -0.0648799 -0.018599732 0.120039225 0.11315776
000180 14 36 24 3b 69 ae 86 3d 8a 01 9a bb d6 72 a0 3d
       0.0025056647 0.06576235 -0.0046998905 0.07834403
000190 0c 6a 76 3e 28 4d c0 3c ea 63 85 bc 1d 6e 3c 34
       0.24063891 0.023474291 -0.016282994 1.7548923e-07
0001a0 53 0e 3d 3d a4 72 16 be 1f ed 61 3e 1d f4 f8 bc
       0.04615624 -0.1469217 0.22063111 -0.03038984
0001b0 1d 4c 94 3e bd ef 29 3e fa 20 98 3b f6 24 e8 3e
       0.2896432 0.16595359 0.004642603 0.453407
0001c0 25 47 6c 3e 78 0d 90 bd de 25 cf 3a 0b 36 01 3e
       0.23074014 -0.07033819 0.0015804132 0.12618272
0001d0 7b 7b 93 bd ee 87 51 3e 61 aa 1f 3e 35 80 cb bd
       -0.072012864 0.2046201 0.15592338 -0.09936563
0001e0 31 4b 49 91 22 a8 f8 b9 1e 9d 98 36 b4 99 98 bd
       -1.5879274e-28 -0.00047427515 4.548244e-06 -0.074511915
0001f0 0c f0 69 bd d0 08 bb bc ab d5 c5 bd f9 ae 5e 3e
       -0.057113692 -0.02283135 -0.096598946 0.21746434
000200 f3 27 96 bd 3c 28 f7 39 94 ad 29 3e 7e 36 1f 3d
       -0.073318385 0.00047141488 0.16570121 0.038870327
000210 3f 68 ba 3e fd 9d 13 be 7d 1b 47 3b 93 de 09 32
       0.36407658 -0.14415736 0.0030381375 8.025057e-09
000220 92 c5 1e be 04 79 92 bd cc 46 84 3e 7a 22 0e 3e
       -0.15505055 -0.07151988 0.25835264 0.1388034
000230 f8 bd 9a bd 49 bf 01 be ab 69 07 3d f5 77 db 3e
       -0.07555765 -0.12670626 0.033059757 0.42864957
000240 c1 2a 22 3d 77 15 a0 bd dd 25 b2 bd a1 26 ff 3d
       0.039591555 -0.07816594 -0.08698628 0.1245854
000250 fe 38 92 3d 37 12 3a 3e 19 53 c9 bd 1a 3e a7 bd
       0.07139777 0.18171011 -0.09830303 -0.08166142
000260 bc 77 d7 10 bd 52 a2 bc ae 11 4f 36 f9 23 6c bc
       8.498703e-29 -0.019814843 3.0855695e-06 -0.014412873
000270 04 3d f5 bc 77 36 42 bd f7 ce 11 3e bc 2c e3 3d
       -0.029936321 -0.047415223 0.14239107 0.11092517
000280 59 a2 ed 3d ee 6a 5b 3d 3f 01 7a 3d ef 60 33 3d
       0.11603231 0.053568773 0.061036345 0.043793615
000290 ee 94 47 3d cb a9 d6 3d ed 61 1d 3b fa 41 ff 35
       0.048726015 0.10481604 0.0024014667 1.9018182e-06
0002a0 bb fb b6 bc a1 35 10 be 15 f8 15 3d c2 b5 e4 3d
       -0.022336831 -0.14082958 0.036613543 0.1116748
0002b0 67 d2 3f 3d 7e 58 05 bb 73 ab a9 bc 48 06 dc 3d
       0.046831515 -0.0020346935 -0.020711636 0.107433856
0002c0 dc 68 0e 3e 4c f5 16 be cd c7 cc 3c 29 bb 6a 3d
       0.13907188 -0.14742011 0.024997616 0.057307396
0002d0 ba 77 c1 3d 44 04 84 bb 61 a2 53 3e 1e 2e 91 bd
       0.09446664 -0.004028829 0.20667411 -0.07088874
0002e0 98 17 11 18 fb 87 d0 3d e5 b0 d8 3b ce 8a a8 bd
       1.8752723e-24 0.10182186 0.0066128843 -0.082296
0002f0 3c 14 cd bc ad 1c 6e 3d ec 44 8e 3d ac 0a 18 bb
       -0.025034063 0.058132816 0.069467396 -0.002319972
000300 50 95 34 3c e1 03 1b bd 20 a1 de bd 80 02 4c bd
       0.011021927 -0.037845496 -0.10870576 -0.04980707
000310 9f 6d 9e bd af d6 05 3e d9 f6 25 bd 01 c8 bd 38
       -0.07735752 0.13070177 -0.040518615 9.049476e-05
000320 62 b8 4c be 70 20 a1 3d 8c d8 27 be b0 e4 bd bd
       -0.19992211 0.07867515 -0.163912 -0.09272134
000330 4d 9a b7 bd b6 a5 1f 3d 68 67 39 3b 63 ec be bd
       -0.089649774 0.038976394 0.0028290395 -0.09322431
000340 8a d3 20 be a9 59 e0 3c c7 a0 a4 3d 2f 1b 39 be
       -0.15705696 0.027386503 0.08038478 -0.18076776
000350 52 66 a3 bd 74 71 2e 3d 6b 56 16 be 76 06 5d 3d
       -0.079785004 0.042588666 -0.14681403 0.05396124
000360 e8 58 82 1d b2 cf f6 bb 48 eb 11 3c 82 c5 4a bd
       3.450264e-21 -0.0075320834 0.008906193 -0.049504764
000370 20 90 38 3e 21 a4 e6 3d 8b 75 99 bd 19 87 c3 bd
       0.1802373 0.11261774 -0.07493123 -0.09547252
000380 55 33 bc bc 52 f2 f2 3d d9 60 8a 3e 36 85 32 bb
       -0.022973696 0.11862625 0.27027014 -0.0027240044
000390 ab 4c 36 be 33 71 13 3e 66 37 2d bc 65 e7 3e 32
       -0.17802684 0.14398651 -0.01057229 1.1112069e-08
0003a0 db 30 ae 3c 6c c1 2a 3d a3 99 2d 3d b2 46 7c 3e
       0.02126353 0.041688368 0.042382848 0.24636343
0003b0 94 6c 85 3e 61 50 0c be 76 44 c2 ba f2 1a 8c be
       0.260594 -0.13702537 -0.0014821428 -0.27364308
0003c0 97 01 9a 3e 30 ad 3d bd d1 58 ea bc 9a 4a a5 3c
       0.30079338 -0.046307743 -0.028606804 0.020177174
0003d0 b3 51 2e be 4b 9f ae bd 51 a6 18 3d 92 13 a2 bd
       -0.17023353 -0.085264765 0.037267987 -0.07913889
0003e0 90 52 04 91 30 36 8a 3d 55 56 4d af b6 69 3a be
       -1.0438405e-28 0.06748617 -1.8675313e-10 -0.18204388
0003f0 0f 10 06 be e9 bf 88 bd b1 e1 f9 bc 50 c8 3c bd
       -0.13092063 -0.06677229 -0.030503126 -0.04608947

gcn.lin_2.bias f4 [32]
000000 75 ac e5 bd 26 fd ac bd 3c 5c f0 bd 1e c0 14 bd
       -0.11214534 -0.08446722 -0.11736342 -0.03631603
000010 af 60 94 bd 59 de 04 3e 0e ec 4c bd 09 1c b8 bd
       -0.072450034 0.12975444 -0.050029807 -0.08989722
000020 fc e0 32 bd 1e 32 3a be 76 60 49 3a 12 69 d4 bd
       -0.043671593 -0.1818318 0.00076819153 -0.10371603
000030 92 2f 6b 3d 83 91 15 3e 67 17 ae 3b a6 cd df bd
       0.057418413 0.1460629 0.0053128484 -0.10927896
000040 4a 3d e1 3d 6e 18 11 be 10 f7 e1 bd b1 36 1e be
       0.10998018 -0.14169475 -0.110334516 -0.1545055
000050 c0 7b 67 bd 4d a7 f7 bd 4a b7 08 be bc 83 ea bd
       -0.0565145 -0.12092457 -0.13351169 -0.114509076
000060 a5 44 ef 3c c8 12 4e bb 3a 9e eb bd 41 fe b0 bb
       0.029207537 -0.00314443 -0.11504789 -0.005401403
000070 6d 36 5a bd 2a 06 35 3d 3a f7 3a 3e 91 20 c5 3d
       -0.05327456 0.04419533 0.18258372 0.09625352

nf.base_dist_mean f4 [25, 1]
000000 b9 cc 03 3e 9c da 29 bf d2 d4 ae be a9 27 00 bf
       0.12871064 -0.66349196 -0.34146744 -0.50060517
000010 81 e0 69 3f 81 bf 6a 3e 54 6c 16 be 1c 46 79 3e
       0.9135819 0.22924615 -0.14689761 0.24343151
000020 12 85 91 3e ee 0a 2c 3f 53 a7 8c bf 5f c5 89 3e
       0.28421837 0.6720418 -1.0988563 0.26908395
000030 18 89 97 bf 3d 95 a2 be 04 de bf 3e be 58 01 40
       -1.1838713 -0.31754485 0.37474072 2.0210414
000040 3c 8a be 3e e2 ef c0 3e b5 a7 64 be ad aa 5f bf
       0.3721484 0.37683016 -0.223296 -0.87369806
000050 76 f0 80 bf 32 2d 68 be 19 c6 b0 3f e7 1b d7 3f
       -1.0073383 -0.2267349 1.3810455 1.680539
000060 7a 12 2b bf
       -0.6682507

nf.base_dist_var f4 [25, 1]
000000 00 00 80 3f 00 00 80 3f 00 00 80 3f 00 00 80 3f
       1.0 1.0 1.0 1.0
000010 00 00 80 3f 00 00 80 3f 00 00 80 3f 00 00 80 3f
       1.0 1.0 1.0 1.0
000020 00 00 80 3f 00 00 80 3f 00 00 80 3f 00 00 80 3f
       1.0 1.0 1.0 1.0
000030 00 00 80 3f 00 00 80 3f 00 00 80 3f 00 00 80 3f
       1.0 1.0 1.0 1.0
000040 00 00 80 3f 00 00 80 3f 00 00 80 3f 00 00 80 3f
       1.0 1.0 1.0 1.0
000050 00 00 80 3f 00 00 80 3f 00 00 80 3f 00 00 80 3f
       1.0 1.0 1.0 1.0
000060 00 00 80 3f
       1.0

nf.net.0.net_input.weight f4 [32, 1]
000000 5a a2 aa 3e 0d 0e 89 3e 10 c2 36 bf 8c b2 f5 be
       0.3332699 0.26768532 -0.71389866 -0.47987783
000010 2a e8 95 be f5 98 2e 3f 34 19 a1 3e db 2e 99 bd
       -0.2927869 0.68202144 0.3146454 -0.0747964
000020 b7 b2 c0 be 7e 7b a9 be a0 0d 5d bf ed cc da be
       -0.3763635 -0.3310203 -0.86348915 -0.4273447
000030 02 fc aa be b1 ac a6 be 84 76 ec 3d f6 e4 3d bf
       -0.33395392 -0.32553628 0.115460426 -0.7417749
000040 1d 59 49 be e2 f9 b5 be 1d 83 45 3e f1 eb 4c bd
       -0.196629 -0.35542208 0.19288297 -0.0500297
000050 0a ab 07 3e 17 5e 29 bf 63 f7 4e bf c9 6e 48 3f
       0.1324884 -0.66159195 -0.8084623 0.78294045
000060 43 2c b0 be 40 56 50 be 01 8c 52 bf 06 8b f0 be
       -0.3440877 -0.20345402 -0.8224488 -0.46981066
000070 df a0 ee 3e bb d6 48 3d a9 23 e3 3e 44 7d e1 be
       0.4660711 0.049032908 0.44363144 -0.44040883

nf.net.0.net_input.bias f4 [32]
000000 70 1e 10 bf 44 08 3a 3f 10 80 6a 3d 81 7f 7a 3e
       -0.56296444 0.7266886 0.057251036 0.24462701
000010 e5 a5 2a bf e3 19 2c 3e de c8 67 bf 81 34 59 3f
       -0.66659385 0.1680675 -0.90540874 0.8484574
000020 5c 4c db 3e 0b 8e b3 3e eb f0 33 3f e1 b7 38 3f
       0.42831695 0.35069308 0.70289487 0.72155577
000030 7b ed 75 bf d6 aa 5b be c6 fa 62 bf 63 bd 76 3f
       -0.9606549 -0.21451887 -0.886639 0.9638273
000040 40 d4 f3 3e 05 57 09 bf bd e2 6e 3d c9 87 69 3f
       0.4762287 -0.53648406 0.058321703 0.91222817
000050 cd 62 0f bf 8d 3d 5f 3f 16 04 10 bf bf 8b 58 3f
       -0.56010133 0.87203294 -0.56256235 0.84588236
000060 81 c1 f5 be 1f 09 53 3f bd 33 12 3f a5 7e 65 be
       -0.47999194 0.8243579 0.57110196 -0.22411592
000070 fe 27 0d bf 44 67 95 be 08 4a 52 3f 1d f1 2f 3f
       -0.5513915 -0.29180348 0.8214421 0.68727285
