checkpoint/PSM/model.pth (torch, 71265 bytes, 37 tensors)

rnn.weight_ih_l0 f4 [128, 1]
000000 ff f1 a7 bd 68 06 be bd a7 06 ca 3d ac 4b 5d bd
       -0.08200454 -0.09278566 0.0986455 -0.054027244
000010 4c 8c 0f 3e 3f 13 c2 bd b0 6c f0 ba 91 11 f4 bd
       0.14018363 -0.09476327 -0.0018342938 -0.11917413
000020 22 32 6e 3d 15 e6 00 be 12 f4 53 3d 35 e1 3d bd
       0.05815328 -0.1258777 0.051746435 -0.046357352
000030 67 17 b9 bd 7c 6b f1 3c 74 f4 43 3e cc 37 d8 bd
       -0.09037667 0.029470198 0.1913622 -0.105575174
000040 eb 42 3b bd 7c db b4 bd 79 7f 55 3e d1 36 bb bd
       -0.045718115 -0.08830926 0.20849408 -0.09141315
000050 6d 6c 78 3d 4e a1 14 3c 08 31 52 3d 54 f1 65 3d
       0.060650278 0.009071661 0.05131629 0.05613835
000060 f1 83 94 3c d2 27 20 be 3d b1 d2 bc 79 fc 30 be
       0.01812932 -0.1564019 -0.02571928 -0.1728381
000070 aa dc d8 bc 15 6c 24 be 37 84 f0 3d 34 bc 83 bd
       -0.026472408 -0.16056855 0.11743968 -0.06432381
000080 b1 5f b3 3d dc a6 c2 3d 97 3c 22 3e 70 86 8e bd
       0.08758486 0.09504482 0.15843426 -0.06959236
000090 a5 4a f1 bd 80 8e 6a 3d 6b 71 c7 bd c1 9b 5d be
       -0.117818154 0.057264805 -0.0973843 -0.21641447
0000a0 ad de 8c 3d d5 98 61 3d 93 2c d2 38 77 e6 a9 bc
       0.068784095 0.055077393 0.00010021883 -0.020739777
0000b0 32 07 f8 3c 3b 21 d2 bc 78 84 89 bd a1 68 05 bd
       0.030276868 -0.025650611 -0.067147195 -0.032570485
0000c0 f5 a4 9c bc 55 f8 40 be 82 f6 17 3e 9f 60 4a bd
       -0.019121626 -0.18844731 0.14840129 -0.04940855
0000d0 82 36 77 be 6f 3e da 3b 20 eb c7 bd cc 10 a5 3d
       -0.24141887 0.0066602747 -0.097616434 0.080598444
0000e0 ed 95 0b be 13 a7 b2 3d d1 76 56 3d b5 80 0b bc
       -0.13631411 0.08723273 0.052359406 -0.008514573
0000f0 68 c6 70 bd 65 a6 91 3d 89 5d 27 3b b9 35 0f 3e
       -0.058782965 0.07111815 0.002553793 0.13985337
000100 43 31 c9 3c 98 df 7d bd 84 d5 42 bd 69 46 e1 3c
       0.024559623 -0.061980814 -0.047566906 0.027499394
000110 2a c4 91 3c 79 fe 42 3d 95 cb 2f bd 64 79 82 3d
       0.017793734 0.047605965 -0.04291876 0.0637081
000120 11 d6 b2 bd 74 08 a7 3d ad 94 cd bd 7c b3 0b 3b
       -0.08732236 0.08155909 -0.10038123 0.0021316698
000130 a5 8f 56 3e 48 c8 35 bd e9 ea 3f 3e de cf 94 3d
       0.20953234 -0.044380456 0.18741955 0.0726621
000140 6f 28 03 bd b6 a2 0a 3e 93 aa ae 3d 96 22 82 bb
       -0.032020982 0.13538632 0.08528628 -0.003971408
000150 f4 3d 89 bd 47 1c cd 3b 53 93 14 be 84 58 b7 3d
       -0.0670127 0.0062594744 -0.14509325 0.0895243
000160 bb a6 df 3c ac fa 2e 3c 31 5f b4 3d aa 46 2e bd
       0.027301183 0.010679882 0.08807219 -0.04254786
000170 6f bc 33 3e 59 09 af bd 11 ad a1 3d 3f 9d 0a 3e
       0.1755235 -0.08546705 0.07894338 0.13536547
000180 4f ef ab 3d 78 33 44 3e 96 62 2f be 0b 4f 66 bd
       0.08395254 0.19160259 -0.17127451 -0.056227725
000190 e5 3e 8f bc 4b a4 62 be 25 a3 fe bc e2 a2 22 3d
       -0.017486045 -0.22132985 -0.031083653 0.03970612
0001a0 27 46 00 be 7a e8 03 be 00 60 15 be 00 ff b6 3d
       -0.12526761 -0.12881652 -0.14587402 0.08935356
0001b0 fd 80 d1 3d 7a 59 3c be eb f0 1a bd 70 f1 9c 3b
       0.10229681 -0.18393508 -0.037827414 0.004789524
0001c0 45 e5 22 3d e7 b3 2c 3e 4b 90 ce 3c 1f 0c 4d bc
       0.03976943 0.16865502 0.025215289 -0.012515097
0001d0 b7 62 99 3c ea 88 63 bd 74 11 02 be 55 2b ba 3d
       0.018723829 -0.055550493 -0.1270197 0.09090296
0001e0 29 6e 83 be d1 e7 61 bd c5 48 67 be e8 3f 72 bc
       -0.25669983 -0.055152718 -0.22586353 -0.014785744
0001f0 55 95 18 be 9e 48 23 3e 2e d3 0f 3b 51 31 21 be
       -0.14900716 0.1594567 0.0021945941 -0.15741469

rnn.weight_hh_l0 f4 [128, 32]
000000 f9 44 39 3b 1d a6 0f 3d 0e 48 be 3c 6d 52 bd 3c
       0.002826987 0.035070527 0.023227718 0.023110593
000010 37 3c fc 3c 24 6a 04 3a e4 91 e0 3c 52 ee 20 3b
       0.030790431 0.00050512166 0.027413316 0.0024556112
000020 9f cb 6a 3d cb dd 9e bb 5d ce 63 3c 45 a4 25 3d
       0.057323094 -0.004848217 0.013904181 0.040439863
000030 79 50 c5 bc 3f c2 b4 3c bd 10 1c bd 38 ff 8f bb
       -0.024086224 0.02206528 -0.0381019 -0.004394438
000040 3b 35 f7 3c 28 b1 89 3d 8f b8 be bd a9 fa 46 3c
       0.03017675 0.06723243 -0.093125455 0.012144723
000050 c4 ce 86 3d 2f 9f f8 bc fa 83 f1 3c 6f 46 86 bc
       0.06582406 -0.030349342 0.029481877 -0.016391007
000060 b0 c6 20 bc 7b 8a 29 3b 15 7c a7 bc 83 81 81 3c
       -0.009812996 0.0025869894 -0.02044491 0.015808826
000070 17 21 7c 3d de 13 46 3d 96 cd 49 bd b6 49 9e 3c
       0.061554994 0.04835879 -0.049268328 0.019322257
000080 e7 e5 98 3d 27 b6 69 3d 0f 9d bb bc 83 77 94 3c
       0.074657254 0.05705848 -0.02290204 0.018123394
000090 b4 69 a0 3d cc c5 03 bd 73 33 a0 3d 6e 1c 79 bd
       0.07832661 -0.032171056 0.07822313 -0.06081813
0000a0 6f c0 93 3c de 49 c5 bd 73 07 73 bd 19 67 19 3b
       0.018036095 -0.0963323 -0.059333276 0.0023407398
0000b0 e2 77 07 bd 7d 3a f3 3d c6 aa b4 bd f4 fb 93 bd
       -0.033073314 0.1187639 -0.08821635 -0.072257906
0000c0 9e 5b 96 3c c8 ba 55 bb a0 1d 81 3d 24 19 44 bc
       0.018354233 -0.003261255 0.06304479 -0.011968885
0000d0 26 39 31 3d b4 82 28 bc bb cd 64 bd 64 d4 97 bd
       0.04326739 -0.010285068 -0.055860262 -0.07413557
0000e0 7d c2 2a 3c 49 82 55 bd 78 cb 01 bd 9d e8 17 be
       0.010422346 -0.052126203 -0.031688184 -0.14834829
0000f0 6f 70 36 3d 2e 39 d4 bc 45 76 9b bd 6a 18 9b 3d
       0.04454082 -0.025906172 -0.075909175 0.07573016
000100 15 72 93 3c 02 19 37 bd 05 a4 05 bb fa 55 aa 3c
       0.017998734 -0.044701584 -0.0020391953 0.02079295
000110 ac e3 44 3d 26 ce cf ba 21 c2 c8 3c 54 f8 79 3b
       0.048068687 -0.0015854284 0.02450663 0.00381424
000120 74 37 ad 3d 5e b2 c7 3c d4 97 2e bd 6b 64 a8 bc
       0.084578425 0.024377044 -0.042625263 -0.020555696
000130 34 94 05 bb aa 5d 9e 3d f6 72 52 3d cf f1 cd 3c
       -0.0020382525 0.07732709 0.051379167 0.025139717
000140 de 64 0b bc ac bb c3 bd 13 5e 8f 3d 90 95 31 bc
       -0.008507935 -0.0955728 0.07000365 -0.010838881
000150 94 d0 c6 bc ad ac 97 ba 74 95 85 bc 39 fb 45 3d
       -0.02426938 -0.0011571847 -0.016306616 0.048335288
000160 fa 57 66 bc 19 12 db 3c c1 b2 2e 3a c4 5c b2 bc
       -0.014059061 0.026742028 0.00066642096 -0.02177275
000170 9f b5 25 bd 92 92 6e bb 22 9e 12 bd f3 eb be 3d
       -0.04045641 -0.003640328 -0.03579534 0.093223475
000180 80 e6 62 3a 28 dc 3d bd 50 aa b1 3c a5 f5 e0 3c
       0.0008655563 -0.046352535 0.021687657 0.027460882
000190 49 8f 99 3c 48 87 9a bc 6b 45 f2 3c dc ff 0d ba
       0.018745081 -0.018863335 0.029574117 -0.0005416849
0001a0 9f 49 b1 3d d4 17 08 bd 0e 40 51 3c 2b 49 d6 bb
       0.0865662 -0.03322585 0.0127716195 -0.006539484
0001b0 3c 66 eb bc e6 ed 14 3d 78 53 4d bc 17 c8 a3 bc
       -0.028735273 0.03635969 -0.0125321075 -0.019992871
0001c0 9d 58 c8 3c b2 40 09 be 95 20 81 bd 2f b8 43 3c
       0.024456317 -0.13403586 -0.06305043 0.011945768
0001d0 24 d0 f2 3c a9 87 10 bc c3 6f 43 3b 54 c9 cd 3c
       0.029640265 -0.008821406 0.0029821254 0.025120415
0001e0 76 78 cf 3c 10 22 db ba 5c c3 d1 bc f0 26 a5 bc
       0.025325995 -0.0016718525 -0.02560585 -0.020160168
0001f0 b1 5e d5 bd d6 ee 17 3d bb a2 a8 bd c1 e8 0d bd
       -0.104184516 0.037093006 -0.082341634 -0.0346458
000200 eb 16 5a 3c c4 d4 21 3d ed 6b 1d bd 18 d8 24 3d
       0.013311128 0.03950955 -0.038433004 0.040245146
000210 74 b2 0d 3d 4f ba 94 bd 75 6b e0 3c 75 a7 ba 3d
       0.034594014 -0.07262098 0.02739499 0.09113971
000220 7e 94 ac bd 99 ba 86 3d 6e 17 55 bd 72 08 c1 3d
       -0.0842676 0.065785594 -0.052024297 0.09425439
000230 8e a7 25 3d 27 90 9b bc 12 15 8d 3d 65 71 89 3d
       0.040442996 -0.018989636 0.068887845 0.067110814
000240 63 e1 0b bc 00 51 6e 3d 8e bc 32 bc 21 df 34 bd
       -0.008537623 0.058182716 -0.010909213 -0.044158105
000250 64 70 51 bd 17 35 89 bd d0 9f b2 bd 33 1f 7e bc
       -0.051132575 -0.06699579 -0.08721888 -0.015510368
000260 d3 10 83 3c 33 59 7c bd 7a c7 99 3d 3a 59 7b 3c
       0.015999233 -0.061608505 0.0750875 0.0153410975
000270 ad 22 dc 3d 33 d9 28 3c 04 ad f1 3d c1 87 83 3c
       0.107488014 0.010305691 0.11800578 0.016055943
000280 1c bd 10 3d f7 6e 17 3b 95 d8 f2 3c a4 7f c9 3c
       0.0353366 0.0023106912 0.02964429 0.024596997
000290 88 ea a4 3d 97 3c ae 3c ec 5c 93 3d 0b 1f 17 bc
       0.08052546 0.021269126 0.07195458 -0.00922371
0002a0 48 15 5b 3d 69 db 65 bd 21 50 38 bd bc 73 52 bd
       0.053487092 -0.05611745 -0.044998292 -0.051379904
0002b0 54 54 04 be 7b a3 93 3c a8 99 c3 3c c3 ee 16 3c
       -0.12922794 0.01802229 0.02387698 0.009212199
0002c0 ba a0 ec 3c 92 6d b5 3c b7 d9 a1 bd 84 27 05 3d
       0.028885234 0.022146974 -0.07902854 0.03250839
0002d0 d6 b6 ae bb 1f aa d8 bc d8 e6 18 bd 8c dc a9 bd
       -0.0053318543 -0.026448308 -0.037329525 -0.08294019
0002e0 56 07 a6 bc 03 d9 c5 bc 1e 72 01 3d 1b d3 ff bc
       -0.02026717 -0.02415133 0.03160297 -0.031228593
0002f0 a0 9b a9 bd 8f b6 b1 bd 4c eb 83 bd a7 e2 dd bd
       -0.08281636 -0.086773984 -0.06441364 -0.10834246
000300 6d 62 04 3c f1 23 be 3b 6d e6 d5 3b b7 1d bb 3c
       0.008080107 0.0058026244 0.006527713 0.022841318
000310 fd 15 74 3d b2 4a 96 bc ba c5 d9 3c a4 c2 9b bc
       0.059591282 -0.018346164 0.026583541 -0.01901371
000320 28 fd 84 3c 80 56 17 3b e6 58 1a 3b d0 92 71 3b
       0.016233996 0.002309233 0.0023551523 0.0036861189
000330 46 b5 3c bc fc 3e f5 3c 7f 30 e1 3c 0f aa 73 3c
       -0.011517828 0.02993726 0.027488945 0.014872088
000340 87 18 51 3c 3c c2 a3 bd d7 0c ea bc bc 6a b9 3c
       0.012762195 -0.07996032 -0.028570576 0.022633903
000350 4e b6 c0 3b 1d 7e 37 bc 19 ee 27 bd 26 c8 4d bd
       0.0058811074 -0.011199501 -0.040998552 -0.050239705
000360 6d 3a 4d 3b 23 b6 da bb b3 42 b3 bc 3a cc 31 bc
       0.0031315342 -0.0066745444 -0.02188239 -0.010851914
000370 2e 2e 5e bd 8d a4 0e 3c 3f fd ca bc f9 4e 5f bd
       -0.05424326 0.008706224 -0.02477896 -0.054518674
000380 8b 24 fd 3c 45 23 8a bd 24 b6 d1 bb 91 fe a4 3c
       0.030901214 -0.067450084 -0.0063998867 0.020140918
000390 ae cb 1f bd 2d 01 fc ba 8d e2 28 3d ab 1f 28 bd
       -0.039012603 -0.0019226425 0.04123168 -0.041045826
0003a0 0d 23 9d 3d 79 57 39 bd 5a 46 ad bc 89 06 bb 3d
       0.07672701 -0.045249436 -0.02115171 0.09132106
0003b0 4a 42 43 bd 7b 70 65 bc 85 e6 b6 3c 03 bc 3a bd
       -0.04767064 -0.014003868 0.022326717 -0.04558946
0003c0 c4 37 a3 3c d9 e4 a3 bd 0f 08 39 3d 13 d3 c6 3b
       0.019924052 -0.080026336 0.0451737 0.0060676425
0003d0 12 c6 0b 3c af 3c f2 bc 39 c7 7d 3c 93 a4 ff bd
       0.00853111 -0.029569952 0.015489393 -0.12482562
0003e0 a1 bf a6 bd 2b b6 fa 3a 56 c1 9a bd e7 e2 11 bd
       -0.08142019 0.0019127777 -0.07556407 -0.03561678
0003f0 7b 42 3d 3d 7e f1 e9 3b b1 90 f2 bd c6 ae 69 bd
       0.04620598 0.007139384 -0.11844004 -0.057051443

rnn.bias_ih_l0 f4 [128]
000000 45 d5 98 3b bb ed 4a be d9 af 3a be 41 e5 89 bc
       0.0046640956 -0.1981725 -0.18231143 -0.01683295
000010 f1 19 1d bd 1a 9e 9b 3d d5 21 08 3d 48 8e 03 3e
       -0.038354818 0.07598515 0.03323539 0.12847245
000020 40 a8 ba 3b ee 57 c4 bd 1a ae 09 3c 4e 73 b0 bd
       0.0056963265 -0.09587084 0.008403325 -0.086157426
000030 e4 d1 4a be 58 99 ac 3d 5f 43 b4 3d 40 c8 3d be
       -0.1980663 0.084276855 0.088019125 -0.1853342
000040 60 22 b0 3d 32 a5 0f be 1f 89 07 be bd 82 d0 3d
       0.086003065 -0.14027861 -0.13235901 0.10181186
000050 4f 46 3e be 95 7d 51 be ed 84 ec bd c1 17 a3 3d
       -0.18581508 -0.20458062 -0.11548791 0.07963515
000060 40 4d 58 3d 30 fb 51 bd 81 ed aa bd 30 ae 8e 3d
       0.052808046 -0.05126494 -0.083460815 0.069668174
000070 57 99 d9 3d f1 c1 4d 3d 37 17 0f be f5 3d c1 3d
       0.106249504 0.050233785 -0.139737 0.094356455
000080 8e 16 28 3d de e2 8e bc 97 d8 21 bd db 50 34 bd
       0.041037135 -0.017442163 -0.039513197 -0.044022422
000090 04 51 b8 bd b6 3a e6 3d 0c f9 88 bd cf 87 a3 3c
       -0.089998275 0.11241667 -0.06688127 0.01996222
0000a0 95 01 33 bd 77 6e 9b 3d 69 cf 6e 3c ab f6 a9 3d
       -0.04370268 0.07589429 0.014575818 0.08299001
0000b0 35 3e 20 be 68 dc 9e bd 4f b9 60 3c 12 7c 6d bc
       -0.1564873 -0.07756883 0.013716056 -0.014494913
0000c0 43 73 82 bd 1f 19 90 bd 3f 30 9a 3d 6b 00 98 bd
       -0.06369641 -0.070360415 0.075287335 -0.07421955
0000d0 b8 83 85 be 72 0f 62 be 17 b4 c2 3c 0e 47 aa 3d
       -0.26077056 -0.22076204 0.023767514 0.08314334
0000e0 1f 8d f2 bc b0 b7 7f be 12 d9 11 bd 06 5d 17 be
       -0.029608307 -0.24972415 -0.035607405 -0.1478158
0000f0 da 7c ab 3c 8e 64 c8 3d 68 5b 24 bd 30 38 58 be
       0.020933557 0.09784804 -0.040126234 -0.21115184
000100 48 fd 9d 3d f3 9a 74 3d 00 03 f7 bd 1e 0e e9 3d
       0.07714325 0.059718084 -0.12061119 0.11379646
000110 e3 3c 6f bd fe 02 92 3d 64 a4 84 3d 80 22 04 3d
       -0.058407675 0.07129477 0.064766675 0.032259464
000120 58 7a 22 be 07 e8 1e bd c1 d0 95 bd 69 bb b8 bd
       -0.15866983 -0.038795497 -0.07315207 -0.09020121
000130 cf f5 01 3e e0 85 43 bd bb 1d 86 bd db 8c 93 3d
       0.12691425 -0.047735095 -0.065486394 0.072046004
000140 42 f7 79 3c 75 1d d1 3d 4c f3 93 bd 3c ad 19 3e
       0.015256705 0.102106966 -0.072241396 0.1500749
000150 5e 6a d6 3c 31 1c 39 3c 13 2f 15 bd f3 67 ec bd
       0.026173767 0.011298225 -0.036421847 -0.11543264
000160 dd 56 b6 3d fa 3f e5 bd 39 39 69 3d 33 6e 41 3d
       0.089032866 -0.11193843 0.056939337 0.047224235
000170 8e ff 01 3d fc c6 0c bd 15 2f ba bc 1c fd a8 bd
       0.031737857 -0.034369454 -0.022727529 -0.08251402
000180 51 d0 69 bd 68 a2 a7 bd 77 f9 c7 bc c9 93 3d bd
       -0.05708343 -0.081852734 -0.024410946 -0.046283517
000190 87 84 5c bc d8 bb 69 bd 30 d4 d0 3d 45 6c b0 bc
       -0.013459331 -0.057063907 0.101967216 -0.021536002
0001a0 68 b4 5a bd 9e d1 2a be 33 47 21 be cd c7 0e 3d
       -0.053394705 -0.16681525 -0.15749817 0.034858514
0001b0 69 7b be 3c ef 7c c0 3d aa a1 97 3d 71 9c c7 bd
       0.023252206 0.09398829 0.07403882 -0.09746636
0001c0 01 d8 3f be 70 ae cd 3d 6c b2 38 3e 78 11 f3 bd
       -0.18734743 0.10043037 0.18036813 -0.11868566
0001d0 60 1a 77 bd 00 82 34 be c5 7f 5d be 8d f9 24 be
       -0.060327888 -0.17627716 -0.21630771 -0.16110821
0001e0 d6 b0 0d be 7a b7 a6 bd 8c 75 1e be dc 5e ea bd
       -0.13836989 -0.08140464 -0.15474528 -0.11443874
0001f0 e6 71 93 3d 8b 8b 1e 3e d4 52 e8 3d d3 84 c0 3d
       0.07199459 0.15482919 0.11343923 0.09400334

rnn.bias_hh_l0 f4 [128]
000000 95 5d b1 bd 10 82 0f be 56 72 7c 3d 90 39 eb bd
       -0.086604275 -0.14014459 0.061632477 -0.114855886
000010 08 e9 69 bd 97 ff 0a be e2 6e 38 3c 0f 37 ad ba
       -0.057107 -0.13574062 0.011256905 -0.0013215261
000020 b7 f7 26 be 6f ea 80 bd aa ff 71 be a8 5b 1f be
       -0.16305433 -0.06294715 -0.23632684 -0.15562308
000030 6d 6d a2 3d 58 e5 a3 3c d5 36 78 bc 52 1b a5 bd
       0.079310276 0.02000682 -0.015149792 -0.080618516
000040 32 ee dd bd 70 cb 04 be d8 26 99 bd 58 97 08 3e
       -0.10836448 -0.1296823 -0.07478112 0.13338983
000050 86 5e 58 be 57 7c 5e be 07 24 3d 3d 6f ea a8 3d
       -0.21129808 -0.2172712 0.046176936 0.0824784
000060 4c de 87 3d 36 09 2b be 3d 60 0c be f2 f4 31 3e
       0.06634197 -0.16702732 -0.13708587 0.17378595
000070 03 fc 55 3d 7b 7f 8f 3d da 26 0d be 5b 89 04 bd
       0.05224229 0.07006737 -0.13784352 -0.032357555
000080 21 cd b2 bd 49 76 a8 bc e0 17 6a be f8 3b 2e be
       -0.087305315 -0.020564215 -0.2286067 -0.17015064
000090 2d c8 20 be b4 4c c2 bc 6b 60 f6 3d c6 ed 02 3d
       -0.15701361 -0.023718216 0.12030109 0.03196504
0000a0 8e de 72 be 23 54 94 bd ce 5e ab bc f7 27 c5 3c
       -0.2371771 -0.0724261 -0.02091923 0.024066908
0000b0 55 62 65 3c 8f 34 c8 bd 1c 54 79 bd 71 c8 3f bd
       0.014000495 -0.0977565 -0.06087123 -0.046822015
0000c0 11 1e 13 be 79 3c 97 bd bf ef ca bd c1 e0 a9 3c
       -0.14366938 -0.07384581 -0.09909009 0.020737054
0000d0 b2 fb 7a 3d 40 55 88 bb 16 90 ee bd 43 6f ff bc
       0.06127519 -0.004160553 -0.11648576 -0.031180983
0000e0 bc 0c 6c be 22 87 1e be 42 2e cd bd a2 0b d1 3d
       -0.23051733 -0.15481237 -0.100185886 0.10207297
0000f0 f3 2e 24 be c5 4a 0d bd b4 59 f1 bc 60 87 2f 3d
       -0.16033535 -0.034495134 -0.02946172 0.042853713
000100 59 3c 11 be e4 c0 aa 3c 4c 6c ce 3d 90 c0 0f be
       -0.14183177 0.02084393 0.1007925 -0.140383
000110 a9 a1 60 bc 48 43 9b bd 57 18 22 be 84 9e a2 bc
       -0.013710418 -0.07581192 -0.15829597 -0.019850977
000120 85 f1 04 bd 17 b8 ce 3d 7f fa f4 3d 80 41 8d 3d
       -0.032456893 0.10093706 0.11961841 0.06897259
000130 ec 6c e8 3b ce 5c e1 bc 6d ec 20 3c 99 4a 83 bd
       0.0070930626 -0.027510073 0.009821993 -0.06410713
000140 d2 fe 0b bd 42 09 94 3d d2 35 56 bc bc b1 0c be
       -0.034178562 0.07228328 -0.013074355 -0.13739675
000150 24 c8 8e bd 97 59 18 bd 29 8f b5 3d 20 0c 72 3d
       -0.069717675 -0.037194815 0.08865196 0.059093595
000160 fd 42 3b bd 6c 7a e1 3d c8 c5 16 3d 38 3d 0e 3d
       -0.045718182 0.11009678 0.036809713 0.03472635
000170 0d 8f 46 3e 83 d8 62 3d af 0c b2 3c d2 23 a3 3d
       0.19390507 0.055382263 0.021734564 0.079658166
000180 52 8d 22 bd 5c 52 44 bd 57 e5 66 be ca 90 3b bd
       -0.039685555 -0.047930107 -0.22548424 -0.04579238
000190 12 b8 53 bd 7d 18 a3 3d a8 be a4 3c e5 3c db bd
       -0.051689215 0.07963655 0.020110443 -0.10704974
0001a0 49 a0 91 3d 21 8b 12 bd c9 6b 1d be 02 03 82 bd
       0.0711065 -0.035777215 -0.15373148 -0.0634823
0001b0 29 4e cb 3c 1b c4 9d bd 92 ba 12 3e 2a db d6 bc
       0.024817543 -0.0770342 0.14328983 -0.026227552
0001c0 09 61 80 bd d3 8b 75 bd a5 b2 0c bd 77 94 18 be
       -0.06268508 -0.0599478 -0.034350056 -0.14900385
0001d0 99 bf 30 be d0 bf 66 bd 94 fe 1f bd e2 ee a3 3d
       -0.17260589 -0.05633527 -0.039061144 0.08004548
0001e0 db e1 35 3d 4c 27 95 3d d5 2b 1b be 4c 78 95 3b
       0.044404846 0.07282886 -0.1515344 0.0045614596
0001f0 a1 74 e5 3d 31 79 c3 bd 54 e1 52 bd f3 a5 6f 3d
       0.11203886 -0.095446 -0.05148442 0.05850787

gcn.lin_n.weight f4 [32, 32]
000000 b2 1b c6 bc 9e e7 86 3d 72 75 c3 3d cd 68 85 bd
       -0.024183128 0.06587146 0.09543885 -0.0651413
000010 21 a5 0e bd 45 39 7d bd 8d 6a 9b bc 50 8d 8a 3d
       -0.034825448 -0.061822195 -0.018971706 0.067652345
000020 04 70 fe 3d f8 f4 d5 3d a6 aa 86 bd 3d 37 0f 3c
       0.12423709 0.10447115 -0.06575517 0.008741197
000030 a8 39 fb bd 9c 6b 5f bd f2 4a 12 3e 06 b1 d2 bc
       -0.122668564 -0.054545984 0.14286402 -0.025719177
000040 97 ce 76 3c 19 5b 87 3d b8 0a cc 3d c9 e5 da bb
       0.015063903 0.066091724 0.09962982 -0.0066802246
000050 08 1f 2d bc ad af 10 bd 9f 37 b8 3c 50 5f 3a 3d
       -0.01056648 -0.035323787 0.02248746 0.045501053
000060 0a 66 1f 3d 99 bf c6 bd f4 07 0a be 37 a2 b5 bd
       0.03891567 -0.09704513 -0.13479596 -0.08868831
000070 ef 32 4e bd 32 e3 a9 3d 2f 12 a9 3d 2b 9d 10 3e
       -0.050341543 0.08295287 0.08255421 0.14122455
000080 c4 dc d7 3d c4 bc 44 3d da 7a 62 3d d8 68 0f 3e
       0.105401546 0.048031583 0.05529294 0.14004838
000090 39 1c b1 3d 22 40 f9 3d 5a d6 ce 3d b6 c6 c6 bd
       0.08647961 0.121704355 0.10099478 -0.0970587
0000a0 42 15 46 bd 58 a6 4f 3d 0c 51 11 be 9b 07 96 3b
       -0.048360117 0.050695747 -0.14191073 0.0045785434
0000b0 5e bd 25 3d 37 96 8d bb 4d 7d c8 3b 12 77 f6 bd
       0.040463798 -0.0043208855 0.0061184526 -0.120344296
0000c0 b3 b8 ac bc 63 48 44 be b2 fc 8a bc d5 9a d3 3c
       -0.021084165 -0.19168238 -0.016966198 0.025830666
0000d0 e9 76 1e be 9f cc f5 bd a4 0e 5b be 63 40 0a 3e
       -0.15475048 -0.12001919 -0.21392304 0.13501124
0000e0 09 06 52 bd dc 20 0a be f1 30 50 bd f6 bd 1c bd
       -0.051275287 -0.13489097 -0.050827924 -0.0382671
0000f0 87 2b 37 bd 31 1a 9e bc 06 e0 1b 3e 1c a6 07 be
       -0.044719245 -0.019299598 0.15222177 -0.1324696
000100 92 d2 3e ab c7 e8 a5 35 f2 b9 95 36 98 4a 56 2a
       -6.7793785e-13 1.2361205e-06 4.462193e-06 1.9032898e-13
000110 ed 07 94 a4 06 9a f0 b1 74 99 ac a6 a8 05 6d 29
       -6.4198195e-17 -7.0024297e-09 -1.1976491e-15 5.2629477e-14
000120 54 5e 23 34 55 fa 36 b8 dc 93 af 38 2b 80 50 37
       1.5214874e-07 -4.362532e-05 8.372191e-05 1.24276075e-05
000130 fa 23 5b 38 5a e8 c0 b9 6f 03 88 ba 36 27 0c 39
       5.2247175e-05 -0.0003679421 -0.0010377 0.00013366048
000140 f9 a2 88 29 31 57 1e b5 57 b6 8e 26 cf e8 76 39
       6.0678845e-14 -5.8986467e-07 9.902653e-16 0.00023547116
000150 96 05 00 38 b5 6b ce ba 6f 07 ad bb e8 b7 00 b9
       3.052278e-05 -0.0015748652 -0.005280427 -0.00012275542
000160 89 64 28 26 18 52 9c ba 4f c2 f7 b1 0a 54 e2 b7
       5.842296e-16 -0.0011926321 -7.2107365e-09 -2.6980433e-05
000170 a6 74 5d ba 9d 52 39 b1 85 0f a2 a9 cf 1d aa 3b
       -0.0008447863 -2.6968003e-09 -7.1969374e-14 0.0051915417
000180 42 2b ff 3d 45 35 fe 3d 84 fb 4e bb fa 24 29 3e
       0.12459423 0.12412504 -0.003158302 0.16518012
000190 57 d2 a2 bd 56 42 ed bd fc 7d ae 3d e4 39 89 3c
       -0.079502754 -0.11584918 0.08520123 0.016751237
0001a0 d4 1e a4 3d d2 aa bb bd b5 5b 67 3d 26 cc 0b 3e
       0.080136925 -0.09163441 0.056483943 0.13652095
0001b0 6f 95 e3 3b c5 fc 82 bd d9 94 34 be df 23 2a bd
       0.006945304 -0.06395868 -0.17634906 -0.041538116
0001c0 27 63 01 3e 05 9d 09 be 59 28 17 be 9b ae 15 3e
       0.1263548 -0.13438804 -0.14761485 0.14617388
0001d0 a3 32 2a bd dc f4 bc 3d c5 d8 69 3e db 58 3e 3d
       -0.041552197 0.09226391 0.22836597 0.046471458
0001e0 ee 1f 04 3e f6 ab ea ba 63 7f b0 bd a6 f1 22 bd
       0.12902805 -0.0017904032 -0.08618047 -0.039781235
0001f0 0f 63 24 bd 37 1d 2f 3e 37 f9 23 3e f6 a3 b4 3d
       -0.040133532 0.17100988 0.16013037 0.088203356
000200 c8 14 52 3d d9 33 ea bc 49 27 c4 3d f2 93 7d 3d
       0.05128935 -0.028589176 0.095778055 0.06190867
000210 7f 17 12 be 81 29 99 3d 78 21 70 3c f3 c8 ef bd
       -0.14266776 0.07478619 0.014656417 -0.1170825
000220 82 f8 84 bd f1 99 da 3c fd 95 b7 3c 9f 09 07 be
       -0.064927116 0.026684733 0.022410387 -0.13187264
000230 c7 5c 4a be 2a 59 09 bb 79 48 1d be ee cc f3 bd
       -0.19761954 -0.0020957687 -0.15359677 -0.119043216
000240 13 c4 12 bc 2e 17 1a be 8f 2e 27 be 4d 3d e8 3c
       -0.008957881 -0.15047905 -0.16326354 0.028349543
000250 f6 84 08 3e 4a f2 19 be 94 04 20 3d ee a2 26 be
       0.1333197 -0.15033832 0.039066866 -0.1627309
000260 df e5 92 3d cb f4 ba bd 2f 9e 4e bc 84 6d 49 3e
       0.07172751 -0.09128722 -0.012610956 0.19670683
000270 b0 48 94 be ec a7 a9 3c b3 40 3f 3d 95 74 38 be
       -0.28961706 0.020709954 0.04669256 -0.18013223
000280 13 52 49 3e 77 dc 9b 3d 98 49 fe bd ae cd 2a 3e
       0.19660215 0.0761041 -0.12416381 0.16680023
000290 12 df 5f bd 63 ca 20 3d e9 14 33 3e 4c ca 37 3e
       -0.054656096 0.03925551 0.17488445 0.17948264
0002a0 c3 46 de bd 7e 48 40 bd 5e cc 12 3e 3f 82 35 3e
       -0.108533405 -0.046944134 0.14335772 0.17725466
0002b0 84 e6 15 3e 5a 72 e4 bc 2c b1 6c 3d 1e 2c 27 bb
       0.14638716 -0.027886558 0.05778615 -0.0025508474
0002c0 22 55 c9 3d 08 83 03 3e d3 19 ce 3b 8a 16 67 be
       0.09830691 0.12842953 0.0062896996 -0.22567192
0002d0 3d 4e fe bc 49 86 65 be 50 93 4f 3e 52 82 02 bd
       -0.031043166 -0.22414507 0.20271039 -0.031862564
0002e0 38 0f bc bb a2 ff 6d bd 55 22 ff 3d f1 fc ad 3c
       -0.005739119 -0.05810512 0.1245772 0.021238776
0002f0 ef a4 11 3e d6 be d3 bd c8 d9 21 3e f3 74 1b 3e
       0.14223073 -0.103391334 0.15805733 0.15181331
000300 b9 4b 54 3d 42 66 8c bc 1f 9d c9 bd 6a aa 36 3e
       0.051830027 -0.017138604 -0.098444216 0.17838445
000310 cc 43 3c 3e 97 8d 09 3d a1 3e 31 3d 9d 4f 39 bd
       0.18385237 0.033582296 0.04327262 -0.04524194
000320 a6 93 b9 3c e0 67 5f 3c 23 88 10 3d 07 15 21 3e
       0.022653412 0.013635606 0.03528608 0.15730678
000330 7c fb 20 3b 1b d5 df bc b3 0b 59 3d a1 e7 91 bc
       0.002456396 -0.027323296 0.052989673 -0.017810645
000340 6b b4 1a be 5e 22 9b ba 46 d5 3e 3e b0 22 0b be
       -0.15107886 -0.0011835804 0.18636045 -0.13587451
000350 48 47 ef 3d b8 f9 1b be af 89 ea bc bb 52 0d bd
       0.11683518 -0.15231979 -0.028630106 -0.034502726
000360 b8 48 a9 bd d7 0a 31 be 65 bc 6e 3d bb e5 1b 3e
       -0.08265823 -0.17289291 0.058285136 0.15224354
000370 82 56 cc 39 6d 3b b2 3d a8 08 82 3d 1c d6 d0 3d
       0.00038974365 0.08702741 0.06349307 0.10197088
000380 af 99 ec 3c 5d d3 d3 3d ba e9 cc bc 12 70 86 bb
       0.028881876 0.10343049 -0.025013793 -0.0041027153
000390 73 15 1a 3e 89 02 91 bd 54 3f 6f bc f2 f0 ac bd
       0.15047245 -0.07080562 -0.014602501 -0.08444394
0003a0 af bc 84 3d 92 81 c7 3c 51 b6 b9 3d 0e 62 5f 3c
       0.06481301 0.024353776 0.09067977 0.013634218
0003b0 c2 87 36 3e 34 3c 2d 3e 5e 05 18 be 3d 07 ef 3d
       0.17825225 0.16917497 -0.14845797 0.116713025
0003c0 47 0b 1f be 87 74 c5 3d c7 12 a6 3c 7a d0 ca bd
       -0.15531646 0.096413665 0.020272626 -0.09903045
0003d0 55 a5 1b bd 04 fb 2f 3c 09 20 96 bd dc 71 6f 3d
       -0.03799947 0.010740999 -0.07330329 0.058458194
0003e0 a2 06 23 be c2 7d 0e 3e 2e 7e 32 3e 54 4e e3 ba
       -0.15920499 0.1391516 0.17430946 -0.0017342069
0003f0 88 db a4 bd 4d 31 b3 bd 29 a3 9d bc 46 0f e9 bc
       -0.08049685 -0.08749638 -0.01924284 -0.028449666

gcn.lin_n.bias f4 [32]
000000 2c f2 a6 bd 44 85 7f bd 69 2f c2 bc 9c ca 7d 3d
       -0.08151659 -0.06238295 -0.023704248 0.0619608
000010 6b 45 90 bd bf 61 8e 3d ea 8a d0 3d de ea a8 3d
       -0.070444904 0.06952237 0.10182746 0.08247922
000020 68 35 b3 bd 82 d8 18 3e 36 2a 94 bd 5a e2 78 3d
       -0.08750421 0.14926341 -0.072346136 0.06076274
000030 35 83 64 b5 f5 c4 b5 ba 08 31 ce bd c0 37 a0 3d
       -8.512755e-07 -0.0013867902 -0.10067946 0.078231335
000040 60 c2 14 be 2b 36 d1 bd fc 78 09 3e 15 e2 09 bd
       -0.14527273 -0.1021541 0.13425058 -0.033662874
000050 49 d7 c7 3b d0 a1 0f 3e ee 54 fb bc ca 95 af bd
       0.006098662 0.1402657 -0.030680146 -0.08573492
000060 96 c5 20 3e e6 f3 b3 bd 39 7f 99 3d ab df 94 3c
       0.15700373 -0.08786754 0.07494969 0.01817306
000070 5d 87 a9 bd 5b 34 5a 3d d0 ba d4 bd 15 de 6a bd
       -0.082777716 0.053272586 -0.10387194 -0.0573407

gcn.lin_r.weight f4 [32, 32]
000000 55 8e 78 bc 74 d2 0f be c9 ae a5 bd 6c 33 4e bc
       -0.015170653 -0.14045125 -0.08089978 -0.012585502
000010 1d ab 0f bd bb 74 93 bc a7 ae 02 3e e8 f1 14 bd
       -0.035075296 -0.017999997 0.12761937 -0.036363512
000020 3d c0 0c 3b a7 3c ef bd f4 37 ef bc 5b 36 84 3c
       0.0021476888 -0.116814904 -0.029201485 0.0161392
000030 5b 32 e8 3d 80 6b c3 bc 55 d6 fb bc 28 3e 1a 3d
       0.113377295 -0.023854971 -0.03074185 0.037656933
000040 86 d8 45 bc 7c c2 0f be c8 8b bb bc 0e 6b 41 bd
       -0.012075549 -0.14039034 -0.022893801 -0.047221236
000050 9a b7 8f 3d 6e d1 e3 bb 86 86 41 3d 3f 34 00 bd
       0.07017441 -0.006952456 0.047247432 -0.031299826
000060 96 ca 28 bd f0 60 86 3d 0a bb 18 bd f0 47 4d bd
       -0.041208826 0.06561458 -0.03728775 -0.050117433
000070 99 67 9e bd b2 c0 98 bd a5 ff db bd 3d 1a 76 bc
       -0.077346034 -0.07458629 -0.1074212 -0.015020904
000080 2a e5 c6 3c 14 99 24 be b4 88 b7 3d 13 dd aa 3d
       0.024279196 -0.1607402 0.08961621 0.08342948
000090 d7 ba 1d 3e 07 a2 d5 bd a8 8c 84 3d df 80 03 bc
       0.15403305 -0.10431295 0.064721406 -0.008026331
0000a0 9d 52 84 bd 70 17 a3 3d 14 57 a4 3d a2 1d 48 bd
       -0.0646107 0.07963455 0.08024421 -0.048856385
0000b0 08 c1 14 3d cf 13 8f 3c eb 3a da 3d 0c 55 4f 3d
       0.0363169 0.0174655 0.10655769 0.050618216
0000c0 b7 b9 f9 3d 1d 6a 7b bc 4d 3c e7 bd 08 d6 d2 bd
       0.121936254 -0.015345124 -0.11290798 -0.102947295
0000d0 8b 5b e5 bd 8f bf 3e 3b 5e 32 82 bd 72 30 45 bb
       -0.11199101 0.0029105877 -0.06357263 -0.003008869
0000e0 1b 5c 0e 3d ca 2a 90 bd e5 24 87 b9 56 9f 32 be
       0.034755807 -0.07039411 -0.00025776695 -0.17443594
0000f0 d1 86 06 bd c5 eb 39 bd a1 4c 22 be b8 03 fe 3d
       -0.032843415 -0.045390863 -0.15849544 0.12403053
000100 9a 00 36 27 92 74 e3 b7 b3 cb 98 b6 53 5d 0b a4
       2.52579e-15 -2.7114791e-05 -4.5536667e-06 -3.021987e-17
000110 c7 18 fe a9 58 06 03 b2 a2 8a bc a9 6d 1f e1 b2
       -1.1284164e-13 -7.626646e-09 -8.372926e-14 -2.6207738e-08
000120 fd 39 f8 a4 7d 88 3d 36 7f 25 b2 ad a0 8e bd 2a
       -1.0765109e-16 2.8242641e-06 -2.0252909e-11 3.367211e-13
000130 92 fd 15 bb c9 86 b8 32 c2 89 f8 b9 d1 28 5d b7
       -0.0022886735 2.1481712e-08 -0.00047404884 -1.318213e-05
000140 3f 39 b2 35 73 ba 2d 37 c5 a6 83 b1 c2 60 67 27
       1.3278694e-06 1.0355015e-05 -3.8315613e-09 3.2110142e-15
000150 d6 b6 dd b9 b2 e2 c6 a3 f6 42 3d 2e 76 40 2e 3b
       -0.00042288628 -2.1563212e-17 4.3033098e-11 0.0026588715
000160 ff d2 7f 2e 64 69 8a ad 91 d0 64 32 08 4f aa 32
       5.816769e-11 -1.5735586e-11 1.3318769e-08 1.9826544e-08
000170 20 af ac b9 c1 72 bf 33 66 7c 61 3a d9 93 bd 36
       -0.00032936875 8.915004e-08 0.00086016057 5.6498507e-06
000180 7b 75 61 3e dd ab 88 3c d5 23 19 3d a5 d7 b4 3b
       0.22017471 0.016683513 0.037387688 0.005518871
000190 40 da 21 3d df ad 02 3d e6 d0 8e bd 16 bd 45 bd
       0.03951478 0.031904098 -0.06973438 -0.04827603
0001a0 bd a9 5c bd 0b 97 0a be e7 62 55 bd 9b 1d f0 3c
       -0.053872813 -0.13534181 -0.052096274 0.029310992
0001b0 44 60 a6 3d 45 51 3c bd 4a 30 9f bb 82 a6 ae 3d
       0.0812383 -0.045975942 -0.0048580514 0.085278526
0001c0 08 e4 80 bd 31 24 3f 3e 6d a7 2c be c8 e9 1d be
       -0.062934935 0.1866615 -0.16860743 -0.15421212
0001d0 ba c8 66 3d 5f 2a a7 3d e2 e7 5c 3d 4e 09 39 be
       0.05634377 0.081623785 0.05393208 -0.18069956
0001e0 a0 de 52 3e 2e 45 b5 bd 56 e1 da 3b 31 2e 2e bd
       0.20592737 -0.088510856 0.006679694 -0.04252452
0001f0 4a 0a 46 3c b6 f7 b4 3c 0e ac 1e 3e 2e c6 c4 3c
       0.012087414 0.022090774 0.15495321 0.02402028
000200 c1 c2 21 be 0a 6e cd bd 6f 5f 28 be d8 a3 1a 3e
       -0.15796949 -0.10030754 -0.16442655 0.15101564
000210 73 ee 24 be c4 d6 65 3e b6 36 51 3c d8 d3 03 3e
       -0.16106586 0.22445208 0.012769392 0.1287378
000220 e1 e0 c9 3d 9c c0 b7 3d 2a dc 68 3d 84 0d bb bd
       0.09857345 0.08972284 0.05685059 -0.09133437
000230 6b fc 02 3e e1 82 2a bd b7 ea 90 bd 0d e1 f9 bb
       0.12791602 -0.041628722 -0.07076018 -0.007625705
000240 00 35 4d 3b e3 7a 3e 3d 8f d7 23 bc 7a e7 3f bd
       0.0031312108 0.046503913 -0.010000124 -0.046851613
000250 e2 91 dd bd 1a 7a 85 3d df 76 35 be 93 9b 24 bd
       -0.108188406 0.0651743 -0.17721127 -0.04018743
000260 ed 13 10 be 34 28 18 3e 2f bb fb 3d b0 fa 95 3d
       -0.14070101 0.14859086 0.12291562 0.073232055
000270 7b 6b 30 3e 16 d2 54 bd 82 37 4f bd 8c ac 4e bc
       0.172285 -0.051958166 -0.050590046 -0.012614381
000280 eb 2e 63 bd 48 fe 03 be db bc 83 3d 7c a0 55 bd
       -0.055464666 -0.1288997 0.06432506 -0.052155003
000290 1f db 24 be be ba 9d bd c3 7e 73 3e af 1d be 3c
       -0.16099213 -0.07701634 0.23778825 0.023207514
0002a0 37 cd a5 3d 4f ec c3 bc 7c 05 e6 bc dc 4d 14 3e
       0.08095782 -0.023916392 -0.028078787 0.14482826
0002b0 94 54 93 3c 73 46 d0 3d 59 80 22 bb ca 66 07 3d
       0.017984666 0.10169687 -0.002479574 0.03305701
0002c0 9e c9 90 3d a4 fb db 3d 24 80 9a 3d 1c a6 e3 3d
       0.070697054 0.10741356 0.07543972 0.11115667
0002d0 6c 98 f6 3d 50 5c 91 bc a0 a1 e5 bb 75 f0 c6 bd
       0.12040791 -0.017744213 -0.0070077926 -0.09713832
0002e0 e0 40 39 3d 9d 3b a2 bd 87 0b b8 3d cc 75 80 3d
       0.045227885 -0.079215266 0.08986574 0.06272468
0002f0 8e ed 1a 3e bb e7 54 3e f6 50 84 bc 10 75 5a 3d
       0.15129682 0.20791523 -0.016151886 0.053334296
000300 9f 42 58 3e cf 51 6e 3d d9 97 db 3d 75 e5 28 ba
       0.21119164 0.058183488 0.10722322 -0.0006442883
000310 64 55 28 bd 79 b2 75 bc 79 50 11 3e f2 3e 00 3e
       -0.04109706 -0.0149961645 0.14190854 0.12524012
000320 c1 48 fa 3d b0 21 11 bc be 2d be 3c 64 1a 24 bd
       0.12220908 -0.008858129 0.023215171 -0.04006423
000330 36 1b 8a 3d ab a3 a5 39 05 8a 0e 3d 33 d0 9f bd
       0.06743471 0.00031593195 0.034799594 -0.07803383
000340 2f 03 15 be 67 67 77 3d 5e d4 99 3d a4 7d 1c 3d
       -0.14551996 0.060401347 0.07511209 0.038205758
000350 47 a4 06 3e 71 57 e8 bd 2c c2 aa bc 3b ad b1 3c
       0.13148604 -0.11344803 -0.020844541 0.021689048
000360 7f db b4 3d 0e cf 18 bd 84 e2 1d bd 4a 11 4b bd
       0.08830928 -0.037306838 -0.0385461 -0.049577035
000370 d4 aa f9 bc 1c 49 00 be d8 1a e7 bd 56 47 0e be
       -0.030476965 -0.12527889 -0.11284417 -0.138944
000380 54 fc 69 bd 37 71 d0 3d c7 09 5b 3d 80 99 78 bc
       -0.057125404 0.10177844 0.05347612 -0.015173316
000390 3d 22 fe bd cb cf b3 bc 45 0e 30 be 1c a0 ba bd
       -0.12408874 -0.02194967 -0.17192943 -0.0911257
0003a0 9b 40 20 3e 42 b4 3c 3b 92 af 84 3d 08 e7 ca bd
       0.15649645 0.0028793965 0.064788 -0.09907347
0003b0 5b 07 43 bd e6 2b 73 bd 4d 8d e7 3d 8d f5 ca bc
       -0.047614437 -0.059368037 0.11306248 -0.02477529
0003c0 49 32 03 bd ea e9 4f 3d 13 b9 50 3e fa 6b 1c 3e
       -0.032030378 0.050760187 0.203831 0.15275565
0003d0 61 96 4b bd 3d d9 8e bc 7c b5 1a 3e b0 b3 81 3d
       -0.04970396 -0.017437572 0.15108293 0.06333101
0003e0 8f 89 42 be 5b d1 5d 3d ca c9 4f bd 1b c2 12 be
       -0.18997787 0.054154735 -0.05072955 -0.14331858
0003f0 4c cf 3c be d0 71 e4 bd 78 1b f2 bd c6 a2 50 bd
       -0.18438452 -0.111545205 -0.118216455 -0.050936483

gcn.lin_2.weight f4 [32, 32]
000000 cf 33 c1 3d 8d 0a 50 bd bf 26 f9 b7 1c 92 dc 3d
       0.0943371 -0.050791312 -2.9701156e-05 0.10770056
000010 4b d3 1f be 06 6d a5 3d 4e ae e8 bd 66 6f 3d 3e
       -0.15607946 0.08077435 -0.11361371 0.18499526
000020 ef fc 28 be 0a 81 42 bd c1 de c8 bd 2e 1e 67 bc
       -0.16502737 -0.047486342 -0.09808112 -0.0141063165
000030 38 b7 82 22 be fb c6 3d 20 56 3a 3d 97 b7 91 3d
       3.543056e-18 0.09715985 0.04549229 0.07115095
000040 53 81 c0 3c 65 76 2a 3b 26 35 61 bc 1d 4d 60 bd
       0.023499167 0.002601051 -0.013745582 -0.05476104
000050 c3 0b 45 3d bd 24 9b bd 95 21 ec bd 50 83 82 bd
       0.04810692 -0.07575367 -0.11529843 -0.06372702
000060 30 34 f2 3d 5f 65 7b bd eb fa 11 be 88 7b cf 3d
       0.1182636 -0.061375972 -0.14255874 0.101309836
000070 32 32 d3 3c 46 d4 00 be 50 8e 81 bd d4 5a e0 bd
       0.02578077 -0.12580976 -0.06325972 -0.10954824
000080 d6 5c 74 bd 15 16 b3 bd 6f 95 37 ac 1d 26 2d 3c
       -0.059658848 -0.08744446 -2.6088816e-12 0.010568169
000090 a1 80 19 be 3f bb 64 bd dc 06 14 be dc 56 73 bd
       -0.14990474 -0.055842634 -0.14455742 -0.059409007
0000a0 12 ac 55 be ce ef 0a 3e 64 20 0d be 93 55 ad 3d
       -0.20866421 0.1356804 -0.13781887 0.084635876
0000b0 11 0f 63 26 2b a3 45 3e fa c9 5c bd b0 f3 18 be
       7.8776865e-16 0.19300525 -0.053903557 -0.1493671
0000c0 1d 89 a0 bd 17 9e 10 3d e4 08 be 3d db bf f7 3d
       -0.07838652 0.035307016 0.092790395 0.120971404
0000d0 75 65 94 3d c1 d1 2d 3e ab f1 8c bd d5 91 c9 bd
       0.07245914 0.16974546 -0.06882032 -0.098422684
0000e0 b1 1c 51 3e f3 02 04 be c5 ee 23 3e 9f 86 e8 bc
       0.20421101 -0.1289175 0.16009052 -0.028384505
0000f0 42 9f b3 bc 47 e0 48 3c e1 a3 ca bd 87 e7 05 3e
       -0.021926526 0.012260503 -0.09894539 0.13076602
000100 92 49 a3 bc cc e3 4b 3c 62 c4 d1 36 ae 10 28 3e
       -0.019932542 0.012444448 6.2515473e-06 0.16412613
000110 c7 9b 08 be 68 75 1e be e5 95 02 be 2c b8 85 bd
       -0.13340674 -0.15474474 -0.12752493 -0.065292686
000120 02 71 0e 3e 3a d5 0b be c9 30 40 3e 0c c2 40 3e
       0.13910297 -0.13655558 0.1876861 0.18824023
000130 b8 45 3a 26 77 74 05 3e 15 d2 15 3d 9b 84 09 3e
       6.46262e-16 0.13032709 0.036577303 0.13429491
000140 fc 6b 2e 3e 64 c6 87 bc bf 1c fa 3d a0 79 3d 3e
       0.1703338 -0.016574092 0.12212514 0.18503428
000150 02 2d 1d be ce dd 00 3e ef 7b 08 be 9a 64 0f 3e
       -0.153492 0.12584612 -0.13328527 0.1400322
000160 f6 51 23 3d 9b 95 7a 3d e1 0b 8e 3d d9 e2 47 3e
       0.039873086 0.06117783 0.069358595 0.1952013
000170 0f 52 d2 3c bb 37 61 3d ed 8c 9a bd 79 1d 1e 3e
       0.025673894 0.05498479 -0.07546411 0.1544093
000180 e5 4d 13 3d 4d 02 e0 3d f6 e2 81 b7 5e 76 76 bd
       0.035962958 0.10937939 -1.5483685e-05 -0.060171477
000190 98 89 cf 3d 29 6e 0c 3e ed f8 f7 bd 9c 79 5e 3e
       0.10133666 0.13713898 -0.12108026 0.21726078
0001a0 1d 61 67 3e 9a f2 00 3e 11 39 b1 3d 97 ab 8a 3d
       0.2259564 0.12592545 0.08653463 0.067710094
0001b0 e8 23 78 23 7e 44 91 3d a7 b6 cc bc 5c b7 14 3e
       1.345171e-17 0.07093142 -0.02498944 0.14523071
0001c0 23 07 4f 3e 46 ca 5a 3c 63 42 08 be 2e 29 01 be
       0.20217566 0.01335389 -0.13306575 -0.12613365
0001d0 9f c1 20 3d 8e 79 e2 3d 5d 12 3c 3e d6 86 c1 3e
       0.03924715 0.11058341 0.1836638 0.37798184
0001e0 81 33 9b 3d 87 63 ce 3d c6 29 ee bd 81 b5 ab 3d
       0.07578183 0.10077577 -0.116290614 0.083842285
0001f0 12 96 81 bb 8d 9c 10 bd 70 50 9b 39 ab 2c 91 3d
       -0.0039546574 -0.03530555 0.00029623834 0.07088598
000200 84 a3 02 3d 82 1b 22 bd 46 48 a4 36 b3 3d 45 bc
       0.031894222 -0.039577015 4.8959946e-06 -0.012038636
000210 12 a8 0b bd 60 c8 5d 3d ac 3c 8a bd ea 3c b3 bd
       -0.03409583 0.05414617 -0.067498535 -0.08751853
000220 d7 f8 cb bd 54 22 8c bd db 96 9f 3d 67 4f 9c 3d
       -0.09959572 -0.06842485 0.07792445 0.07632332
000230 b4 25 d7 24 0c 25 bd 3d 3f 1e 26 bd 0d 8d e6 3d
       9.330526e-17 0.09235582 -0.04055619 0.11257372
000240 77 b6 f6 3d f0 39 8f 3b 43 0a 30 be ed da bf 3c
       0.12046521 0.0043709204 -0.17191415 0.023419822
000250 ab 14 07 3e 86 4b 2d 3e e0 d6 8d bc 2e 88 49 bd
       0.13191478 0.16923341 -0.017314374 -0.049202137
000260 88 d5 28 3e cf fe 08 be d8 d1 c2 3d 7c 94 c4 bc
       0.16487706 -0.13378452 0.09512681 -0.023996584
000270 29 df 5e 3d b0 4b 07 3e 7d 3b a7 bd 3e 66 05 be
       0.05441204 0.13212466 -0.08165643 -0.13027284
000280 c3 ed 0e be fa 2e d7 bd 7f 31 ae 2d fd a8 61 3d
       -0.13957886 -0.10507007 1.980349e-11 0.0550928
000290 2b 2c 4c 3d 34 31 21 3e 68 96 e3 3d a3 e8 30 bd
       0.04984681 0.15741426 0.11112672 -0.04319061
0002a0 58 1e 41 bd 9a 74 28 3e e0 b5 3a 3b 10 a0 aa 3d
       -0.04714808 0.1645073 0.0028489754 0.08331311
0002b0 8a 1f ef 26 07 08 2e 3e 8d 4a dd bc 3a 37 1f bb
       1.6592505e-15 0.1699525 -0.027013088 -0.0024294392
0002c0 df 65 39 bd 76 be 96 bd d5 dd c9 bd 39 d6 a4 bd
       -0.045263167 -0.07360546 -0.09856764 -0.08048672
0002d0 d1 e9 0c 3e 33 6d 30 3e 0d 7a 13 be 7b 85 00 be
       0.13761069 0.17229156 -0.14402027 -0.12550919
0002e0 2a 53 81 bd d3 41 07 be c9 3b 0b 3e 07 ef 89 3c
       -0.063146904 -0.13208704 0.13597025 0.01683761
0002f0 be a7 a9 3c 08 dd 16 be a9 e3 21 3c 1f 16 40 3d
       0.020709869 -0.14732754 0.009880939 0.046896096
000300 45 1b 6d 3d 1a 1f cd bd 14 05 bd 39 48 07 e3 3d
       0.057887334 -0.10015698 0.00036052673 0.11085373
000310 09 2b 26 be 35 03 ee bd 8a 7c 98 3b e9 03 e2 3b
       -0.16227354 -0.116217054 0.004653518 0.006897439
000320 79 7c af bd 2d 3b 08 be 99 64 80 bd d0 f1 02 3e
       -0.08568663 -0.13303824 -0.062691875 0.12787557
000330 5c 20 07 a4 2f ca cf 3d be 0e 92 38 02 fa 9c 3d
       -2.9300868e-17 0.10145985 6.9645685e-05 0.07664873
000340 9a 3b 2d bd 82 74 b6 3c 2a 9a 2e be 8b ec c6 3d
       -0.04229317 0.022272352 -0.17050996 0.09713086
000350 12 4c a9 3d 62 0a bd 3d f7 41 6d bd 01 be 0c bd
       0.082664624 0.09230496 -0.057924237 -0.03436089
000360 11 e9 81 bd e8 b6 1c bd 07 42 f4 3b 52 cf 01 3e
       -0.06343282 -0.03826037 0.00745416 0.12676743
000370 c1 ad a8 bc 2f e2 0f be 80 35 81 bd 23 d8 2f 3e
       -0.020590665 -0.14051126 -0.063090324 0.17172293
000380 04 23 51 3c ff a8 8e bd 14 f7 af ba 31 4c 1a 3e
       0.012764696 -0.06965827 -0.0013425075 0.15068127
000390 56 fd 67 3b 1d 0e 98 3d 3d a9 31 bd 63 ef f0 bb
       0.0035398803 0.07424567 -0.04337429 -0.007352756
0003a0 5f 98 54 3e fd f8 cb bc 14 34 36 3e 13 4c a2 bd
       0.2076125 -0.024899 0.17793304 -0.07924666
0003b0 af 81 0e a3 ee fa 88 3d f2 4a b6 bc fb e5 90 3d
       -7.725297e-18 0.06688486 -0.022252534 0.07075115
0003c0 6a 72 03 3d d9 46 84 bd 9d 24 27 be 90 ef 0b 3e
       0.032091536 -0.064588256 -0.1632256 0.13665605
0003d0 d1 49 80 bd 15 38 1d be b8 40 95 bd ae 2e 5c 3e
       -0.06264079 -0.15353425 -0.07287735 0.21502182
0003e0 b4 4b 08 be f1 c3 3a 3c c4 10 2e be 17 ed 8d 3d
       -0.13310128 0.011399255 -0.16998583 0.06929987
0003f0 fc 18 0d bd 6c 08 83 3d f4 86 3f 3e 70 1e 84 3e
       -0.034447655 0.06398091 0.18703824 0.25804472

gcn.lin_2.bias f4 [32]
000000 25 fa 9a 3d d0 21 20 3d e3 15 db bd 83 67 70 be
       0.075672425 0.039094746 -0.10697534 -0.23476987
000010 6e 24 35 3c fb a3 d7 3c 06 2a 39 3e be 08 a3 be
       0.011056049 0.02632331 0.18082437 -0.31842607
000020 7f 9c 53 3e 9a 38 29 3e d6 fa 2a bd 0d 7d 6b 3d
       0.20665167 0.16525498 -0.041743122 0.057492305
000030 73 7f 5a bd 01 6e 94 be 69 9d 30 3d 2e 6a 35 3e
       -0.0533442 -0.28990176 0.043118868 0.17716286
000040 20 2f ee bd 0b ce 93 bd 00 a1 69 be d5 74 88 bd
       -0.11630082 -0.07217034 -0.22815323 -0.06662909
000050 68 94 bc be d1 8f 0a 3e b6 29 11 3e 9d 04 18 3d
       -0.36831975 0.13531424 0.14176068 0.037113775
000060 f9 9f ff bc 25 5f 40 bd 82 28 86 be c4 27 4c be
       -0.03120421 -0.046965737 -0.2620278 -0.19937044
000070 9b 5b a3 bb dd 71 e5 3d 13 18 3b 3d ef 14 c1 bd
       -0.0049852855 0.11203358 0.045677256 -0.09427821

nf.base_dist_mean f4 [25, 1]
000000 4b 1a 26 3e 3e c3 5c 3f 8b 30 a4 bf 40 9f 43 bf
       0.16220967 0.86235416 -1.2827314 -0.7641487
000010 23 e1 f8 be f6 e3 a6 bd 4c 73 a8 bf 7e ee 10 40
       -0.48609266 -0.08148949 -1.3160186 2.2645564
000020 fd 04 36 40 82 94 a5 bc 96 ea b3 bf ff 6b 86 be
       2.8440545 -0.020212416 -1.4055965 -0.2625427
000030 25 ba a6 bf f5 2f 70 bf c2 a0 a9 3f 4a 17 89 3f
       -1.3025557 -0.93823177 1.3252184 1.0710232
000040 f0 f7 b1 be 13 95 f3 3e 6e 31 de 3f b4 0b 70 3f
       -0.34759474 0.47574672 1.7358835 0.9376786
000050 f2 a7 74 bf e3 b2 22 bf 79 a6 43 bf f4 c5 d8 3f
       -0.95568764 -0.6355421 -0.7642589 1.693541
000060 04 b4 6d 3e
       0.23213202

nf.base_dist_var f4 [25, 1]
000000 00 00 80 3f 00 00 80 3f 00 00 80 3f 00 00 80 3f
       1.0 1.0 1.0 1.0
000010 00 00 80 3f 00 00 80 3f 00 00 80 3f 00 00 80 3f
       1.0 1.0 1.0 1.0
000020 00 00 80 3f 00 00 80 3f 00 00 80 3f 00 00 80 3f
       1.0 1.0 1.0 1.0
000030 00 00 80 3f 00 00 80 3f 00 00 80 3f 00 00 80 3f
       1.0 1.0 1.0 1.0
000040 00 00 80 3f 00 00 80 3f 00 00 80 3f 00 00 80 3f
       1.0 1.0 1.0 1.0
000050 00 00 80 3f 00 00 80 3f 00 00 80 3f 00 00 80 3f
       1.0 1.0 1.0 1.0
000060 00 00 80 3f
       1.0

nf.net.0.net_input.weight f4 [32, 1]
000000 c5 02 9c 3e 7f 33 3e 3e 2e 40 c2 3e ca e0 0c bf
       0.30470863 0.18574332 0.3793959 -0.550305
000010 0a 80 55 bf 08 a1 3b bf f3 39 75 3e e8 69 25 3f
       -0.833985 -0.7329259 0.23947887 0.64614725
000020 40 c5 d8 3e d5 fc 17 3f 77 13 6b 3f 8a 62 02 bf
       0.4233799 0.59370166 0.91826576 -0.5093161
000030 17 3b 98 3e 43 a3 a0 be ed 39 93 3e 39 d5 12 bf
       0.29732582 -0.3137456 0.2875513 -0.573566
000040 ec a8 48 be 6f 08 07 3f 75 79 b8 3d 49 c0 27 3f
       -0.19595689 0.52747244 0.09007541 0.6552778
000050 10 77 21 3e 6d db 2d 3f 7f 5c 10 3f 3e 5a ee be
       0.15768075 0.6791294 0.5639114 -0.46553224
000060 d4 96 4c 3f 26 4e 70 3e c5 ce 24 bf 57 24 7a 3f
       0.79917645 0.23467311 -0.64378005 0.977117
000070 98 be f7 be 8e 7b 07 3f 4f 49 57 3e d8 3c 1b 3f
       -0.483876 0.52922904 0.21024059 0.60639715

nf.net.0.net_input.bias f4 [32]
000000 a1 65 31 3f 17 ab 58 bf c3 a1 74 be cd d7 4f bf
       0.692957 -0.8463606 -0.23889832 -0.8118866
000010 0d 79 ae 3e 58 a9 af be 26 8f 01 bf 46 d7 23 bf
       0.3407673 -0.34308887 -0.5060905 -0.64000356
000020 82 be f5 3e a2 90 14 bf 31 70 68 bf 4c 01 8b 3f
       0.47996908 -0.5803319 -0.9079619 1.0859771
000030 83 5b 69 bf 98 75 29 bf d2 f4 77 bd 83 87 3c bf
       -0.9115526 -0.6619506 -0.060536213 -0.73644274
000040 f0 27 25 3f fb e1 4f bf 17 14 10 3f f7 f5 78 bf
       0.64514065 -0.81204194 0.56280655 -0.9725031
000050 12 d8 33 bd 4c a8 1c bf 61 3d 18 3d 3f ef 54 bf
       -0.043907233 -0.611943 0.03716791 -0.8317756
000060 fd f1 77 3f d1 50 d8 be 5a cf 23 be a6 71 4b 3f
       0.9685362 -0.42249158 -0.15997067 0.7947029
000070 8a 0b 55 3f a4 06 ec 3e f2 99 24 bf 4b 13 11 bf
       0.8322073 0.46098816 -0.642974 -0.56670064
