checkpoint/SWaT/model_win_60.pth (torch, 97155 bytes, 27 tensors)

rnn.weight_ih_l0 f4 [128, 1]
0	0xbd9fa9ef	-0.07796084
1	0xbc23da45	-0.01000077
2	0x3d1d58a4	0.038414612
3	0x3ddd0d32	0.107935324
4	0x3e1105ad	0.14162321
5	0x3da65e6c	0.08123478
6	0x3c8c883d	0.017154807
7	0x3d40b8b0	0.04705113
8	0xbe12a414	-0.14320403
9	0xbe29ab5b	-0.16569273
10	0xbe14be8c	-0.14525813
11	0x3e33d96a	0.17563406
12	0xbc9857d2	-0.018596563
13	0xbe6709ae	-0.22562286
14	0x3e481ec8	0.19542992
15	0x3cf6fb1b	0.030149033
16	0x3d92b50e	0.0716344
17	0x3e2713aa	0.16316095
18	0xbe9e3775	-0.30901685
19	0x3dd9b2a5	0.10629777
20	0x3e688f5c	0.22710937
21	0x3de2e6c8	0.11079174
22	0x3dda9999	0.10673828
23	0xbe418d24	-0.18901497
24	0xbd9f729a	-0.077855304
25	0xbe384022	-0.17993215
26	0xbd90490f	-0.07045185
27	0x3eaa4854	0.33258307
28	0x3ded1fcc	0.115783304
29	0x3e1a1c89	0.15049948
30	0xbe2550f1	-0.16144158
31	0xbdb21bd8	-0.08696717
32	0x3d49ba09	0.049249683
33	0xbdf51d0b	-0.1196843
34	0x3d6c8bf4	0.057750657
35	0xbd3295b2	-0.04359979
36	0x3dd29874	0.102829844
37	0x3d06099f	0.03272402
38	0xbdd14baa	-0.1021951
39	0xbd7da1df	-0.06192195
40	0xbd5896d4	-0.052878216
41	0x3dba309a	0.09091301
42	0xbe76e8ec	-0.2411229
43	0xbd07c1bf	-0.033143755
44	0xbddfb92d	-0.10923991
45	0xbe208897	-0.15677105
46	0x3d15db5b	0.036586147
47	0x3d045393	0.032306265
48	0xbc2f67f3	-0.010705936
49	0x3e8bc93f	0.27301976
50	0xbec4fc7f	-0.3847389
51	0x3de0c045	0.109741725
52	0xbca4e2c0	-0.020127654
53	0x3d1c7cdb	0.03820501
54	0x3d0579c0	0.032586813
55	0x3d044b9b	0.032298665
56	0xbe46c95d	-0.19412751
57	0x3dcde830	0.10054052
58	0x3d3aacd4	0.045574978
59	0x3eafcebd	0.34337416
60	0x3e6abeb5	0.22924311
61	0xbd3b5b65	-0.045741457
62	0xbd26e766	-0.040748022
63	0x3db12f0e	0.08651553
64	0xbcea8090	-0.028625757
65	0x3d84c7fb	0.06483456
66	0x3f0a3a19	0.539949
67	0x3e9d0765	0.30669704
68	0xbd340e1d	-0.043958772
69	0x3bad0861	0.00528054
70	0xbe4f9868	-0.20272982
71	0xba5cd381	-0.00084238505
72	0x3e576052	0.21032837
73	0x3e6286af	0.2212169
74	0x3e43b0a5	0.19110353
75	0x3da93b31	0.08263243
76	0xbd46ab10	-0.04850298
77	0x3e88a9a7	0.26691934
78	0x3deaf3f8	0.114723146
79	0x3becd6c9	0.007227753
80	0xbe43893f	-0.19095324
81	0xbd76eb33	-0.060282897
82	0x3e9c2c1a	0.30502397
83	0xbe9ee38a	-0.31032974
84	0x3f219e71	0.6313239
85	0xbd023d36	-0.031796657
86	0xbe2c2f00	-0.16814804
87	0x3dbaf36d	0.09128461
88	0xbde4d473	-0.11173334
89	0x3ec19d8a	0.37815505
90	0xbe8311db	-0.2559956
91	0x3e59b2b3	0.21259575
92	0xbdc8698a	-0.09785755
93	0xbe42222a	-0.18958345
94	0x3ddb05fb	0.106945
95	0x3e197fbc	0.14990133
96	0x3d937807	0.07200628
97	0xbdd83e3c	-0.10558745
98	0xbd28a6eb	-0.04117481
99	0xbe2d8272	-0.16944292
100	0xbd32aa45	-0.043619413
101	0xbc9cb062	-0.019127075
102	0x3e18c6a5	0.14919527
103	0x3e1eb0db	0.15497153
104	0x3d3e550e	0.046467833
105	0xbe449a87	-0.19199573
106	0x3d2bca23	0.04194082
107	0xbe1525f7	-0.14565264
108	0xbe149aa0	-0.1451211
109	0xbe6adc9e	-0.22935721
110	0x3e383806	0.17990121
111	0x3d6a5299	0.057207678
112	0x3e0df0bb	0.13861363
113	0x3e93edf9	0.28892496
114	0xbe0bddf3	-0.13658886
115	0xbdf4f4c5	-0.119607486
116	0xbe3ae4e1	-0.18251373
117	0xbe0f75ce	-0.14009783
118	0x3d95fb64	0.073233396
119	0xbca2281c	-0.019794516
120	0xbe441825	-0.19149835
121	0xbd93c6f2	-0.0721568
122	0x3e205d08	0.15660489
123	0x3e14553e	0.14485642
124	0x3e4621d7	0.19348846
125	0xbd82a299	-0.06378669
126	0x3e1042b0	0.1408794
127	0x3e103190	0.14081407

rnn.weight_hh_l0 f4 [128, 32]
0	0xbda4edb4	-0.08053151
1	0x3daab223	0.08334758
2	0x3bff7df4	0.007796997
3	0x3d561b70	0.05227226
4	0xbd1784b4	-0.03699179
5	0xbded2289	-0.11578853
6	0x3dc5a1e6	0.0965002
7	0xbd22dd5e	-0.039761893
8	0x3cae4341	0.021272304
9	0x3c341808	0.010992058
10	0x3cde7dec	0.027159654
11	0x3d8d9439	0.06913037
12	0x3c25da1c	0.010122802
13	0xbd9139a0	-0.07091069
14	0xbe08429b	-0.13306658
15	0xbc08db55	-0.008353074
16	0x3e312963	0.17300944
17	0x3d0f44b6	0.034977637
18	0xbdbe4741	-0.09290934
19	0x3dcfb1b1	0.10141314
20	0x3db59e3e	0.08868073
21	0xbb54c149	-0.003246384
22	0x3dec08bd	0.11525104
23	0xbc7861df	-0.015160053
24	0x3d07d2db	0.03316007
25	0xbd315769	-0.04329625
26	0x3ce3e22b	0.027817806
27	0x3b054754	0.0020336704
28	0x3e227a6f	0.15867017
29	0x3b853772	0.0040654475
30	0x3d0fcc49	0.03510693
31	0xbd69ef32	-0.05711288
32	0x3c56e912	0.013117092
33	0xbbfca981	-0.007710636
34	0xbce9aa54	-0.028523602
35	0x3cfce899	0.03087263
36	0xbb15ef9a	-0.002287841
37	0x3ca1f669	0.019770818
38	0xbc7a2594	-0.015267748
39	0x3c757eac	0.014983814
40	0xbc8d2f3a	-0.017234433
41	0xbc35e24c	-0.011101317
42	0x3c8a9aad	0.016919458
43	0x3b215ea8	0.002462307
44	0x3ccb2623	0.024798458
45	0x3d53e6b6	0.051733695
46	0xbce4cb72	-0.027929042
47	0x3baa5602	0.005198241
48	0x3c1d2712	0.009591835
49	0x3c807b7b	0.01568388
50	0x3cc455c6	0.023966681
51	0x3c810536	0.015749555
52	0x3dadb2bf	0.08481359
53	0x3b56cbae	0.003277521
54	0x3d00f34e	0.031482033
55	0xbc32f05c	-0.010921564
56	0x3c59fc56	0.0133047905
57	0x3c1d4bfe	0.0096006375
58	0x3d3d40d6	0.04620441
59	0xbdb17737	-0.086653166
60	0xbbaf89f4	-0.0053570215
61	0x3c69b0a3	0.014263305
62	0xbc1dbad6	-0.009627065
63	0xbbe6cebf	-0.007043689
64	0xbcd095c5	-0.02546204
65	0xbd420449	-0.047367368
66	0x3ce4c95c	0.027928047
67	0x3db96f8d	0.0905448
68	0xbbcba67c	-0.006214915
69	0x3ca9d9fb	0.020733824
70	0xbdbba23d	-0.09161804
71	0xbd3ebc31	-0.046566192
72	0x3cc89253	0.024483835
73	0x3d430d3e	0.04762005
74	0xbcd044a4	-0.025423355
75	0x3ce05ba7	0.027387453
76	0x3d28d347	0.041217115
77	0x3d801bf2	0.0625533
78	0xbd5a7734	-0.053336337
79	0x3ce707df	0.028201995
80	0x3d57982f	0.052635368
81	0x3c7bff3b	0.015380676
82	0x3c2a2b4f	0.010386302
83	0xbd37c340	-0.04486394
84	0x3d5be6bb	0.05368684
85	0xbc184111	-0.009292857
86	0xbc9323c9	-0.0179614
87	0xbceed7b5	-0.029155592
88	0xbd457ad1	-0.04821283
89	0xbb5f1ab7	-0.0034043023
90	0xbcea64e0	-0.028612554
91	0xbd40022d	-0.046877075
92	0x3ca2d6b6	0.019877773
93	0x3d1440f4	0.036194757
94	0xbc550672	-0.013002025
95	0x3c253815	0.010084172
96	0x3ca77964	0.020443626
97	0xbd09c2b6	-0.033632956
98	0x3b68274f	0.003542382
99	0xbd0ca502	-0.03433705
100	0x3d25299b	0.04032288
101	0x3d2861b7	0.041108813
102	0x3db738c1	0.08946372
103	0xbd89eee0	-0.06735015
104	0xbd938ddb	-0.07204791
105	0x3df09165	0.11746482
106	0xbd10c705	-0.03534605
107	0xbd8d7901	-0.06907845
108	0xbd7f8503	-0.06238271
109	0x3d9eaa8b	0.07747372
110	0x3bf092be	0.007341712
111	0xbb4af7d6	-0.0030970476
112	0x3d6ab185	0.057298202
113	0xbca1f5ff	-0.01977062
114	0x3e219c4c	0.15782279
115	0x3dd3e031	0.103454955
116	0xbe103326	-0.14082012
117	0xbbd0b38d	-0.0063690604
118	0x3de5bf61	0.11218143
119	0x3d2712f9	0.040789578
120	0x3c190981	0.009340645
121	0xbd027e5f	-0.031858798
122	0x3d0f827e	0.035036556
123	0xbcddd92e	-0.027081098
124	0xbdd5cb37	-0.10439151
125	0xbdc6287d	-0.09675691
126	0x3c8f2118	0.017471835
127	0xbd25e8c9	-0.040505204
128	0x3c31c2af	0.010849639
129	0xbc6e1273	-0.014530766
130	0xbd47ffa4	-0.048827782
131	0xbd50a7df	-0.050941344
132	0xbadd02c8	-0.0016861791
133	0xbb263b58	-0.0025364961
134	0xbd113eab	-0.035460155
135	0xb9952a80	-0.0002845116
136	0xbba7f445	-0.0051255547
137	0xbd085798	-0.03328666
138	0x3cb3027d	0.021851772
139	0xbc8c520a	-0.017128963
140	0x3aa7ec78	0.0012811562
141	0x3d0e623d	0.034761656
142	0x3bfbc576	0.0076834513
143	0x3af9c637	0.0019056265
144	0x3cb2ebfd	0.021841044
145	0xbb9248cc	-0.0044642445
146	0xbd41458f	-0.047185477
147	0xbc388d7d	-0.011264202
148	0xbd9fb6be	-0.07798527
149	0xba2cd1ec	-0.000659256
150	0x3d2079ef	0.039178785
151	0x3c6b68fe	0.014368294
152	0x3bb6ff3a	0.0055846246
153	0x3cd0b5a1	0.025477232
154	0x3a654c83	0.0008747058
155	0xbb439751	-0.002984483
156	0xbad11a4b	-0.001595327
157	0x3ba2a812	0.004963883
158	0xbc197a96	-0.009367606
159	0xbc3af0bf	-0.011409937
160	0xba1361af	-0.0005622161
161	0xbca2b20f	-0.019860296
162	0x3d2103e5	0.039310355
163	0x3c6f88cd	0.014620018
164	0xbbf5fbc5	-0.00750682
165	0x3ba46a78	0.005017575
166	0xbc8f20e1	-0.017471733
167	0xb971ff8c	-0.0002307875
168	0x3c663ffb	0.01405334
169	0x3d4f21f4	0.05056949
170	0x3d7676ae	0.060171776
171	0x3c10223b	0.008797224
172	0xb9b3bec1	-0.00034283663
173	0x3d306241	0.043062452
174	0x3c2ef5f4	0.010678757
175	0x3b85f0db	0.00408755
176	0xbc9c0573	-0.019045567
177	0x3aca705f	0.0015444866
178	0x3d1a19e6	0.037622355
179	0xbc8284cc	-0.015932463
180	0x3dac5c01	0.08415986
181	0xbbce8458	-0.0063023977
182	0xbd2ebac9	-0.0426586
183	0x3c0e2391	0.008675472
184	0xbcde96b1	-0.027171465
185	0x3ca5f28b	0.020257255
186	0x3ca9bd55	0.020720163
187	0x3c9edf45	0.019393573
188	0xbcf94901	-0.030430319
189	0x3c791bda	0.015204394
190	0x3ba4cbc6	0.0050291745
191	0x3ca80208	0.020508781
192	0x3cdeab82	0.02718139
193	0xbc0f8f59	-0.008762204
194	0xbd4bfebd	-0.049803484
195	0xbd3bd7b7	-0.04586002
196	0x3baa23a5	0.0051922374
197	0xbb31de5f	-0.00271406
198	0x3ce62d9c	0.02809792
199	0xbba1d39b	-0.0049385554
200	0xbc3e62e6	-0.011620259
201	0x3d292613	0.041296076
202	0xbb9ef50f	-0.0048509906
203	0xbc46bf17	-0.01213052
204	0xbbd879a2	-0.0066062966
205	0x3c45f73c	0.012082871
206	0xbc298159	-0.01034578
207	0x3c35ae38	0.0110889
208	0xbd0724d3	-0.032994103
209	0x3ce945ab	0.028475603
210	0xbd4d4fac	-0.05012481
211	0x3cc15b3b	0.023603072
212	0xbd8ae977	-0.06782811
213	0x3b7f6cb6	0.003897471
214	0x3c25f04d	0.010128093
215	0x3ad74049	0.0016422357
216	0x3c8ac658	0.01694028
217	0xbca82153	-0.020523703
218	0xbd58a48f	-0.05289131
219	0xbd590ad3	-0.05298884
220	0x3a4779f0	0.00076094177
221	0xbb338f04	-0.0027398476
222	0x3b9e18a1	0.0048247133
223	0xb9e186f0	-0.0004301588
224	0xbc2ccd68	-0.01054702
225	0x3cdf65b6	0.02727018
226	0x3da9bd32	0.08288039
227	0x3cb278e2	0.021786157
228	0xbbc0761e	-0.0058734557
229	0x3bfa7d77	0.007644351
230	0xbd74628e	-0.0596643
231	0x3c0dc86d	0.008653742
232	0x3cb110b8	0.021614417
233	0x3d23724a	0.039903916
234	0x3cbd8e5c	0.023139171
235	0x3cc4c75d	0.024020845
236	0x3b7a478f	0.0038189625
237	0x3d478938	0.048714846
238	0x3c42bf81	0.011886478
239	0x3a0e0ce8	0.00054187933
240	0xbd8cf1dd	-0.06882069
241	0x3c22ab89	0.0099285925
242	0x3cde900b	0.027168294
243	0xbd1781c4	-0.03698899
244	0x3d9f25f4	0.07770911
245	0xb9e0519c	-0.00042785413
246	0x3af974f0	0.0019032042
247	0xb8438f68	-4.662518e-05
248	0xbc9588ec	-0.018253766
249	0x3ca1648e	0.019701269
250	0xbd050a1c	-0.032480344
251	0x3bc8fed2	0.0061338926
252	0xbd7eda18	-0.06221971
253	0xbcf8581f	-0.030315457
254	0x3cbc1bdb	0.022962501
255	0x3d3e89da	0.046518184

rnn.bias_ih_l0 f4 [128]
0	0x3dda20a3	0.10650756
1	0x3cfb4f49	0.030677455
2	0x3d9eee96	0.077603504
3	0xbdd376c3	-0.103253864
4	0xbcd775c4	-0.026301272
5	0xbdc5d1e5	-0.09659175
6	0xbe0b2c7d	-0.1359119
7	0xbda75fe7	-0.08172589
8	0xbd4c84f9	-0.0499315
9	0xbdba7b5a	-0.09105559
10	0x3d7aaeaa	0.06120173
11	0xbd016bbe	-0.03159689
12	0x3d86ad5c	0.065760344
13	0x3e26090a	0.16214386
14	0x3e137346	0.14399442
15	0xbdd1ecb6	-0.10250227
16	0xbd95991c	-0.07304594
17	0xbde5c40d	-0.11219034
18	0xba0f88ee	-0.0005475421
19	0xbdd6c37a	-0.10486503
20	0x3ed4380e	0.41449016
21	0x3c7fc3b4	0.015610624
22	0x3df4220a	0.11920555
23	0x3dbaad0a	0.09115036
24	0x3c1d3ef8	0.009597532
25	0xbd1278a0	-0.03575957
26	0xbdd9ff7f	-0.10644435
27	0x3d24621a	0.04013262
28	0xbdf143c4	-0.117805034
29	0x3da93076	0.08261196
30	0xbc9ed80d	-0.01939013
31	0x3dc191ec	0.094516605
32	0xbe04d4a1	-0.12971736
33	0x3bfe2c29	0.007756729
34	0xbda71e8f	-0.081601255
35	0xbdc10791	-0.09425271
36	0x3cf9bc8e	0.030485418
37	0xbddc4b50	-0.10756552
38	0xbe205e4e	-0.15660974
39	0xbc205792	-0.009786503
40	0x3db96bab	0.09053739
41	0x3da52bbf	0.080649845
42	0x3d252213	0.0403157
43	0x3c8a64d3	0.01689378
44	0x3b867875	0.004103715
45	0x3ddcde56	0.10784595
46	0xbdb9be43	-0.09069493
47	0xbb28b834	-0.002574456
48	0xbe29ddbf	-0.16588496
49	0x3d8a337e	0.067481026
50	0x3dec3003	0.11532595
51	0x3d1d04d3	0.03833468
52	0x3eb803bf	0.35940358
53	0xbcab4a76	-0.02090953
54	0x3e15cd03	0.14628987
55	0x3dc471ad	0.095919944
56	0xbd7bf5b8	-0.061513633
57	0xbddb5c7a	-0.10710998
58	0xbc4f4e88	-0.012653001
59	0x3dde2c43	0.10848286
60	0x3deb91fb	0.11502453
61	0xbc71d86b	-0.014761071
62	0xbd85ade6	-0.06527309
63	0xbb52e1b9	-0.0032177998
64	0xbd600974	-0.054696515
65	0xbdc5a207	-0.09650045
66	0xbdba1a48	-0.09087044
67	0x3d10921c	0.03529559
68	0xbd263a76	-0.040583096
69	0x3ddd4715	0.108045734
70	0xbd4874fb	-0.048939686
71	0x3e0e1007	0.13873301
72	0x3e23be17	0.15990482
73	0xbd8ec61b	-0.06971379
74	0xbd1f4365	-0.03888263
75	0x3c7bc96c	0.015367847
76	0xbd2b2916	-0.04178723
77	0x3d3c3122	0.045945294
78	0xbd86bfb1	-0.06579531
79	0xbdd57a31	-0.10423697
80	0xbdb1fc13	-0.086906575
81	0x3e3316b2	0.17489126
82	0x3d094c28	0.033519894
83	0x372219fe	9.662004e-06
84	0x3bd37661	0.006453321
85	0xbd862dd1	-0.065517075
86	0xbe20f738	-0.15719306
87	0xbdfb8324	-0.122808725
88	0xbd99518e	-0.074862584
89	0xbcbfe7c4	-0.023425944
90	0x3de502a6	0.11182146
91	0x3c02bcbe	0.00797957
92	0xbdef0f39	-0.11672825
93	0xbcf2334d	-0.029565478
94	0x3da8cd1a	0.08242245
95	0xbce18df5	-0.02753351
96	0x3d81f52d	0.06345592
97	0x3e166254	0.14685947
98	0x3d91d174	0.07120028
99	0xbde5d871	-0.112229235
100	0xbe120f18	-0.1426357
101	0xbdace230	-0.08441579
102	0x3cdf9060	0.027290523
103	0x3bfcb1e6	0.007711637
104	0x3e02c071	0.12768723
105	0xbdeb8a8b	-0.11501034
106	0x3d1fdab2	0.039026923
107	0x3d0bc381	0.034121994
108	0x3c36b3b8	0.011151247
109	0x3e43d108	0.19122708
110	0x3e299496	0.16560587
111	0xbd60899c	-0.054818735
112	0x3defceef	0.11709391
113	0xbd72ba54	-0.059259728
114	0xbe0e3d09	-0.1389047
115	0xbe0595df	-0.13045453
116	0x3e854988	0.26032662
117	0x3cc90169	0.024536805
118	0x3ddfcbf6	0.10927574
119	0xbd97f15d	-0.07419083
120	0x3ce1400e	0.027496364
121	0xbda1ca7c	-0.07899949
122	0x3dd9aaf4	0.1062831
123	0x3e036bf1	0.12834145
124	0x3c926002	0.017868046
125	0x3c1ca235	0.009560158
126	0xbdf43076	-0.11923306
127	0xbd998dad	-0.07497726

rnn.bias_hh_l0 f4 [128]
0	0x3a914807	0.0011084088
1	0xbcbc66c4	-0.022998221
2	0x3d23d618	0.039999098
3	0xbdaaa4b2	-0.083321944
4	0x3dd3e35c	0.103461
5	0xbd2f865c	-0.042852744
6	0xbdd186f5	-0.10230819
7	0xbd4c135a	-0.049823143
8	0xbda65db1	-0.08123339
9	0xbddfbc8e	-0.10924636
10	0x3d0f1d54	0.03494008
11	0x3d832664	0.06403807
12	0xbda8633f	-0.08222055
13	0x3dc22fa5	0.09481744
14	0x3e273a4d	0.16330834
15	0xbdd74393	-0.10510936
16	0xbd6c7f79	-0.057738755
17	0x3cd8fd66	0.026488017
18	0x3d941202	0.07229997
19	0x3a96b822	0.0011498968
20	0x3e99da87	0.30049536
21	0x3b2bee3d	0.002623453
22	0x3e0d130b	0.13776796
23	0x3cfe6d71	0.031058045
24	0xbc11a1fd	-0.008888719
25	0xbd5f2b2b	-0.054484528
26	0x3d58b756	0.052909218
27	0x3dd27b49	0.10277421
28	0x3d7ea4be	0.06216883
29	0x3b38894a	0.0028158003
30	0x3d2d941a	0.04237757
31	0x3d0c8ef1	0.034316007
32	0xbe04725d	-0.12934251
33	0xbc5901d0	-0.013245061
34	0x3c29ffc6	0.010375923
35	0x3db8bd21	0.090204485
36	0x3d0a99b6	0.033837996
37	0x3dbf1a40	0.09331179
38	0xbd46f6e7	-0.04857531
39	0x3da89762	0.08231999
40	0xbdaa0f36	-0.083036825
41	0xbb906c4b	-0.004407441
42	0x3dabce70	0.08388984
43	0xbd77ddd9	-0.060514305
44	0xbdca8e02	-0.09890367
45	0x3d91fe2a	0.07128556
46	0xbdb81121	-0.08987642
47	0xbcef9987	-0.029248012
48	0xbdf07680	-0.11741352
49	0x3b5da2e9	0.0033819026
50	0xbdd49c82	-0.10381414
51	0x3c312a48	0.010813303
52	0x3e418e51	0.18901946
53	0xbd11df73	-0.03561349
54	0xbe2c38a0	-0.16818476
55	0xbd3e1929	-0.046410713
56	0x3d16c842	0.036812074
57	0xbdba8718	-0.09107798
58	0xbceb60ed	-0.028732741
59	0xbdd468c5	-0.10371546
60	0xbcf92fad	-0.030418241
61	0xbe08b09c	-0.13348621
62	0xbdcb5da6	-0.099299714
63	0x3d9b2cdf	0.07576918
64	0xbe1412b4	-0.1446026
65	0xbd95a065	-0.073059835
66	0xbd98d660	-0.07462764
67	0x3d4f6225	0.050630707
68	0x3dd6eb66	0.104941174
69	0x3e1b1433	0.15144424
70	0x3c727ffd	0.014801023
71	0xbe174ff5	-0.14776595
72	0xbc961c4f	-0.018324045
73	0xbe27e755	-0.1639684
74	0x3de44e34	0.111477286
75	0x3e212ac1	0.15738966
76	0x3d99729f	0.07492565
77	0xbdb2baaf	-0.08727013
78	0x3e13eed5	0.14446576
79	0x3db9ce26	0.09072523
80	0x3cad7675	0.021174649
81	0xbde94153	-0.11389413
82	0x3e19b2ac	0.15009564
83	0x3d7f657d	0.062352646
84	0x3cef021a	0.029175807
85	0x3e015f5c	0.12634033
86	0xbdff84b5	-0.12476484
87	0x3dcbd8d3	0.09953465
88	0x3e1fd1b7	0.15607344
89	0x3d5c32ce	0.05375939
90	0x3d9ae5e9	0.07563383
91	0xbd291bfa	-0.041286446
92	0xbd954db9	-0.07290215
93	0xbce01347	-0.027352942
94	0x3dc415f2	0.09574498
95	0xbe0661a1	-0.1312318
96	0xbc659d0b	-0.014014493
97	0x3df52ad5	0.1197106
98	0x3d4af51e	0.04955017
99	0xbc1370c7	-0.008999056
100	0xbe40cf25	-0.1882902
101	0xbe0eb54e	-0.1393635
102	0x3da8092c	0.082048744
103	0xbcca7fe1	-0.02471918
104	0xbc94aab8	-0.018147811
105	0x3d95571c	0.072920054
106	0xbdb50e15	-0.088405766
107	0xbcac36c2	-0.021022204
108	0x3cdd454e	0.027010586
109	0x3d933f71	0.07189835
110	0x3dde56e7	0.10856419
111	0xbd96e1b8	-0.07367271
112	0xbd789da3	-0.06069721
113	0x3abf8318	0.0014611213
114	0xbe3fcd60	-0.18730688
115	0xbd34ada5	-0.044110913
116	0x3eabde69	0.33568123
117	0x3b2b2a3a	0.0026117698
118	0x3d8e56b3	0.0695013
119	0x3bcf23a9	0.0063213897
120	0x3d5d5989	0.054040466
121	0x3e0092fa	0.12556067
122	0xbdd145dc	-0.10218403
123	0x3c6695f2	0.014073836
124	0x3e0725ae	0.13197967
125	0xbd421019	-0.047378633
126	0xbd5e3ee6	-0.054259203
127	0xbdc07793	-0.09397807

gcn.lin_n.weight f4 [32, 32]
0	0x3e1b2c24	0.15153557
1	0x3db175d7	0.08665054
2	0xbe2c389d	-0.16818471
3	0x3c815d26	0.015791487
4	0xbdfbcdd3	-0.12295117
5	0x3d875c4f	0.06609403
6	0xbde9b5f9	-0.11411662
7	0x3d87ea3c	0.066364735
8	0xbd7f4beb	-0.06232826
9	0x3e2180fa	0.15771857
10	0xbdae04cb	-0.08497008
11	0xbd1737f2	-0.036918588
12	0xbc3b3301	-0.0114257345
13	0x3e1c788c	0.1528036
14	0xbcbff153	-0.023430502
15	0xbda8ecbc	-0.082482785
16	0x3deb674f	0.11494314
17	0x3caf4a9d	0.021397883
18	0x3d9e5c9e	0.07732509
19	0x3dfac9fc	0.12245557
20	0xbdc41a64	-0.09575346
21	0xbd1a460b	-0.037664454
22	0x3db44000	0.088012695
23	0x3d7a040f	0.061039027
24	0x3d086e60	0.033308387
25	0x3c47c346	0.012192553
26	0x3e02daa0	0.12778711
27	0xbe889a94	-0.26680434
28	0x3e1a8f01	0.15093614
29	0x3cae9c14	0.021314658
30	0xbdd44ed6	-0.10366599
31	0xbd8438c3	-0.06456139
32	0x3c7e0145	0.015503232
33	0x3db2b917	0.08726709
34	0xbe252634	-0.16127855
35	0xbd5dec21	-0.05418027
36	0x3db1455c	0.086558074
37	0xbdeba080	-0.11505222
38	0xbd84ee3f	-0.06490754
39	0xbd2eb62e	-0.04265421
40	0xbd9be22e	-0.076115
41	0x3e189b43	0.14902978
42	0xbd4b33a9	-0.049609814
43	0xbd1741af	-0.036927875
44	0xbd255b02	-0.040369995
45	0x3e20e61d	0.15712781
46	0xbe03ae08	-0.12859356
47	0x3aa57a54	0.0012624958
48	0xbce4c938	-0.02792798
49	0xbc3488e9	-0.01101897
50	0x3d80644d	0.06269131
51	0x3e36299d	0.17789312
52	0x3d366398	0.044528574
53	0xbd1e38b3	-0.03862829
54	0xbd4dab15	-0.050211985
55	0xbaa4cabc	-0.0012572627
56	0xbdb3971a	-0.08769055
57	0x3c65ae33	0.014018583
58	0x3d8eefd2	0.06979336
59	0xbdb3be9e	-0.08776592
60	0xbd5538f7	-0.05205628
61	0x3c921614	0.017832793
62	0xba8e4d9b	-0.0010856868
63	0x3d4b0ba7	0.04957166
64	0x3e1ae700	0.15127182
65	0x3e509ee0	0.20373106
66	0x3e2e60f3	0.1702917
67	0x3d46b9d0	0.04851705
68	0x3c78d39f	0.015187173
69	0x3d789f2d	0.060698677
70	0xbd9921f8	-0.07477182
71	0x3e172b81	0.14762689
72	0x3e1111de	0.14166972
73	0xbdae28c4	-0.08503869
74	0xbdf7cf5e	-0.12100099
75	0xbd3b2ee3	-0.04569901
76	0xbd8d800a	-0.06909187
77	0xbd2464d5	-0.040135223
78	0xbdd888d5	-0.10572974
79	0xbe129fce	-0.14318773
80	0x3dea071a	0.11427136
81	0xbdbb34c9	-0.09140927
82	0xbd8204a3	-0.06348541
83	0x3e03f01e	0.12884566
84	0x3dd4aef8	0.10384935
85	0x3b342128	0.0027485583
86	0xbd63aab4	-0.055582717
87	0xbdf686e8	-0.1203745
88	0x3d57b85f	0.052666064
89	0xbdbbd047	-0.09170585
90	0xbd5b22d4	-0.05350001
91	0xbdeb003e	-0.114746556
92	0x3e2fec3b	0.17179959
93	0x3c42bfd3	0.011886555
94	0xbdd10ea4	-0.102078706
95	0x3d24cf45	0.04023673
96	0x3dab8ed3	0.08376851
97	0xbd6bb410	-0.057544768
98	0x3dc0aa2a	0.09407456
99	0xbdfe2a86	-0.124104545
100	0xbd97737f	-0.07395076
101	0x3d2746a7	0.040838864
102	0x3d93b192	0.07211603
103	0xbd68ada0	-0.056806207
104	0x3c2d9830	0.010595366
105	0xbddc2603	-0.10749438
106	0xbde149af	-0.11000382
107	0x3d81e811	0.06343091
108	0x3cba534a	0.022744793
109	0x3de945d3	0.11390271
110	0xbdf70a1d	-0.12062476
111	0xbdb6be94	-0.08923069
112	0x3b20a9f2	0.0024515358
113	0x3e16f18d	0.14740582
114	0x3cc95fcf	0.024581818
115	0xbdb4e5ec	-0.088329166
116	0xbc32b5d5	-0.01090761
117	0xbc4df962	-0.0125716645
118	0x3da49eba	0.08038087
119	0x3d263e32	0.040586658
120	0xbcc1ad8e	-0.023642328
121	0xbd9f9113	-0.077913426
122	0x3e0a6239	0.13514031
123	0x3da5f40c	0.08103189
124	0x3dc770e2	0.097383276
125	0x3b1fbc68	0.0024373773
126	0xbe2cc720	-0.16872835
127	0xbdf5ff71	-0.12011612
128	0x3c976b30	0.018483728
129	0xbc8bc383	-0.017061
130	0xbb6a86f0	-0.0035785995
131	0x3d777ea1	0.060423497
132	0xbc02ec74	-0.007990945
133	0xbb254a97	-0.002522146
134	0xbc841efd	-0.016128058
135	0xba27f26c	-0.0006406668
136	0xba204bd1	-0.0006114813
137	0xbd354390	-0.044253886
138	0x3da02853	0.07820191
139	0x3c2fc44d	0.010727954
140	0x3e07d613	0.13265257
141	0xbdc530e4	-0.09628466
142	0xbab52982	-0.0013821574
143	0x3b5c32ed	0.003359969
144	0xbc50cb50	-0.012743786
145	0xbb521c08	-0.0032060165
146	0x3cd08aa5	0.025456736
147	0xbd42baa5	-0.04754128
148	0xbd628ad8	-0.055308193
149	0x3c94b972	0.018154833
150	0xbc017096	-0.007900378
151	0xbd2d9ea2	-0.042387612
152	0xbcc07b75	-0.023496369
153	0x3d01a916	0.031655394
154	0xbcccc380	-0.024995565
155	0xb85579d1	-5.0896608e-05
156	0x3bfeb2a0	0.0077727586
157	0xbd9a2e1f	-0.07528328
158	0x3b0db790	0.0021624304
159	0x3bf5e671	0.0075042774
160	0xbce7d1f6	-0.02829836
161	0x3d7165cf	0.058934983
162	0x3e1bb214	0.1520465
163	0xbe3df814	-0.18551666
164	0x3e0eeacb	0.13956754
165	0xbe397266	-0.18110046
166	0x3cef3d0f	0.02920392
167	0x3d9e9e73	0.077450655
168	0xbd88545f	-0.066567175
169	0xbcfbc6d0	-0.03073445
170	0xbe1b84d6	-0.15187392
171	0x3dd0e0ed	0.10199151
172	0xbd984200	-0.074344635
173	0x3d42253a	0.047398783
174	0x3d2025b0	0.03909844
175	0xb98467fe	-0.00025254482
176	0x3c593ef9	0.013259643
177	0xbc71171b	-0.014714981
178	0xb9a94c3c	-0.0003229099
179	0x3e408862	0.18802026
180	0xbdd30f9b	-0.10305711
181	0xbd7a3ef8	-0.061095208
182	0xbe00d688	-0.12581837
183	0xbcdec7a9	-0.027194815
184	0xbd22ffe1	-0.039794806
185	0xbe1445ab	-0.14479701
186	0x3d8cc14a	0.068728045
187	0x3da20cf9	0.079126306
188	0x3e043fe3	0.12914996
189	0x3e2d0f5e	0.16900393
190	0x3d7b8202	0.061403282
191	0xbd2fa9c8	-0.042886525
192	0x3e4e2688	0.20131886
193	0x3ee220cf	0.44165656
194	0x3de56941	0.11201716
195	0x3dd15f39	0.102232404
196	0x3c11ea88	0.008906014
197	0xbd274d8c	-0.04084544
198	0xbdd03823	-0.10166957
199	0x3ded1fdc	0.11578342
200	0xbdb0cd47	-0.086329035
201	0x3e41a09a	0.18908921
202	0xbd9e456c	-0.07728085
203	0x3d20e2aa	0.039278664
204	0x3d4abf0a	0.049498595
205	0x3d283877	0.041069474
206	0xbe19cda2	-0.15019849
207	0x3c4cb677	0.012494675
208	0x3d6a39c3	0.057183992
209	0x3d53ca0d	0.051706363
210	0xbdf842bd	-0.12122104
211	0x3d23fd7f	0.040036675
212	0x3cc0dcc6	0.023542773
213	0xbcab19d6	-0.020886343
214	0x3dce85a7	0.10084086
215	0xbca371b2	-0.019951675
216	0x3ccfdcb2	0.02537379
217	0xbce5f5b4	-0.028071262
218	0xbdbedb04	-0.09319118
219	0x3e01dd7f	0.1268215
220	0xbdfbec09	-0.123008795
221	0x3d98b4f6	0.074563906
222	0xbe37f086	-0.17962846
223	0x3d3b15dc	0.045675144
224	0x3d2ba484	0.04190494
225	0xbd26c9d6	-0.04071983
226	0x3d46d8e3	0.048546683
227	0xbdc9111d	-0.09817717
228	0xbd040358	-0.03222975
229	0xbdad4af6	-0.08461563
230	0x3c9ce4f7	0.019152148
231	0x3d011cfe	0.03152179
232	0x3bbe27e8	0.005803097
233	0x3e0d52b1	0.13801076
234	0x3d962893	0.07331958
235	0x3d0295aa	0.031881012
236	0x3cf3836f	0.029725758
237	0x3d252519	0.040318582
238	0xbd4cbcb6	-0.049984656
239	0x3c30ab2d	0.010782999
240	0xbb9c10b5	-0.004762734
241	0x3ce2e25e	0.02769583
242	0x3d0e7a73	0.034784745
243	0xbe185ef0	-0.14879966
244	0x3dbaa68d	0.09113798
245	0x3d7135f3	0.05888934
246	0x3d8403c8	0.06446034
247	0xbd4126d0	-0.047156155
248	0xbd8814b2	-0.06644572
249	0xbd311842	-0.043236025
250	0xbd5e7a23	-0.054315697
251	0x3db80145	0.08984617
252	0xbd807cce	-0.062738046
253	0x3db93c67	0.09044724
254	0xbcd347e0	-0.025791109
255	0xbd94373e	-0.07237099

gcn.lin_n.bias f4 [32]
0	0x3dbdaeb1	0.09261835
1	0x3d900933	0.070330046
2	0x3e0bbb7c	0.13645738
3	0x3d04c68b	0.032415908
4	0xbda1a4d7	-0.07892769
5	0x3dbe3b59	0.092886634
6	0xbc36d4c7	-0.0111591285
7	0xbe341010	-0.17584252
8	0x3e103d0d	0.14085789
9	0xbdaca320	-0.08429551
10	0x3dd8a1ee	0.10577761
11	0xbe226292	-0.15857914
12	0x3b9d427c	0.0047991853
13	0x3e34ad63	0.17644267
14	0xbe335c03	-0.17515568
15	0x3c89f5c2	0.01684082
16	0x3d6f3f43	0.05840994
17	0xbdb9594a	-0.09050234
18	0x3d984edd	0.07436917
19	0xbe3a2a8d	-0.18180294
20	0xbe2f1550	-0.17097974
21	0xbe0e046e	-0.13868877
22	0xbe638622	-0.22219136
23	0xbe3449a7	-0.17606221
24	0xbd6393f5	-0.055561025
25	0xbc19fbe6	-0.009398436
26	0xbbe6b9f9	-0.0070412126
27	0x3d312986	0.04325249
28	0x3cf29381	0.029611351
29	0x3d833f65	0.06408576
30	0xbe10ee35	-0.14153369
31	0xbd7908e1	-0.060799483

gcn.lin_r.weight f4 [32, 32]
0	0xbdc13362	-0.094336286
1	0x3d41bdbb	0.04730008
2	0xbd60f0a8	-0.054917008
3	0x3e17afe9	0.14813198
4	0x3d862a62	0.06551053
5	0xbe23d0e5	-0.15997656
6	0xbe0e24e3	-0.13881259
7	0x3e522489	0.2052175
8	0xbe320e9b	-0.17388384
9	0xbd1ef233	-0.038805198
10	0xbd35964e	-0.044332795
11	0xbe096ec1	-0.13421156
12	0xbc27c184	-0.010239009
13	0x3d946367	0.07245522
14	0xbdaaf9f4	-0.08348456
15	0x3d2327ad	0.03983276
16	0xbe19799b	-0.14987795
17	0xbe24f509	-0.16109098
18	0xbe084c9c	-0.13310474
19	0xbd2b81b1	-0.04187173
20	0x3e0b17ac	0.13583249
21	0xbd40928e	-0.047014765
22	0x3dd2993b	0.10283133
23	0xbda36444	-0.079781085
24	0x3c79f8ff	0.015257119
25	0x3d868591	0.065684445
26	0xbe01656e	-0.12636349
27	0xbb909c15	-0.0044131377
28	0xbc08705b	-0.008327569
29	0xbc367af5	-0.011137714
30	0xbe3d7edf	-0.18505429
31	0xbdf1243c	-0.11774489
32	0x3dcdcd2f	0.10048901
33	0xbc2bdfb2	-0.010490345
34	0x3dca3137	0.09872668
35	0xbe2b2fbd	-0.1671743
36	0x3d86de97	0.065854244
37	0xbdaaa3c9	-0.08332021
38	0xbda33632	-0.07969321
39	0x3e1aa5f1	0.15102364
40	0xbe038ecc	-0.12847441
41	0xbd942732	-0.072340384
42	0xbce525a7	-0.027972056
43	0xbdef2271	-0.11676491
44	0xbae303ea	-0.0017319892
45	0xbe04f56e	-0.12984249
46	0x3d70981c	0.058738813
47	0x3d4a28c6	0.04935529
48	0x3e4af3b8	0.19819534
49	0xbd03d91c	-0.032189474
50	0x3d8275f2	0.063701525
51	0xbd9c300b	-0.07626351
52	0x3c6223e2	0.0138025
53	0x3d2b7d60	0.041867614
54	0xbdb83c22	-0.089958444
55	0x3d197730	0.03746718
56	0x3d76bdbb	0.060239535
57	0x3dec7e48	0.11547524
58	0xbb5aad94	-0.003336762
59	0xbdd9815b	-0.10620376
60	0x3cb0df34	0.021590807
61	0xbc8be460	-0.017076671
62	0xbe0df4f6	-0.13862976
63	0x3d9518fc	0.07280156
64	0x3c69912c	0.014255803
65	0x3e5ae2cd	0.2137558
66	0x3cbfecd8	0.023428366
67	0xbdf966b9	-0.12177796
68	0x3cab0d51	0.020880373
69	0x3d2f5ee6	0.04281511
70	0x3c7eae8b	0.015544544
71	0xbcde1ca6	-0.02711327
72	0xbe23ac8a	-0.15983787
73	0x3e075f2f	0.13219903
74	0xbdc83f91	-0.09777749
75	0xbc95de08	-0.01829435
76	0x3d860524	0.06543949
77	0x3dfbcd18	0.12294978
78	0xbcb9f44e	-0.022699501
79	0xbe0c332a	-0.13691393
80	0xbd87b902	-0.06627084
81	0x3dcd3c33	0.10021248
82	0xbdc76864	-0.09736708
83	0xbdd06172	-0.10174836
84	0xbd9607d3	-0.07325711
85	0xbd6aa7db	-0.057288986
86	0x3b9707cd	0.004609084
87	0xbe2174d3	-0.15767221
88	0xbd91bec5	-0.071164645
89	0x3de62234	0.112369925
90	0xbe1ba369	-0.15199055
91	0xbb43f0e6	-0.0029898225
92	0xbd5a8161	-0.05334604
93	0xbd131788	-0.035911113
94	0x3d5fcc9b	0.054638486
95	0xbe3b9fa4	-0.18322617
96	0xbddd6fe5	-0.10812358
97	0xbc09bddd	-0.008407083
98	0xbe22c6cc	-0.15896147
99	0x3d4ecb55	0.05048688
100	0x3de646da	0.112439826
101	0x3e119f79	0.1422099
102	0x3dec48d1	0.11537326
103	0x3e3b1c51	0.1827252
104	0x3da3aba8	0.07991725
105	0x3be29358	0.0069145374
106	0xbcc7505f	-0.024330316
107	0xbd822d14	-0.06356254
108	0xbdabcb97	-0.08388441
109	0x3e304d76	0.17217049
110	0x3d355f19	0.044280145
111	0x3d742ec9	0.05961493
112	0xbd6571f2	-0.05601687
113	0x3d9c505f	0.07632517
114	0x3de71dfd	0.11285017
115	0x3d25c512	0.040471144
116	0x3c98d2c1	0.018655183
117	0xbd6194ba	-0.055073477
118	0x3dc10b8d	0.09426031
119	0xbdbed38c	-0.09317693
120	0x3d60baf0	0.054865777
121	0x3e132377	0.14368998
122	0xbe036f4e	-0.12835428
123	0xbde11bcf	-0.10991632
124	0xbca99e58	-0.020705387
125	0x3d79fe98	0.061033815
126	0x3de42c22	0.1114123
127	0xbdf6bd07	-0.12047773
128	0x3a4d99ee	0.00078430667
129	0x3d9d6f9c	0.076873034
130	0xbd933626	-0.07188062
131	0xbca5f555	-0.020258585
132	0xb890600a	-6.884344e-05
133	0xbb82f654	-0.0039966498
134	0xbb134724	-0.0022472823
135	0x3b0fb8ea	0.0021930286
136	0x3c307472	0.01076995
137	0xbc3e3b4b	-0.011610816
138	0xbd251c1d	-0.040310014
139	0x3b235e5d	0.002492807
140	0x3d889455	0.06668917
141	0x3d89b94c	0.06724796
142	0xbc5d0a56	-0.013491234
143	0xbb1ee164	-0.002424323
144	0x3b26807d	0.0025406175
145	0xba2ea09a	-0.0006661505
146	0xbce175e7	-0.02752204
147	0x3d4de45e	0.050266616
148	0x3d8d2f9c	0.068938464
149	0x3b6b2064	0.003587746
150	0x3b9a1463	0.0047021373
151	0x3cb3c44e	0.021944191
152	0xbd88e019	-0.06683368
153	0x3c753578	0.014966361
154	0xbc52e8ad	-0.012872857
155	0x3b65c6a7	0.0035061033
156	0x3c1566d2	0.009118753
157	0x3d5b7a82	0.05358363
158	0xbb600c3b	-0.0034186977
159	0x3b97112b	0.004610201
160	0x3d0bae51	0.034101788
161	0x3e122846	0.14273176
162	0x3e527176	0.20551094
163	0xbdf73f9d	-0.1207268
164	0x3d9e6bd3	0.077354096
165	0x3d037ce7	0.032101538
166	0x3da77cc2	0.081780925
167	0x3e0b514c	0.13605231
168	0x3d74f535	0.05980416
169	0xbcf884f6	-0.030336838
170	0xbe07b80b	-0.132538
171	0x3dbb97f2	0.09159841
172	0x3d9d59aa	0.07683118
173	0x3e179aa5	0.14805086
174	0x3c85f96f	0.01635429
175	0xbdcb705d	-0.09933541
176	0xbcde3e6a	-0.02712937
177	0x3ddf5a6d	0.10905919
178	0xbd01dcbd	-0.031704653
179	0xbd326d60	-0.04356134
180	0x3e0763cb	0.13221662
181	0x3d677755	0.05651029
182	0x3e07f8fe	0.13278577
183	0x3d5b230e	0.053500228
184	0xbd8791de	-0.06619619
185	0x3e37c697	0.1794685
186	0x3d5d47ac	0.05402343
187	0x3d56c77c	0.052436337
188	0x3e07986c	0.13241738
189	0xbdae6e9a	-0.08517189
190	0xbd920378	-0.07129568
191	0x3e36d2ad	0.17853804
192	0xbcce9075	-0.025215367
193	0x3c5892c9	0.01321859
194	0xbdd18534	-0.102304846
195	0xbc831c3a	-0.01600467
196	0xbd757ed6	-0.059935413
197	0x3dc6ab63	0.09700658
198	0x3d860d00	0.06545448
199	0x3d375a9e	0.044764154
200	0x3d70fd9a	0.058835603
201	0xbcee10c7	-0.029060734
202	0xbd58a831	-0.052894775
203	0xbde150b9	-0.11001725
204	0x3cf235d5	0.029566685
205	0xbd0c1d57	-0.03420767
206	0xbb0b8ab7	-0.0021292397
207	0x3c871746	0.01649059
208	0x3c490288	0.01226867
209	0xbce2c8d8	-0.02768366
210	0xbe75d4ac	-0.24006909
211	0x3dad48a2	0.08461119
212	0x3e31725b	0.1732878
213	0xbbbb1424	-0.005709188
214	0x3d9678b0	0.07347238
215	0x3dae140e	0.08499919
216	0xbdac5fe1	-0.08416725
217	0xbd32a086	-0.04361012
218	0x3da6635b	0.08124419
219	0xbe38c06d	-0.18042155
220	0x3d6d9e5b	0.058012348
221	0x3bb80af8	0.005616542
222	0xbe1c12ac	-0.15241498
223	0xbc37d6ee	-0.011220677
224	0x3d571344	0.052508608
225	0xbc2878d1	-0.010282711
226	0xbd86d446	-0.06583457
227	0x3df8ad0a	0.121423796
228	0xbbec1713	-0.007204899
229	0xbd32ce98	-0.043654054
230	0x3cbb023b	0.022828212
231	0x3b80f702	0.0039356956
232	0xbd8f1ce0	-0.06987929
233	0xbd81a65a	-0.06330557
234	0xbdb09711	-0.08622564
235	0x3aab9a7a	0.0013092302
236	0x3da75b81	0.0817175
237	0xbdaf3ef0	-0.08556926
238	0xbd93d879	-0.07219023
239	0x3c26585d	0.010152903
240	0x3c6e41e4	0.014542077
241	0xbca3c7e8	-0.019992784
242	0xbe2ab409	-0.1667024
243	0x3b9b4372	0.0047382647
244	0x3c911bd4	0.017713465
245	0x3d4437ad	0.04790466
246	0x3d7f8151	0.062379185
247	0xbdd26045	-0.10272268
248	0xbd92eb7a	-0.0717382
249	0x3d4a5e67	0.049406435
250	0xbd772fbc	-0.060348257
251	0x3c620e0f	0.013797297
252	0x3d8151b3	0.06314411
253	0xbd6e311f	-0.058152314
254	0xbd0005a7	-0.03125539
255	0xbc464253	-0.012100774

gcn.lin_2.weight f4 [32, 32]
0	0x3e075b60	0.1321845
1	0xbd874e67	-0.06606751
2	0xbcde633c	-0.027146928
3	0xbe551a03	-0.20810704
4	0x3cd91c0c	0.026502632
5	0xbd478b7e	-0.048717014
6	0xbde50c79	-0.111840196
7	0xbd20d57e	-0.039266102
8	0x3cbb51bb	0.02286612
9	0x3ddb0fdb	0.106963836
10	0xbd967083	-0.07345679
11	0x3c677cdd	0.014128891
12	0x3dbfa5fb	0.0935783
13	0xbe52df5c	-0.20593017
14	0x3cd18b32	0.025579069
15	0xbdf8702c	-0.1213077
16	0x3d14e11a	0.036347486
17	0xbe34afe3	-0.1764522
18	0xbe023ae7	-0.12717782
19	0xbe0f6745	-0.14004238
20	0xbddfadef	-0.10921847
21	0xbe4170a2	-0.18890622
22	0xbe2cbc6d	-0.16868754
23	0xbd1e48a4	-0.038643494
24	0x3d238cad	0.03992908
25	0xbe68f3de	-0.22749278
26	0x3dad3099	0.08456535
27	0x3cba37c5	0.022731671
28	0xbd7e2829	-0.06205002
29	0xbe3044ad	-0.17213698
30	0x3df8106c	0.12112507
31	0xbdfb54e9	-0.12272055
32	0x3d5a91a2	0.053361543
33	0x3e1133e2	0.14179948
34	0xbdc2d4f1	-0.095132716
35	0x3de601e3	0.112308286
36	0xbca94b40	-0.020665765
37	0x3da276c2	0.079328075
38	0x3e887621	0.26652625
39	0x3c3f7f67	0.01168809
40	0x3e1adc31	0.15123059
41	0x3e242c6c	0.1603257
42	0xbe311028	-0.1729132
43	0xbd65ebe0	-0.05613315
44	0xbd121358	-0.03566298
45	0x3e0e9a7a	0.13926116
46	0x3a09687b	0.0005241704
47	0x3d0e2138	0.03469965
48	0xbce1fa7f	-0.027585266
49	0x3d97d55a	0.074137405
50	0x3dd2373f	0.102644436
51	0x3d40e060	0.04708898
52	0x3e19165e	0.14949939
53	0x3bdc03f3	0.006714338
54	0x3e2ab0a9	0.16668953
55	0x3d82cade	0.0638635
56	0xbda02b31	-0.07820738
57	0x3e1ccacf	0.1531174
58	0xbe459472	-0.19294909
59	0x3d9c185b	0.07621833
60	0xbde6b4fa	-0.11264987
61	0xbdeaa627	-0.11457472
62	0xbe6260b9	-0.2210721
63	0x3e2b16a2	0.16707852
64	0x3d1f5a02	0.038904198
65	0x3d86cf7f	0.065825455
66	0x3d8c82fd	0.068609215
67	0xbd93f5a5	-0.07224587
68	0xbc997a52	-0.018735085
69	0xbe2eb8b9	-0.17062654
70	0x3e394b25	0.18095072
71	0x3e079c57	0.13243233
72	0xbe13bf05	-0.14428337
73	0xbb9f3605	-0.0048587346
74	0x3d4726e2	0.048621066
75	0xb9c9f1ef	-0.00038517962
76	0x3d388c94	0.04505594
77	0xbc11a0a1	-0.008888395
78	0xbc24a4b0	-0.01004903
79	0x3d1a6031	0.03768939
80	0xbd737793	-0.059440207
81	0xbd8c1471	-0.068398364
82	0xbd90e523	-0.07074954
83	0x3e11c623	0.1423574
84	0x3dd97274	0.10617533
85	0xbdcf7f08	-0.10131651
86	0x3c8dbe23	0.017302578
87	0xbd51312e	-0.051072292
88	0xbcd5ba28	-0.026089743
89	0x3e12af1b	0.1432461
90	0xbe511286	-0.20417222
91	0x3dfa97dc	0.12235996
92	0x3b43b43a	0.0029862062
93	0xbdba5ddf	-0.09099936
94	0xbe1511d7	-0.14557587
95	0x3e7df068	0.24798739
96	0xbccb9bad	-0.024854505
97	0x3e288f1c	0.16460842
98	0xbdb1786d	-0.086655475
99	0x3de47661	0.111553915
100	0x3d0718de	0.0329827
101	0xbe0fe332	-0.14051512
102	0x3de79578	0.11307806
103	0x3d53a514	0.051671103
104	0xbd20e13e	-0.039277308
105	0xbd86c351	-0.065802224
106	0x3d7c6b8f	0.061626013
107	0x3dfeec2d	0.12447391
108	0x3e1e7def	0.15477727
109	0x3e013f70	0.12621856
110	0x3d38a285	0.045076866
111	0xbc973ed6	-0.01846258
112	0x3e207a57	0.15671669
113	0xbe3d8207	-0.18506633
114	0x3d136569	0.035985384
115	0x3cc85e83	0.02445913
116	0xbdae5b6b	-0.0851353
117	0xbdf26d49	-0.11837251
118	0x3d6ef17d	0.05833577
119	0xbd85e76f	-0.06538283
120	0x3d60a1db	0.054841857
121	0xbd07ebc8	-0.033183843
122	0x3d515673	0.051107835
123	0xbd3d7a46	-0.046259187
124	0xbdbbc0df	-0.091676466
125	0x3dd04893	0.101700924
126	0x3e00eaf2	0.12589625
127	0x3cd32598	0.025774762
128	0xbde37524	-0.11106327
129	0x3dca803f	0.09887742
130	0xbe060249	-0.13086809
131	0xbcc52e6c	-0.024069987
132	0xbafe0d04	-0.0019382541
133	0xbdeaa714	-0.11457649
134	0xbda93b72	-0.082632914
135	0xbc74770f	-0.014920964
136	0xbd5a308d	-0.053268958
137	0x3e1c5497	0.15266643
138	0xbca58014	-0.020202674
139	0x3e0d3306	0.13788995
140	0x3d911310	0.07083714
141	0xbe2e9b3b	-0.17051403
142	0xbc67b6c5	-0.014142697
143	0xbe3c0f65	-0.18365248
144	0x3e1cef50	0.15325665
145	0xbea878e9	-0.32904747
146	0xbd9879fa	-0.0744514
147	0xbe4a18c6	-0.19736013
148	0xbe17cc0e	-0.14823934
149	0xbe0ef6e4	-0.13961369
150	0xbd823228	-0.06357223
151	0x3d613a52	0.05498726
152	0x3c8bb858	0.017055675
153	0xbe709dd6	-0.2349771
154	0xbde94a16	-0.11391084
155	0xbc3c369c	-0.011487629
156	0xbb5808f1	-0.0032964314
157	0xbd96030e	-0.073248014
158	0x3d009492	0.031391688
159	0x3c84e8aa	0.016224224
160	0xbd587ba8	-0.052852303
161	0xbe12172d	-0.14266653
162	0xbdd88367	-0.10571938
163	0x3db9e192	0.09076227
164	0x3bdddb33	0.0067705153
165	0xbd9c7edd	-0.07641385
166	0xbc62f088	-0.013851292
167	0xbdb6cf71	-0.08926285
168	0x3d28f39c	0.04124795
169	0x3e740aef	0.23832296
170	0xbe2f8d82	-0.17143825
171	0x3cb5f1b4	0.02220998
172	0xbc1a2553	-0.009408313
173	0xbe4e3121	-0.20135929
174	0xbd4001c4	-0.046876684
175	0xbd6e9dfc	-0.058256134
176	0x3e8b676f	0.2722735
177	0xbeabdcae	-0.33566803
178	0x3df1bb1a	0.11803265
179	0x3db4f94b	0.08836611
180	0xbde1d3aa	-0.110267
181	0xbebdbe22	-0.37059122
182	0xbb2483a3	-0.0025102876
183	0x3d920d50	0.071314454
184	0x3d3423ee	0.043979578
185	0xbd7c2fd5	-0.061569054
186	0xbcd682fe	-0.026185509
187	0x3d27d531	0.0409748
188	0xbda28945	-0.07936338
189	0x3d9ff3d8	0.078101814
190	0xbe17ae49	-0.14812578
191	0x3de3fdcd	0.11132393
192	0x3dffb81a	0.124862865
193	0xbd229d08	-0.039700538
194	0xbc3ba100	-0.01145196
195	0x3d3a5090	0.045486987
196	0x3d042c4d	0.03226881
197	0x3de8776f	0.11350905
198	0xbd82c9f3	-0.06386175
199	0x3dde47d0	0.10853541
200	0x3d8a345d	0.06748269
201	0xbcd371e2	-0.02581114
202	0x3dcf834e	0.10132466
203	0xbd84741b	-0.06467458
204	0x3e0fb25e	0.14032885
205	0xbe641a78	-0.22275722
206	0xbbd353d8	-0.006449204
207	0x3d3fdc96	0.046841227
208	0x3e21d540	0.15804005
209	0xbde8d9a5	-0.113696374
210	0x3e027f65	0.1274391
211	0xbd90ea8b	-0.070759855
212	0xbdad625f	-0.084660284
213	0xbe49018b	-0.19629495
214	0xbdc965d0	-0.09833872
215	0xbd088a22	-0.03333486
216	0x3d3e6726	0.04648509
217	0xbd6ff79b	-0.058585744
218	0x3d3d5ec4	0.046232954
219	0xbd848786	-0.064711615
220	0x3d22561f	0.039632913
221	0xbdd8ded6	-0.105893776
222	0x3e248f89	0.1607038
223	0xbd40092c	-0.046883747
224	0xbe1d77a2	-0.15377668
225	0x3da7589b	0.08171197
226	0x3e03cd57	0.128713
227	0xbe2230e9	-0.1583897
228	0xbd05a588	-0.032628566
229	0x3e0e255e	0.13881442
230	0xbd785bd2	-0.06063444
231	0x3d8b9b37	0.06816714
232	0x3de0a778	0.10969442
233	0xbd4da630	-0.050207317
234	0xbd4761c8	-0.048677236
235	0x3da53e31	0.08068503
236	0x3d9ab92f	0.07554852
237	0xbe4302a0	-0.1904397
238	0xbc243840	-0.010023177
239	0xbc816097	-0.015793128
240	0x3dfc890d	0.12330828
241	0x3e3062bc	0.17225164
242	0x3e912af2	0.28353077
243	0x3dbe599e	0.09294437
244	0xbcb6c4a8	-0.02231057
245	0xbcf70c45	-0.030157218
246	0xbba9ca97	-0.0051816213
247	0xbd44cf66	-0.048049353
248	0xbdc25706	-0.09489255
249	0x3e0d0f81	0.13775446
250	0xbd79ad8b	-0.06095652
251	0xbc1f919b	-0.009739305
252	0xbcb44558	-0.022005722
253	0x3dc03bc6	0.09386401
254	0xbd45d332	-0.048297115
255	0xbda27020	-0.079315424

gcn.lin_2.bias f4 [32]
0	0x3e05b059	0.13055553
1	0xbe3bd13b	-0.18341534
2	0xbcdc3971	-0.026882859
3	0xbc9af42f	-0.018915264
4	0x3e0529bc	0.13004202
5	0x3cd1eb9f	0.025625048
6	0x3d00025e	0.031252258
7	0xbe0c81ef	-0.1372144
8	0x3d03ea97	0.032206144
9	0x3d30f2e5	0.043200392
10	0x3dab5084	0.083649665
11	0xbcd4c2e9	-0.025971847
12	0xbe349d32	-0.1763809
13	0x3ddde221	0.10834146
14	0xbdc185e1	-0.094493635
15	0xbdaafe3d	-0.08349273
16	0xbe4020d7	-0.18762527
17	0xbc8ed138	-0.017433748
18	0x3e2a823d	0.16651244
19	0xbc2105d6	-0.009828052
20	0x3e24a35c	0.16077942
21	0x3e0a2a2a	0.13492647
22	0x3c2f0130	0.0106814355
23	0xbe24f102	-0.16107562
24	0xbe219900	-0.15781021
25	0x3d28acf3	0.041180562
26	0x3de51ae8	0.111867726
27	0xbd86e975	-0.06587497
28	0x3cd9eafc	0.026601307
29	0xbdd8a378	-0.10578054
30	0xbdb15634	-0.0865902
31	0x3dde1fba	0.10845895

nf.base_dist_mean f4 [51, 1]
0	0xbf16d692	-0.5892116
1	0x3d805fa6	0.062682435
2	0xbee9f048	-0.45691133
3	0xbe7a0e90	-0.24419618
4	0xbe89b3d2	-0.26895005
5	0xbc64f36c	-0.013974052
6	0xbf81d202	-1.0142214
7	0xc0005d30	-2.0056877
8	0xbf52f47d	-0.8240431
9	0x3f9048e9	1.127225
10	0x3d6509c5	0.05591752
11	0xbf890db4	-1.0707307
12	0xbf7c6b1d	-0.9860094
13	0xbecd57d1	-0.4010606
14	0x3e24ae88	0.16082203
15	0x3f3d488c	0.7393882
16	0xbf9a2d70	-1.2045116
17	0xbf0df74e	-0.5545548
18	0xbdb7e987	-0.08980089
19	0xbd01787c	-0.031609043
20	0xbfed10fa	-1.8520806
21	0x3fadc2fc	1.357513
22	0xbfb83b91	-1.4393178
23	0x3fd654e0	1.6744652
24	0x3fe52e38	1.790473
25	0x3f47a2b7	0.7798266
26	0xbf1c46b3	-0.6104538
27	0xbe71ffeb	-0.23632781
28	0xbf64b5a7	-0.8933968
29	0x3ec718bc	0.38886058
30	0xbe49cbe8	-0.1970669
31	0x3f0bd353	0.5461933
32	0x3f9e3650	1.2360325
33	0xbe0fd682	-0.14046672
34	0xbd9ac32d	-0.07556758
35	0xbe31d460	-0.17366171
36	0x3f7fb833	0.9989044
37	0x3f8f7bf4	1.1209702
38	0xbf53a1e3	-0.82668895
39	0xbf9a5e1b	-1.2059969
40	0x3ebb79a5	0.36616245
41	0xbc394133	-0.011307049
42	0x3fe3fcc1	1.7811509
43	0x3f12055d	0.57039434
44	0xc0138b1c	-2.3053656
45	0x3e01ee97	0.12688671
46	0x3f91e296	1.1397274
47	0x3fd04164	1.6269956
48	0xbece179b	-0.40252385
49	0x3f028da0	0.5099735
50	0xbe12827d	-0.1430759

nf.base_dist_var f4 [51, 1]
0	0x3f800000	1.0
1	0x3f800000	1.0
2	0x3f800000	1.0
3	0x3f800000	1.0
4	0x3f800000	1.0
5	0x3f800000	1.0
6	0x3f800000	1.0
7	0x3f800000	1.0
8	0x3f800000	1.0
9	0x3f800000	1.0
10	0x3f800000	1.0
11	0x3f800000	1.0
12	0x3f800000	1.0
13	0x3f800000	1.0
14	0x3f800000	1.0
15	0x3f800000	1.0
16	0x3f800000	1.0
17	0x3f800000	1.0
18	0x3f800000	1.0
19	0x3f800000	1.0
20	0x3f800000	1.0
21	0x3f800000	1.0
22	0x3f800000	1.0
23	0x3f800000	1.0
24	0x3f800000	1.0
25	0x3f800000	1.0
26	0x3f800000	1.0
27	0x3f800000	1.0
28	0x3f800000	1.0
29	0x3f800000	1.0
30	0x3f800000	1.0
31	0x3f800000	1.0
32	0x3f800000	1.0
33	0x3f800000	1.0
34	0x3f800000	1.0
35	0x3f800000	1.0
36	0x3f800000	1.0
37	0x3f800000	1.0
38	0x3f800000	1.0
39	0x3f800000	1.0
40	0x3f800000	1.0
41	0x3f800000	1.0
42	0x3f800000	1.0
43	0x3f800000	1.0
44	0x3f800000	1.0
45	0x3f800000	1.0
46	0x3f800000	1.0
47	0x3f800000	1.0
48	0x3f800000	1.0
49	0x3f800000	1.0
50	0x3f800000	1.0

nf.net.0.net_input.weight f4 [32, 1]
0	0x3f2fd2a8	0.6868081
1	0x3ed9cdb8	0.42539763
2	0x3f45be0d	0.7724312
3	0xbf346ca1	-0.70478255
4	0x3f74f2eb	0.95683163
5	0xbea180ca	-0.3154357
6	0xbe5404fa	-0.20705023
7	0xbee73ee6	-0.45165175
8	0xbe8cb19d	-0.27479258
9	0x3eb94f6d	0.3619341
10	0xbf0be200	-0.54641724
11	0x3f456a20	0.7711506
12	0x3c81494c	0.015782021
13	0xbf36a05a	-0.7133843
14	0xbf55ef19	-0.8356796
15	0x3f208956	0.6270956
16	0x3f39ad96	0.72530496
17	0x3f10ac52	0.5651294
18	0x3f3149a2	0.6925298
19	0xbe90f658	-0.28312945
20	0x3eb4ef73	0.35338935
21	0xbf5bbf33	-0.8583862
22	0x3f08d535	0.5345033
23	0xbeec3127	-0.4613125
24	0x3f1d88d1	0.6153689
25	0xbc5c4dd6	-0.013446292
26	0xbe9e909d	-0.30969706
27	0xbe1aee31	-0.15129925
28	0xbf2c6d02	-0.6735383
29	0x3f273e12	0.65329087
30	0x3f20e0b6	0.6284288
31	0x3f49525e	0.7864131

nf.net.0.net_input.bias f4 [32]
0	0x3d0f1724	0.034934178
1	0xbeb55e0c	-0.35423315
2	0x3f4f1c07	0.8090214
3	0xbf3e6432	-0.74371636
4	0xbefe96cd	-0.49724427
5	0x3e6aa7e4	0.22915608
6	0x3e707f18	0.23485982
7	0xbf2e81d0	-0.6816683
8	0x3c0c5f37	0.008567623
9	0x3f2596a4	0.64682984
10	0xbf58e63c	-0.8472631
11	0xbf136444	-0.5757487
12	0x3f0b6880	0.5445633
13	0xbf8e5a7c	-1.1121364
14	0xbf996816	-1.198489
15	0xbf497ca9	-0.7870584
16	0xbec90c11	-0.39267018
17	0x3f5a1f3f	0.8520393
18	0x3f940fd4	1.156733
19	0x3f2eeda9	0.6833139
20	0x3ef4d016	0.47815007
21	0x3f4c6857	0.7984671
22	0x3f20dd45	0.6283763
23	0xbf174015	-0.59082156
24	0x3f2f0868	0.683722
25	0xbe889e7c	-0.26683414
26	0x3e3efc37	0.186509
27	0x3e1cc52f	0.15309595
28	0x3e6d49c8	0.23172677
29	0x3ef7f7de	0.48431295
30	0xbede4419	-0.4341133
31	0xbdc7e8e9	-0.09761221

nf.net.0.net_input.cond_weight f4 [32, 32]
0	0x3dc90bb7	0.098166876
1	0xbd86bc68	-0.065789044
2	0xbd0305b1	-0.03198785
3	0x3e13db97	0.14439236
4	0x3e207bdf	0.15672253
5	0x3e0a6458	0.1351484
6	0x3dd5d7b2	0.10441531
7	0x3d5cfcc3	0.05395199
8	0x3cda6668	0.02666016
9	0x3e4293e2	0.19001725
10	0x3e517b60	0.2045722
11	0x3d629381	0.055316452
12	0x3dd042ae	0.10168968
13	0x3e7ecb95	0.24882348
14	0x3dc79928	0.09746009
15	0x3ca38b3a	0.01996385
16	0x3c54d89d	0.012991098
17	0x3dc8db6b	0.09807476
18	0x3e108eee	0.14117023
19	0x3d909846	0.07060294
20	0x3dc8fd76	0.09813969
21	0x3e43818e	0.1909239
22	0x3dc7531b	0.09732648
23	0x3c861493	0.016367232
24	0xbd8c0b17	-0.06838053
25	0x3de04073	0.10949793
26	0x3e4372ea	0.19086805
27	0x3cccbda7	0.024992777
28	0x3e0246d2	0.12722328
29	0x3d41d11e	0.04731857
30	0x3dc90218	0.098148525
31	0x3e28bbca	0.16477886
32	0x3db80c6f	0.089867465
33	0x3e0c8b47	0.13725005
34	0x3e30b1ac	0.17255276
35	0x3c798b52	0.01523097
36	0x3cb71384	0.022348173
37	0x3cd36d95	0.025809089
38	0x3d1ddbf4	0.03853984
39	0x3da3139a	0.07962723
40	0x3dcb7dc7	0.099360995
41	0xbcad682d	-0.021167839
42	0x3d2eb68c	0.04265456
43	0x3dd04768	0.1016987
44	0x3e20b205	0.15692909
45	0xba19bd51	-0.0005864697
46	0x3d1f6b73	0.03892083
47	0x3dc48048	0.0959478
48	0x3d3c7350	0.046008408
49	0x3daef1b8	0.08542198
50	0xbc9cfd93	-0.019163882
51	0x3e25964c	0.16170615
52	0x3e02b1e2	0.1276317
53	0x3d19a44e	0.03751021
54	0x3dade465	0.084908284
55	0x3d173e2a	0.03692452
56	0x3d820c16	0.063499615
57	0x3e4e6ee5	0.2015949
58	0x3d2e05bf	0.04248595
59	0x3dc89188	0.09793383
60	0x3d2bd9af	0.041955646
61	0x3d8b9e8f	0.06817352
62	0x3df56c12	0.119835034
63	0x3db1d6f2	0.08683576
64	0x3e26e901	0.16299821
65	0x3e1783bf	0.14796351
66	0x3d5a48d2	0.053292103
67	0x3dc343ce	0.09534417
68	0x3e348169	0.17627491
69	0x3e26eac5	0.16300495
70	0x3e03504a	0.12823597
71	0x3e0a81e2	0.13526109
72	0xbc8e7f8f	-0.017394809
73	0x3dab3567	0.08359795
74	0x3da94f5d	0.082670905
75	0xbc89cc8b	-0.016821167
76	0x3d64f268	0.05589524
77	0x3dd37892	0.10325731
78	0x3dc5b746	0.09654097
79	0x3dbeb5ca	0.09312017
80	0x3dcfb3a7	0.10141688
81	0x3e19f9f6	0.15036759
82	0x3e1e08ea	0.15433088
83	0x3d43c1ad	0.047792125
84	0x3bca4c88	0.006173674
85	0x3c6c98c3	0.014440718
86	0x3da51cca	0.08062132
87	0x3e2aae57	0.16668068
88	0x3d77d8fb	0.060509663
89	0xbc9489b8	-0.018132076
90	0x3d243ccb	0.04009704
91	0x3d26c3da	0.040714122
92	0x3e1fb4f5	0.15596373
93	0x3d900063	0.07031324
94	0x3d16de2f	0.036832985
95	0x3c8f5111	0.01749471
96	0x3c90a975	0.017658928
97	0x3dc61646	0.09672217
98	0x3dbd56fe	0.09245108
99	0x3dc93571	0.09824646
100	0x3da9267e	0.08259295
101	0xbd09de1d	-0.03365909
102	0x3d01b7fb	0.031669598
103	0x3c836540	0.01603949
104	0x3db4d945	0.088305034
105	0x3df95531	0.12174452
106	0x3c03c485	0.008042459
107	0x3db1b46d	0.086769916
108	0x3dc30f2c	0.09524378
109	0x3cfb83bc	0.030702464
110	0x3dbaa82c	0.091141075
111	0x3dab625e	0.083683714
112	0x3d5aaa0c	0.053384826
113	0x3dba124b	0.0908552
114	0x3abddeb8	0.0014485931
115	0x3e475171	0.19464661
116	0x3e1a9299	0.15094985
117	0x3dea2661	0.114331014
118	0x3d89ce2a	0.06728776
119	0x3e08524c	0.13312644
120	0x3dc6e60b	0.09711846
121	0x3d885d14	0.06658378
122	0xbc881973	-0.016613698
123	0x3e27f8bc	0.16403478
124	0x3d87f840	0.06639147
125	0x3e05688d	0.13028164
126	0x3d6d264c	0.05789785
127	0x3df3c2dc	0.11902401
128	0x3d86e006	0.06585698
129	0x3d9eebb0	0.077597976
130	0x3e2f1aeb	0.17100112
131	0x3d7aea33	0.061258506
132	0x3dfcc657	0.12342518
133	0x3e016222	0.12635091
134	0x3e0cd67d	0.13753696
135	0x3e538e86	0.20659837
136	0x3da66391	0.081244595
137	0x3d5e6320	0.05429375
138	0x3d9e594e	0.07731877
139	0x3e2a9732	0.16659239
140	0x3ddf6433	0.10907783
141	0xbd2a942d	-0.041645218
142	0x3e1e9e13	0.15489988
143	0x3d7a0559	0.061040256
144	0x3e16ac0a	0.14714065
145	0x3d92cf8f	0.07168495
146	0x3c13d4e7	0.009022928
147	0x3dfc70e2	0.12326218
148	0x3dfd364d	0.12363873
149	0x3e0ba201	0.13636018
150	0xbc09533b	-0.00838166
151	0x3e15e36a	0.14637533
152	0x3e3518fb	0.1768531
153	0x3d9baba2	0.07601096
154	0x3d0eaccf	0.034832772
155	0x3e0d8909	0.13821806
156	0xbd018402	-0.031620033
157	0x3dd9262f	0.10602986
158	0x3ddaa480	0.10675907
159	0x3d1982dd	0.037478317
160	0x3e208c33	0.15678482
161	0xbd3670db	-0.04454122
162	0x3d901dfc	0.07036969
163	0x3d98655f	0.0744121
164	0x3d92fbaf	0.07176911
165	0x3e429e01	0.19005586
166	0x3d548c11	0.05189139
167	0x3cd108b8	0.025516853
168	0x3d703a15	0.05864914
169	0x3e4be05e	0.19909808
170	0x3e194258	0.14966714
171	0x3cc18efb	0.023627749
172	0x3dd12554	0.10212198
173	0x3e2cc382	0.16871455
174	0x3ce661bb	0.028122773
175	0x3bb52aa7	0.005528766
176	0x3b31ee4b	0.002715009
177	0x3e391db6	0.1807774
178	0x3e4cec68	0.20012057
179	0x3a19fad2	0.0005873862
180	0x3e66e31f	0.22547577
181	0x3da9a6a3	0.082837366
182	0x3dcb6862	0.09932019
183	0xbd55d591	-0.052205626
184	0x3d868e87	0.06570154
185	0x3e1adf8a	0.15124336
186	0x3e33d3fe	0.17561337
187	0x3c8b0499	0.016969966
188	0x3db26b85	0.08711914
189	0xbd36665e	-0.04453122
190	0x3bbd8bdb	0.0057844943
191	0x3e46c19a	0.1940979
192	0x3dfc3826	0.12315397
193	0x3d6348ae	0.055489235
194	0x3db0639c	0.08612749
195	0x3d313222	0.0432607
196	0x3e13b0d9	0.14422931
197	0x3e069e8d	0.1314642
198	0x3e0efa26	0.13962612
199	0x3e25d418	0.16194189
200	0x3c9c521f	0.019082127
201	0x3dc79fe4	0.097472936
202	0x3da61d33	0.08111038
203	0x3e11ef66	0.1425148
204	0x3e49c0d3	0.19702463
205	0xba62e62a	-0.0008655513
206	0x3e4ca555	0.19984944
207	0x3dc6cb13	0.09706702
208	0x3d9e6ee8	0.077359974
209	0x3e26f436	0.16304097
210	0x3e07c77a	0.13259688
211	0x3d94c291	0.07263673
212	0x3da84303	0.082159065
213	0x3d39c43e	0.045353167
214	0x3d8c8143	0.06860592
215	0x3d6dad3d	0.05802654
216	0x3dd72055	0.10504214
217	0x3c803c0c	0.015653633
218	0xbc927710	-0.017879039
219	0x3e53c91c	0.20682186
220	0x3e01fa38	0.12693107
221	0x3df6e1fb	0.12054821
222	0x3d799b16	0.060938917
223	0x3d795685	0.060873527
224	0x3d9e75b4	0.07737294
225	0x3db86c57	0.09005039
226	0x3d8c52af	0.06851708
227	0x3e0aaef4	0.13543302
228	0x3e28c79f	0.164824
229	0x3d553cc1	0.052059893
230	0x3e1ee0f6	0.15515503
231	0x3cc8178f	0.024425296
232	0x3d2e6fa0	0.042586923
233	0xbb6166e2	-0.0034393598
234	0x3e171b83	0.14756589
235	0x3d1f60e6	0.03891077
236	0x3decf265	0.115696706
237	0x3e0e5451	0.13899352
238	0x3dbbfa1b	0.09178563
239	0x3dbae694	0.091260105
240	0x3d47c929	0.048775826
241	0x3c1c7145	0.00954849
242	0x3dfca662	0.123364225
243	0x3de19aae	0.11015831
244	0x3caf222d	0.021378601
245	0x3e112aac	0.14176434
246	0x3b94123f	0.0045187767
247	0x3df710e3	0.12063768
248	0x3da2c071	0.079468615
249	0x3e35273d	0.1769075
250	0x3db946f6	0.09046738
251	0x3d8dbc1b	0.06920644
252	0x3e1ce948	0.15323365
253	0x3e055442	0.13020423
254	0x3c841e39	0.016127693
255	0x3e439a65	0.19101866

nf.net.0.net_input.mask f4 [32, 1]
0	0x3f800000	1.0
1	0x3f800000	1.0
2	0x3f800000	1.0
3	0x3f800000	1.0
4	0x3f800000	1.0
5	0x3f800000	1.0
6	0x3f800000	1.0
7	0x3f800000	1.0
8	0x3f800000	1.0
9	0x3f800000	1.0
10	0x3f800000	1.0
11	0x3f800000	1.0
12	0x3f800000	1.0
13	0x3f800000	1.0
14	0x3f800000	1.0
15	0x3f800000	1.0
16	0x3f800000	1.0
17	0x3f800000	1.0
18	0x3f800000	1.0
19	0x3f800000	1.0
20	0x3f800000	1.0
21	0x3f800000	1.0
22	0x3f800000	1.0
23	0x3f800000	1.0
24	0x3f800000	1.0
25	0x3f800000	1.0
26	0x3f800000	1.0
27	0x3f800000	1.0
28	0x3f800000	1.0
29	0x3f800000	1.0
30	0x3f800000	1.0
31	0x3f800000	1.0
