checkpoint/SWaT/model.pth (torch, 131181 bytes, 27 tensors)

rnn.weight_ih_l0 f4 [128, 1]
-0.022295173 0.047472846 -0.054416254 -0.16473636 0.056008782 -0.09401187 0.17155924 0.07499984
0.14672826 0.10554283 0.10110362 0.08052864 -0.10001445 -0.18452139 0.18343256 0.1450865
-0.004657769 0.089708954 0.09788926 -0.054936167 0.11314488 -0.050113223 0.057834107 -0.00043929
-0.065123565 0.05820236 0.115424335 -0.041955847 -0.019754235 -0.135698 0.03723318 -0.20269287
0.07205541 -0.04231338 -0.08878101 -0.13473466 0.03492871 -0.14189789 -0.100900374 -0.00044152112
0.08489223 -0.1246523 -0.10155543 -0.045234002 -0.119141825 -0.115434214 0.01950357 0.056065463
-0.0011253662 0.13725434 -0.008804418 -0.20048967 0.20194972 -0.06991412 0.026220618 0.021796789
-0.034271225 -0.18564507 -0.09051453 0.015990516 -0.015768602 0.054594 0.025290556 -0.15314163
0.0112790335 0.22517574 0.00637212 -0.09317362 0.18147449 0.025059871 0.083945595 -0.06876008
-0.18369263 0.13934383 0.110063754 -0.024978409 0.18507579 0.19653264 -0.22039247 0.0509235
0.08828505 -0.030077087 0.06115647 -0.12724537 -0.14874162 -0.13036093 0.016700065 -0.085445516
0.010225502 0.08810519 -0.05986711 -0.07310555 -0.023969587 0.0984685 -0.15279081 -0.06836737
-0.14916885 -0.020865018 -0.13089588 0.05129605 0.003689657 -0.047280543 -0.15489034 -0.13431619
0.013645885 0.071823694 0.03297059 -0.0016172051 -0.024353398 0.025315272 -0.023806317 0.15000653
0.2031189 -0.17695259 0.1033708 0.12810421 0.14830081 -0.007265252 -0.12022378 0.06928741
-0.036887534 0.117524326 -0.12436351 0.007969995 -0.022657597 0.049422745 -0.1579511 -0.068450436
00000000: 5ea4 b6bc e372 423d 94e3 5ebd a6b0 28be
00000010: 7769 653d 4c89 c0bd 3aad 2f3e 8499 993d
00000020: ef3f 163e d726 d83d 6a0f cf3d 33ec a43d
00000030: 60d4 ccbd 2df3 3cbe bfd5 3b3e 8e91 143e
00000040: 33a0 98bb 54b9 b73d 2a7a c83d bf04 61bd
00000050: 81b8 e73d 8643 4dbd 75e3 6c3d 8150 e6b9
00000060: 815f 85bd 9965 6e3d 9863 ec3d e5d9 2bbd
00000070: a2d3 a1bc 6bf4 0abe d281 183d b88e 4fbe
00000080: c991 933d cb50 2dbd d1d2 b5bd e2f7 09be
00000090: 6811 0f3d ae4d 11be dba4 cebd f67b e7b9
000000a0: fadb ad3d b449 ffbd 4bfc cfbd 4a47 39bd
000000b0: a100 f4bd c668 ecbd f3c5 9f3c e6a4 653d
000000c0: 0681 93ba 678c 0c3e 6840 10bc 2a4d 4dbe
000000d0: e8cb 4e3e 222f 8fbd 9fcc d63c 2e8f b23c
000000e0: fc5f 0cbd be19 3ebe af5f b9bd 8bfe 823c
000000f0: 282d 81bc f59d 5f3d 242e cf3c 29d1 1cbe
00000100: b2cb 383c 7894 663e 38cd d03b d0d1 bebd
00000110: 73d4 393e 5c4a cd3c abeb ab3d 16d2 8cbd
00000120: ec19 3cbe 26b0 0e3e 1b69 e13d 859f ccbc
00000130: 8284 3d3e da3f 493e 90ae 61be 2995 503d
00000140: cbce b43d 3964 f6bc 357f 7a3d 9c4c 02be
00000150: b94f 18be 567d 05be 93ce 883c 0ffe aebd
00000160: dd88 273c 7e70 b43d 3737 75bd 5db8 95bd
00000170: de5b c4bc daa9 c93d 3275 1cbe 3104 8cbd
00000180: b8bf 18be 1ded aabc 9209 06be cf1b 523d
00000190: 2cce 713b 3ea9 41bd 939b 1ebe 2f8a 09be
000001a0: fd92 5f3c 4d18 933d 2b0c 073d 66f8 d3ba
000001b0: c780 c7bc f961 cf3c 7705 c3bc 509b 193e
000001c0: 67fe 4f3e 0f33 35be 12b4 d33d c02d 033e
000001d0: 2bdc 173e 5a11 eebb e337 f6bd 8fe6 8d3d
000001e0: 6217 17bd 98b0 f03d 4cb2 febd 9594 023c
000001f0: 6d9c b9bc 816f 4a3d efbd 21be be2f 8cbd

rnn.weight_hh_l0 f4 [128, 32]
0.027179118 0.09342378 -0.13476539 0.08121974 0.04704878 -0.09166593 0.001996339 -0.11163584
0.03643243 0.08000332 -0.005057182 0.049035452 0.052132834 -0.0022596812 -0.15403312 -0.056026906
-0.08467734 0.02648775 0.11835879 -0.08318609 -0.07557273 -0.073365204 -0.08371367 -0.03446602
-0.008981643 -0.08577616 0.13138476 -0.11440022 -0.049331747 0.07256799 0.10767353 -0.1328752
-0.0334638 -0.01935533 -0.04558792 0.02726479 -0.1411615 -0.07401237 0.10652471 0.090486236
0.17276464 -0.07514725 -0.026264112 0.07280466 0.043728586 -0.023530632 -0.00061446324 -0.000871868
0.0023946424 -0.060632367 0.06741368 -0.14746232 -0.073605776 0.034048066 0.11007283 0.0879659
0.03595707 -0.1339529 0.10635408 0.09938549 0.13823034 0.115077585 -0.095125824 0.15197933
0.07510881 0.12131158 0.07634555 0.107910685 0.08941366 0.14810309 -0.045717485 0.116434015
-0.07537329 -0.12280186 0.13486618 0.04200647 0.09998917 -0.096340254 0.10975307 -0.118615285
-0.063033454 -0.00229915 -0.06209476 0.0979745 0.15235275 0.06809386 -0.044446807 0.0048836367
-0.04836138 -0.049622938 -0.066462286 0.10553418 -0.056768887 0.035563145 0.0033407612 -0.06770315
-0.04607367 -0.121616274 0.01821783 0.08059032 -0.11847336 0.05855367 -0.092528105 -0.048680954
-0.047355942 0.05455229 0.1410406 0.10617782 -0.045197017 0.038742073 0.07818197 0.15549186
0.08271806 -0.05814994 0.124510095 0.15655203 -0.062395386 0.059842322 0.026414784 -0.12020314
0.10229927 -0.024462348 0.10963487 0.08456259 0.0017200602 0.1258942 0.14262423 0.081896506
-0.08032839 -0.15850526 0.0052281516 0.16482678 0.06385929 -0.08726568 -0.040858123 0.08001364
0.13694471 -0.07611798 0.06508174 -0.13216698 -0.12427195 -0.09380248 0.06888708 0.12487352
-0.025792923 -0.07560396 0.011607398 0.14806707 0.11086129 0.10911095 0.033776194 -0.051841244
-0.11166461 -0.13525026 -0.13168216 -0.094056964 -0.11549455 -0.12205811 -0.086639285 -0.08144453
-0.019311996 0.020533018 0.016170738 -0.022474675 -0.11437468 0.02685746 0.025895221 -0.027351182
0.086554356 -0.11291854 0.040170472 0.05431938 0.050778437 0.009870645 -0.14656441 0.14785436
0.07097991 -0.02536697 -0.08258872 0.108337685 -0.10881057 -0.10081015 0.09610855 0.05900122
0.0034275642 0.113553695 -0.08322127 0.039695848 -0.05865226 0.08299439 0.041425373 0.0015709108
-0.053271096 -0.06471242 -0.15508431 0.08590873 0.1463125 0.17175317 0.10673944 -0.08233969
0.13452986 -0.023360401 -0.008180847 0.0954708 -0.11368833 0.08465674 -0.14147006 -0.010010109
-0.08883508 -0.0638799 -0.1078875 0.022785878 0.096535854 0.1318395 0.07008434 0.13266672
0.17860577 -0.13277 -0.03968916 -0.0028454766 0.11444249 0.15371136 -0.0054198653 -0.1219635
-0.04719724 -0.2103661 -0.1599346 0.0036587354 0.06532041 0.0066716424 -0.09484059 -0.13187888
0.14899349 -0.018038582 0.086970925 0.016345093 0.10728726 0.009228736 0.20678422 0.0845071
0.015674885 0.014964655 0.060011197 0.00081710226 0.1682457 0.13189536 0.04500178 0.017493982
-0.03196496 0.11317126 0.115111 -0.047555573 0.024216019 0.020847687 0.16078411 0.042373344
00000000: bea6 de3c f754 bf3d f0ff 09be 8956 a63d
00000010: 39b6 403d 59bb bbbd 03d5 023b 55a1 e4bd
00000020: 2c3a 153d c8d8 a33d b8b6 a5bb 66d9 483d
00000030: 3d89 553d 2917 14bb dcba 1dbe 787c 65bd
00000040: 506b adbd d6fc d83c 1866 f23d 785d aabd
00000050: e0c5 9abd 7f40 96bd 1372 abbd 3e2c 0dbd
00000060: be27 13bc 69ab afbd ba89 063e aa4a eabd
00000070: 1610 4abd 879e 943d f183 dc3d 7010 08be
00000080: 5611 09bd 128f 9ebc 66ba 3abd 695a df3c
00000090: a48c 10be cc93 97bd a129 da3d d950 b93d
000000a0: 37e9 303e cde6 99bd d627 d7bc 9c1a 953d
000000b0: bf1c 333d 50c3 c0bc ee13 21ba 128e 64ba
000000c0: 6fef 1c3b a559 78bd 2f10 8a3d 5d00 17be
000000d0: a0be 96bd fc75 0b3d dd6d e13d 7727 b43d
000000e0: b847 133d f32a 09be 2bd0 d93d 9f8a cb3d
000000f0: 418c 0d3e ccad eb3d 54d1 c2bd 78a0 1b3e
00000100: a6d2 993d 3572 f83d 0e5b 9c3d 4700 dd3d
00000110: 821e b73d 56a8 173e 4242 3bbd f574 ee3d
00000120: 505d 9abd 8b7f fbbd 5c1a 0a3e fa0e 2c3d
00000130: 1fc7 cc3d 0a4e c5bd 38c6 e03d 92ec f2bd
00000140: af17 81bd 56ad 16bb 1357 7ebd dba6 c83d
00000150: 5c02 1c3e cb74 8b3d db0d 36bd ea06 a03b
00000160: 9516 46bd 6c41 4bbd 611d 88bd 4e22 d83d
00000170: 7e86 68bd a9aa 113d acf0 5a3b f3a7 8abd
00000180: bfb7 3cbd f411 f9bd 8f3d 953c 8a0c a53d
00000190: 29a2 f2bd f9d5 6f3d 607f bdbd ae65 47bd
000001a0: 4ef8 41bd 3972 5f3d f26c 103e c273 d93d
000001b0: 8220 39bd 02b0 1e3d de1d a03d 4239 1f3e
000001c0: 1668 a93d a22e 6ebd 26ff fe3d 2d4f 203e
000001d0: 4e92 7fbd 391d 753d d163 d83c 102d f6bd
000001e0: 4882 d13d 4365 c8bc 3f88 e03d 272f ad3d
000001f0: a573 e13a 69ea 003e 160c 123e 5bb9 a73d
00000200: 3683 a4bd 344f 22be ea50 ab3b 5ac8 283e
00000210: a9c8 823d 59b8 b2bd d95a 27bd 31de a33d
00000220: 3c3b 0c3e bee3 9bbd 9349 853d c856 07be
00000230: 4b82 febd 841b c0bd ab14 8d3d b0bd ff3d
00000240: ae4b d3bc 40d6 9abd f52c 3e3c e59e 173e
00000250: 3e0b e33d 9075 df3d e858 0a3d 7c57 54bd
00000260: 6ab0 e4bd 0b7f 0abe b0d7 06be f0a0 c0bd
00000270: 6888 ecbd 9af9 f9bd f06f b1bd 64cc a6bd
00000280: 3134 9ebc dc34 a83c 7f78 843c cf1c b8bc
00000290: 463d eabd 2d04 dc3c 3722 d43c 960f e0bc
000002a0: 6943 b13d d641 e7bd cb89 243d 007e 5e3d
000002b0: 0dfd 4f3d 7cb8 213c fb14 16be 2267 173e
000002c0: ea5d 913d 64ce cfbc 4624 a9bd 26e0 dd3d
000002d0: 13d8 debd 8d75 cebd 8fd4 c43d 43ab 713d
000002e0: fca0 603b d78e e83d ea6f aabd 1d98 223d
000002f0: 5a3d 70bd f6f8 a93d a7ad 293d 05e7 cd3a
00000300: cb32 5abd f287 84bd 6cce 1ebe ebf0 af3d
00000310: f2d2 153e 10e0 2f3e 359a da3d b6a1 a8bd
00000320: 32c2 093e 505e bfbc f608 06bc 3286 c33d
00000330: 6dd5 e8bd 8360 ad3d 87dd 10be 7101 24bc
00000340: 2bef b5bd 77d3 82bd 1ff4 dcbd 73a9 ba3c
00000350: 97b4 c53d ef00 073e 6188 8f3d c9d9 073e
00000360: 6ee4 363e dcf4 07be 1a91 22bd 2d7b 3abb
00000370: d360 ea3d 8366 1d3e 2099 b1bb 00c8 f9bd
00000380: e551 41bd 366a 57be e5c5 23be 65c7 6f3b
00000390: b5c6 853d cb9d da3b c93b c2bd 420b 07be
000003a0: c091 183e a6c5 93bc d01d b23d 25e6 853c
000003b0: 6cb9 db3d 2034 173c 3ebf 533e 0f12 ad3d
000003c0: 9e68 803c 502e 753c 4dce 753d ce32 563a
000003d0: 9a48 2c3e 940f 073e c953 383d 8a4f 8f3c
000003e0: b1ed 02bd 55c6 e73d 51bf eb3d a2c9 42bd
000003f0: ac60 c63c c5c8 aa3c 97a4 243e ac8f 2d3d

rnn.bias_ih_l0 f4 [128]
0.0148124015 0.06915035 0.09026105 0.031167006 0.0816995 0.0668086 -0.028588511 -0.08129506
-0.005347259 -0.15147205 -0.099996 0.08851322 -0.10971149 0.03270952 -0.07548123 -0.11793186
-0.14140478 -0.089748405 -0.0071787075 -0.044942163 0.10144236 -0.050679732 -0.16065644 -0.13926165
0.038917575 0.14907078 0.12745075 -0.10115865 0.015452789 -0.07404985 -0.13399373 -0.16002075
0.0823739 0.16251181 -0.030161923 0.1385643 -0.11425386 -0.05109051 0.13812739 -0.07841875
-0.096711904 0.13291441 -0.1622805 0.031362005 0.18330626 0.041407634 0.07162714 0.05773608
-0.0391373 0.05542458 0.11069464 0.16493163 0.16099714 -0.13856193 0.098621376 -0.0690397
0.15031649 -0.005158232 -0.11769698 0.11757291 -0.006843935 0.11904674 -0.006427767 -0.12299433
-0.0051588393 0.122184195 -0.040721342 -0.06518775 0.07463851 -0.04008157 -0.11188066 -0.067282856
-0.041338194 -0.12668224 -0.012532892 0.12330049 -0.15227708 0.14331828 -0.14439043 0.08859908
-0.060135007 -0.0104479045 -0.11846587 -0.06833159 -0.028994732 -0.14296366 -0.017341306 -0.076653935
0.082367994 -0.017596902 -0.01882948 -0.13504963 0.031951107 -0.032209996 -0.12229628 0.15552871
-0.09649768 0.051266335 0.035244036 -0.12788418 -0.10073874 -0.17546248 -0.11906274 -0.015912738
0.050467722 -0.031718634 -0.0067964965 -0.18838306 0.07837406 -0.122295596 0.10623978 -0.09652866
0.107162714 0.08676073 -0.16894774 -0.15704049 -0.12700166 -0.046647068 0.043789748 -0.025935864
0.0120807495 -0.13895963 -0.039419234 0.1226696 -0.052205358 0.036839057 0.073395334 -0.072811946
00000000: b7af 723c b39e 8d3d c9da b83d f351 ff3c
00000010: 1152 a73d f3d2 883d 7432 eabc 067e a6bd
00000020: 0f38 afbb 7d1b 1bbe b4ca ccbd 6b46 b53d
00000030: 6bb0 e0bd 6bfa 053d e795 9abd 4286 f1bd
00000040: 6acc 10be 03ce b7bd 5d3b ebbb 4615 38bd
00000050: 03c1 cf3d 8d95 4fbd 1f83 24be 9b9a 0ebe
00000060: 0968 1f3d 03a6 183e 7382 023e 442c cfbd
00000070: b22d 7d3c 73a7 97bd a735 09be 7bdc 23be
00000080: a6b3 a83d 7f69 263e 2316 f7bc cde3 0d3e
00000090: eefd e9bd 4844 51bd 4471 0d3e 029a a0bd
000000a0: e410 c6bd b71a 083e dc2c 26be 7275 003d
000000b0: a3b4 3b3e 0d9b 293d 40b1 923d ab7c 6c3d
000000c0: 6f4e 20bd e204 633d dfb3 e23d d6e3 283e
000000d0: 6fdc 243e 2ee3 0dbe 01fa c93d b064 8dbd
000000e0: 91ec 193e 6306 a9bb 1d0b f1bd 11ca f03d
000000f0: 1743 e0bb c7ce f33d 05a0 d2bb 74e4 fbbd
00000100: 7b0b a9bb b53b fa3d 6ccb 26bd 2881 85bd
00000110: 13dc 983d 932c 24bd b021 e5bd 98cb 89bd
00000120: 3d52 29bd fdb8 01be c256 4dbc f884 fc3d
00000130: 86ee 1bbe 07c2 123e 16db 13be 6f73 b53d
00000140: 2050 76bd b02d 2bbc 3c9e f2bd 6ff1 8bbd
00000150: 5c86 edbc 1165 12be 5b0f 8ebc bdfc 9cbd
00000160: 8db0 a83d 6127 90bc 4840 9abc 734a 0abe
00000170: 2adf 023d a1ee 03bd 7976 fabd eb42 1f3e
00000180: 93a0 c5bd a6fc 513d 0d5c 103d 12f4 02be
00000190: 1d50 cebd 70ac 33be 2ad7 f3bd 6e5b 82bc
000001a0: 3eb7 4e3d 66eb 01bd 25b5 debb 7de7 40be
000001b0: 9482 a03d 1d76 fabd 3e94 d93d d1b0 c5bd
000001c0: 2078 db3d 9caf b13d a300 2dbe 39cf 20be
000001d0: b90c 02be ff10 3fbd e15c 333d 7377 d4bc
000001e0: 56ee 453c 6f4b 0ebe 1076 21bd 333a fb3d
000001f0: 49d5 55bd 8de4 163d 4b50 963d 6e1e 95bd

rnn.bias_hh_l0 f4 [128]
-0.01867756 0.21770734 -0.08526191 -0.093217075 0.15549454 0.08611292 -0.14765628 -0.020032458
-0.067197226 -0.17744166 0.0641611 0.07077989 0.041210216 -0.12208288 0.017431153 -0.15815847
0.09197261 0.010711246 0.05586102 0.11410336 -0.12730153 0.096726865 0.14443174 0.13578188
0.057782456 -0.06734789 0.117634885 -0.13621369 0.124616794 0.012252185 0.17118223 -0.11983614
0.09497647 0.067946605 0.13328087 -0.13090366 -0.1628354 -0.1499341 -0.09216424 -0.06134326
0.11092066 0.13691668 0.066930555 -0.14209639 0.051175915 0.072805144 0.16197157 0.060509395
0.10255256 -0.10804569 -0.16884325 0.1505353 -0.09617442 0.025141628 0.13489269 0.094019786
-0.010202131 -0.03767704 0.09109444 -0.1514113 -0.15632011 -0.124109454 0.00141267 -0.099181645
-0.09368313 -0.015594315 0.13635778 -0.10337309 0.054077286 0.15266566 0.09758767 -0.16834152
0.12434704 0.06670934 0.011531038 -0.011229197 -0.07852943 0.044709917 -0.06403062 0.06798477
0.10302661 -0.01665393 -0.10110839 -0.1131699 -0.18766364 0.13720979 0.04827043 0.08530126
-0.07170168 -0.11809473 -0.024933722 -0.052538995 0.058461532 -0.12511188 -0.12297173 -0.11996788
0.0034860692 -0.072060615 -0.16836423 -0.10172739 0.11224319 -0.11531116 0.08088142 0.07759548
-0.03001206 -0.07544944 0.08171022 -0.19252561 0.077867016 -0.16717966 -0.09197874 -0.036563978
-0.037238993 0.07206039 0.08254187 0.019238675 0.071502335 0.033253055 0.15288308 -0.1522477
-0.07617772 0.055735156 0.006057598 -0.14710787 -0.015744915 -0.049496133 0.12165827 0.08612583
00000000: af01 99bc acee 5e3e cc9d aebd 98e8 bebd
00000010: f639 1f3e f85b b03d 3533 17be 1c1b a4bc
00000020: b39e 89bd 44b3 35be e566 833d 0cf5 903d
00000030: 0bcc 283d 9706 fabd c7cb 8e3c 4bf4 21be
00000040: 235c bc3d 397e 2f3c 86ce 643d 06af e93d
00000050: 555b 02be bc18 c63d eae5 133e 680a 0b3e
00000060: 4cad 6c3d b1ed 89bd 8fea f03d 9a7b 0bbe
00000070: 1737 ff3d 63bd 483c 654a 2f3e a66c f5bd
00000080: 0683 c23d 9727 8b3d c87a 083e 9c0b 06be
00000090: 53be 26be 5388 19be 9bc0 bcbd 1243 7bbd
000000a0: 5f2a e33d e333 0c3e e312 893d b781 11be
000000b0: d69d 513d dd1a 953d e0db 253e b3d8 773d
000000c0: 1407 d23d 0f47 ddbd 3fe5 2cbe ed25 1a3e
000000d0: 18f7 c4bd d1f5 cd3c 4f21 0a3e 728d c03d
000000e0: d726 27bc 3d53 1abd b98f ba3d 900b 1bbe
000000f0: 6112 20be 192d febd 5729 b93a bf1f cbbd
00000100: f1dc bfbd 4c7f 7fbc 60a1 0b3e 45b5 d3bd
00000110: 2580 5d3d 6354 1c3e 0bdc c73d b861 2cbe
00000120: a9a9 fe3d e89e 883d aeec 3c3c aafa 37bc
00000130: 0ad4 a0bd bf21 373d 7c22 83bd 993b 8b3d
00000140: 9eff d23d d36d 88bc ea11 cfbd 9fc5 e7bd
00000150: e62a 40be b980 0c3e 37b7 453d 6db2 ae3d
00000160: 55d8 92bd a6db f1bd ce41 ccbc 2133 57bd
00000170: 5c75 6f3d 541d 00be 9ad8 fbbd b8b1 f5bd
00000180: 8976 643b 8494 93bd ac67 2cbe 7356 d0bd
00000190: c2df e53d 4228 ecbd 28a5 a53d 61ea 9e3d
000001a0: dadb f5bc 3c85 9abd b057 a73d 6f25 45be
000001b0: be78 9f3d 2531 2bbe 5a5f bcbd 1cc4 15bd
000001c0: ea87 18bd 6694 933d b60b a93d 6d9a 9d3c
000001d0: d16f 923d 5b34 083d 628d 1c3e d2e6 1bbe
000001e0: 1103 9cbd 8c4a 643d d17e c63b 72a3 16be
000001f0: 7bfb 80bc 75bc 4abd f927 f93d bd62 b03d

gcn.lin_n.weight f4 [32, 32]
-0.06513029 0.0171279 0.09790743 0.1354142 -0.15944888 0.022058714 -0.08886488 -0.016538506
-0.13709667 0.083179444 0.0909735 -0.013178168 0.13242473 -0.11858567 0.17610657 -0.16481811
-0.18167108 0.14062108 -0.0985519 -0.11857524 -0.08620814 -0.111649364 0.05959549 -0.074042134
0.121554665 -0.054726344 -0.015686775 -0.03715686 -0.120196566 -0.087447956 -0.09918958 -0.012813184
-0.029426573 0.124675035 -0.08489297 0.051432922 0.052747916 0.09415167 0.020421766 0.012889925
-0.103406 0.030802911 0.14203617 -0.110559 0.003643469 0.15076646 -0.16509792 -0.029072803
0.021391798 0.05020756 -0.14316666 0.111842796 -0.06733547 0.032918878 0.03433717 0.074180394
0.07049425 0.14118627 -0.19432361 -0.076934375 -0.19512418 -0.10526956 -0.1183731 0.112466864
0.012103726 -0.11284707 -0.050632346 0.038242545 -0.0094678085 -0.11492139 0.041010004 -0.010214052
-0.16509916 -0.021360818 -0.037667118 -0.17137279 -0.044598147 0.07181342 0.048062824 0.13271314
0.1162404 0.009162226 -0.013716609 -0.028106235 -0.171202 -0.085927024 0.05482485 0.0010254238
0.065637626 -0.06827073 0.11544932 0.10440618 0.00812687 0.06917332 0.025672812 -0.020783218
0.06252526 0.11255792 -0.10872622 0.081209764 -0.0099815205 -0.011185104 0.030252028 -0.09291356
0.050577138 -0.19168925 0.12742423 0.07762125 0.0891244 -0.21342479 0.18145753 0.12859403
-0.074901156 0.14848556 0.0042059096 -0.0055747163 -0.023614515 -0.005039313 -0.08868135 0.12848732
0.070687436 0.06456785 -0.07942735 -0.066281974 0.13454479 -0.02058057 -0.037739124 0.099819094
-0.1429511 -0.104403116 -0.057111394 0.18485612 -0.02388959 0.095057055 -0.05283094 0.101101
0.082005315 -0.15066044 -0.15228766 0.08382129 0.15421656 -0.13493276 0.09407407 -0.009742747
0.117718436 0.11790372 -0.05698625 0.15488587 -0.1478829 0.13983583 0.025387527 -0.032531057
0.1412076 -0.07642848 -0.08090294 0.16132815 0.051912334 -0.15683275 -0.06926907 0.031907625
0.17226803 -0.047911342 -0.008907594 -0.02737978 0.010428287 0.018713992 0.10395437 -0.06246788
0.101594426 0.10636623 0.08659682 -0.072758205 -0.031810045 -0.15074003 -0.13624066 -0.18049026
-0.18395033 -0.00982415 0.060824446 -0.09575592 0.10168468 0.09719877 0.01238596 -0.07683582
-0.060445454 0.05221887 0.052540854 0.046390466 -0.05220017 0.15151756 -0.0083402805 0.09406231
-0.04487923 -0.069725506 -0.00021819868 -0.13060501 0.17608328 -0.10125984 0.12418905 -0.0015200708
0.037046563 -0.14184539 0.052395016 -0.2149789 0.22558567 0.21722442 -0.12274362 -0.23152666
0.031977918 0.17988423 0.038475767 -0.115186274 0.039899852 0.021353949 -0.056079425 0.14170226
-0.02858033 0.15241161 0.07128481 0.009330051 0.03678954 0.120781295 0.17177267 -0.24424659
-0.0782502 -0.03691523 -0.15368077 0.07493517 0.055827733 -0.04372759 0.16559745 0.016227603
-0.12216973 0.11871802 -0.00023143868 -0.059383966 0.0748596 0.018103853 0.017348528 -0.1401242
0.060761128 -0.04827075 -0.11391812 0.13570985 0.1706057 0.05753633 0.030720182 0.153352
-0.04638257 -0.1472121 -0.108945884 0.1653593 0.11847106 0.027219879 -0.0028145108 -0.04688549
00000000: 0863 85bd cf4f 8c3c b183 c83d 05aa 0a3e
00000010: 9146 23be 7ab4 b43c cafe b5bd c37b 87bc
00000020: 1263 0cbe fc59 aa3d 5050 ba3d 3ee9 57bc
00000030: 599a 073e 0bdd f2bd 4855 343e 14c6 28be
00000040: fc07 3abe f9fe 0f3e 94d5 c9bd 93d7 f2bd
00000050: e58d b0bd 6ca8 e4bd 671a 743d 67a3 97bd
00000060: a7f1 f83d bb28 60bd 8d81 80bc cb31 18bd
00000070: 9e29 f6bd ea17 b3bd e823 cbbd 64ee 51bc
00000080: ff0f f1bc a055 ff3d 5edc adbd 54ab 523d
00000090: 330e 583d 97d2 c03d 8c4b a73c 4430 533c
000000a0: 86c6 d3bd 6356 fc3c ee71 113e c26c e2bd
000000b0: 44c7 6e3b 8662 1a3e 6e0f 29be 162a eebc
000000c0: da3d af3c 71a6 4d3d 489a 12be d60d e53d
000000d0: 2ee7 89bd f2d5 063d 22a5 0c3d e4eb 973d
000000e0: 4a5f 903d 2293 103e c5fc 46be c58f 9dbd
000000f0: a2ce 47be 9197 d7bd 996d f2bd 0755 e63d
00000100: b54e 463c 5d1c e7bd dd63 4fbd 37a4 1c3d
00000110: de1e 1bbc e85b ebbd 1bfa 273d d758 27bc
00000120: c10f 29be e2fc aebc d648 1abd 597c 2fbe
00000130: 8cac 36bd ea12 933d 86dd 443d f4e5 073e
00000140: 720f ee3d 291d 163c a1bb 60bc 0c3f e6bc
00000150: 944f 2fbe 82fa afbd 0690 603d 8367 863a
00000160: 056d 863d 86d1 8bbd b170 ec3d e8d2 d53d
00000170: 9026 053c beaa 8d3d ca4f d23c 9141 aabc
00000180: 3e0d 803d c484 e63d daab debd 4e51 a63d
00000190: 8889 23bc ba41 37bc 1ad3 f73c 7749 bebd
000001a0: f929 4f3d 304a 44be 7f7b 023e e4f7 9e3d
000001b0: da86 b63d 078c 5abe 01d0 393e 27ae 033e
000001c0: c765 99bd 990c 183e bad1 893b 1cac b6bb
000001d0: 3a73 c1bc d220 a5bb 919e b5bd 2e92 033e
000001e0: 93c4 903d 263c 843d ceaa a2bd d8be 87bd
000001f0: 1cc6 093e 9598 a8bc 5794 1abd f46d cc3d
00000200: c661 12be 4dd1 d5bd a3ed 69bd ec4a 3d3e
00000210: 1ab4 c3bc 46ad c23d 4165 58bd 0b0e cf3d
00000220: 67f2 a73d bb46 1abe 4cf1 1bbe 7faa ab3d
00000230: f2ea 1d3e d02b 0abe e8a9 c03d 0ba0 1fbc
00000240: 5d16 f13d 8177 f13d 6a6a 69bd 679a 1e3e
00000250: 9d6e 17be 2031 0f3e 81f9 cf3c 493f 05bd
00000260: ba98 103e 8986 9cbd 71b0 a5bd 3533 253e
00000270: 07a2 543d c498 20be f1dc 8dbd 92b1 023d
00000280: 0867 303e af3e 44bd 28f1 11bc 8f4b e0bc
00000290: 68db 2a3c 164e 993c 07e6 d43d 52de 7fbd
000002a0: bd10 d03d 8ad6 d93d ac59 b13d 4102 95bd
000002b0: 404b 02bd 985b 1abe ac82 0bbe 70d2 38be
000002c0: 7a5d 3cbe 79f5 20bc 0e23 793d ae1b c4bd
000002d0: 0f40 d03d 2610 c73d 7bee 4a3c 195c 9dbd
000002e0: a795 77bd 74e3 553d 1435 573d ee03 3e3d
000002f0: d8cf 55bd 6b27 1b3e aca5 08bc bea3 c03d
00000300: 49d3 37bd 3fcc 8ebd 43cc 64b9 52bd 05be
00000310: 2d4f 343e 5261 cfbd d456 fe3d 1d3d c7ba
00000320: 23be 173d eb3f 11be 289c 563d 6e23 5cbe
00000330: eeff 663e 1470 5e3e 0261 fbbd 5315 6dbe
00000340: 47fb 023d 9233 383e c498 1d3d c8e6 ebbd
00000350: 076e 233d 7aee ae3c 8ab3 65bd 661a 113e
00000360: 4c21 eabc ca11 1c3e c5fd 913d 12dd 183c
00000370: a1b0 163d 2f5c f73d 2de5 2f3e c71b 7abe
00000380: a441 a0bd 6d34 17bd 7e5e 1dbe 9c77 993d
00000390: 9fab 643d b41b 33bd 6192 293e c0ef 843c
000003a0: 2034 fabd 6f22 f33d 59ae 72b9 9a3c 73bd
000003b0: fd4f 993d 884e 943c 801e 8e3c b87c 0fbe
000003c0: a9e0 783d 8db7 45bd e74d e9bd 86f7 0a3e
000003d0: 43b3 2e3e 37ab 6b3d e4a8 fb3c 4f08 1d3e
000003e0: a6fb 3dbd c5be 16be 051f dfbd f353 293e
000003f0: f5a0 f23d 39fc de3c a873 38bb 000b 40bd

gcn.lin_n.bias f4 [32]
-0.059663508 -0.12776111 0.13426432 0.09535734 -0.050991524 0.026673578 -0.10877927 -0.17408992
0.1433682 0.049684476 -0.028143868 -0.10038718 0.023468878 -0.07772784 -0.052925132 -0.19013427
0.10733675 0.03800079 -0.19406556 0.07217395 -0.054055404 0.12690507 -0.03562334 -0.030832483
-0.13857257 0.1413918 -0.16820015 -0.057302866 -0.01853355 -0.0704845 -0.13024828 0.11832396
00000000: b961 74bd cfd3 02be 967c 093e b64a c33d
00000010: 7ddc 50bd 8c82 da3c aac7 debd a144 32be
00000020: 1dcf 123e f381 4b3d f88d e6bc cb97 cdbd
00000030: ce41 c03c c62f 9fbd 06c8 58bd 8fb2 42be
00000040: 5fd3 db3d b7a6 1b3d 1fb9 46be f0cf 933d
00000050: 3369 5dbd 67f3 013e c8e9 11bd 6794 fcbc
00000060: f8e5 0dbe 03c9 103e a93c 2cbe 69b6 6abd
00000070: acd3 97bc 2d5a 90bd ce5f 05be d553 f23d

gcn.lin_r.weight f4 [32, 32]
-0.0526661 -0.15944612 0.03853251 -0.0065781865 0.054746117 0.15896295 -0.068169154 0.061425112
-0.02396881 0.04939577 -0.091851115 -0.063863 -0.09203769 0.09661479 -0.08581785 0.002887466
-0.09528955 -0.08874553 0.18408461 0.1510744 -0.12518053 0.17257674 -0.077600114 0.039030798
-0.07804475 0.1069925 -0.07321661 0.0056094914 -0.0065300157 -0.0004675845 0.017928211 -0.021459779
0.15245444 -0.06336731 0.077395186 0.14459267 -0.11136877 -0.18961126 0.12428313 0.112517826
0.077481434 0.09849052 -0.11827418 0.1470671 0.1246711 -0.12338076 0.15026388 -0.039147176
0.04131703 0.20263728 -0.12721369 0.062379245 0.0037657064 0.044981297 -0.027993511 -0.12250163
-0.017352263 -0.012839904 0.14242366 -0.050002173 -0.094858356 0.065347835 -0.09068696 0.19134603
-0.02543832 0.0010461574 -0.09996073 -0.04670781 -0.15160678 0.014189577 -0.05650695 -0.106991045
-0.10012734 -0.16704951 0.14292958 0.022538414 0.06700557 -0.10261239 0.051828437 -0.100770846
0.031246886 0.00046081675 0.0055759912 0.08593288 -0.053708814 0.0346731 -0.08953252 -0.14987105
-0.02520558 -0.18520351 -0.18668549 0.044417355 -0.039092787 0.13424417 0.14666077 0.05758751
0.10878372 0.036885064 -0.1568926 0.014038165 -0.01953974 -0.0009628867 0.17655478 0.04262006
-0.0969829 -0.14955556 0.17042488 -0.03210109 0.08088379 -0.08061609 0.06176795 0.016749175
0.12107596 0.068043165 -0.18029456 0.0017685721 0.06244992 -0.08040166 0.023202162 0.025375038
0.12627451 -0.13989253 0.018349588 0.06782214 -0.027801808 0.034541517 -0.045692533 -0.034263764
0.15379421 0.11711722 0.032906625 0.051496673 0.067876905 -0.020475531 0.09063588 -0.093169354
0.10213683 -0.16616997 -0.18660556 -0.07071004 -0.078843 0.114061154 -0.07010347 0.012077106
-0.13176723 -0.18855835 -0.055999566 -0.11437246 0.046573427 0.053294007 0.13776487 0.1863411
0.08060285 -0.13819364 -0.020493964 -0.12032376 0.022636253 0.082737856 0.19128402 0.0020571135
-0.11603278 -0.15149023 -0.065766774 -0.08753729 0.023789812 -0.086632825 -0.102242716 0.035669383
-0.03166827 0.123508856 -0.13184704 -0.020473193 0.18065001 0.14190891 -0.047407128 0.03898562
0.018506233 0.16858858 0.12795827 -0.024307193 -0.12346077 -0.033707514 -0.15523914 0.040289078
0.15353073 -0.07872998 -0.15567613 -0.04346188 -0.1995541 -0.13593681 0.026841626 -0.0022093868
0.120918505 0.031936605 -0.005593474 0.21845238 -0.23270996 0.10832984 -0.08359372 0.19424309
-0.009169544 0.070315346 -0.02435678 -0.117978945 -0.12644719 -0.19686654 0.17162572 -0.16678353
-0.051749084 0.34275126 -0.053769268 0.19731054 0.15342306 0.14500539 -0.08328943 0.16357964
0.14986654 0.022630556 -0.012855454 0.15728207 -0.1056196 -0.06238947 0.11187455 0.3023993
-0.12930204 0.11835663 0.047440615 0.08274263 0.1437043 0.030756347 0.10676821 -0.06185932
0.06822841 -0.052366495 -0.07074642 0.076953106 0.10881208 -0.14086376 0.09780761 0.13264762
-0.024663247 -0.12812638 0.075475715 -0.06343468 -0.067055374 0.0491994 -0.15470368 0.042514376
-0.013661546 0.060386937 -0.090066716 -0.15502109 -0.05791408 0.017241329 0.14371188 0.04390027
00000000: 69b8 57bd d845 23be 44d4 1d3d d48d d7bb
00000010: 773d 603d 2fc7 223e 459c 8bbd e698 7b3d
00000020: 3d5a c4bc 3853 4a3d 701c bcbd 9bca 82bd
00000030: 427e bcbd fadd c53d 45c1 afbd a43b 3d3b
00000040: 2b27 c3bd 37c0 b5bd ad80 3c3e 3fb3 1a3e
00000050: 532f 00be f5b7 303e cfec 9ebd c2de 1f3d
00000060: edd5 9fbd e21e db3d 97f2 95bd d3cf b73b
00000070: bef9 d5bb 2126 f5b9 2fde 923c 6bcc afbc
00000080: 041d 1c3e b8c6 81bd 5e81 9e3d 1a10 143e
00000090: 4f15 e4bd 7429 42be 2788 fe3d bf6f e63d
000000a0: 96ae 9e3d 66b5 c93d bc39 f2bd c298 163e
000000b0: 9053 ff3d 0daf fcbd c6de 193e ca58 20bd
000000c0: 0c3c 293d 2680 4f3e 4e44 02be 6181 7f3d
000000d0: 12ca 763b 4f3e 383d a652 e5bc 22e2 fabd
000000e0: 5526 8ebc 765e 52bc 82d7 113e 14cf 4cbd
000000f0: 1945 c2bd 16d5 853d 16ba b9bd 37f0 433e
00000100: 0664 d0bc 381f 893a 36b8 ccbd b050 3fbd
00000110: cf3e 1bbe 667b 683c d573 67bd 1f1e dbbd
00000120: 900f cdbd 070f 2bbe 225c 123e 7ba2 b83c
00000130: 373a 893d 7226 d2bd 0e4a 543d f260 cebd
00000140: 78f9 ff3c c799 f139 ceb6 b63b 94fd af3d
00000150: c6fd 5bbd 6105 0e3d d35c b7bd cc77 19be
00000160: ef7b cebc fda5 3dbe 7b2a 3fbe f9ee 353d
00000170: c21f 20bd 4e77 093e 3e2e 163e e2e0 6b3d
00000180: 00ca de3d cb14 173d 74a8 20be 5500 663c
00000190: ce11 a0bc 3c6a 7cba c7ca 343e 5f92 2e3d
000001a0: f89e c6bd 1825 19be dc83 2e3e 6f7c 03bd
000001b0: 67a6 a53d 0c1a a5bd 6400 7d3d 9135 893c
000001c0: acf6 f73d 375a 8b3d 239f 38be 6fcf e73a
000001d0: 7dcb 7f3d a0a9 a4bd 7612 be3c 50df cf3c
000001e0: 1b4e 013e fd3f 0fbe e051 963c 56e6 8a3d
000001f0: 9ec0 e3bc 687b 0d3d 1828 3bbd 2958 0cbd
00000200: 3b7c 1d3e 27db ef3d 19c9 063d 2dee 523d
00000210: 0c03 8b3d 4dbc a7bc 4e9f b93d 93cf bebd
00000220: 1d2d d13d 7628 2abe 8715 3fbe 6dd0 90bd
00000230: 7078 a1bd e598 e93d 6892 8fbd 0edf 453c
00000240: fded 06be 7115 41be cd5f 65bd 1c3c eabd
00000250: c7c3 3e3d d14a 5a3d 3c12 0d3e 34d0 3e3e
00000260: 1b13 a53d a282 0dbe f5e2 a7bc 4e6c f6bd
00000270: aa6f b93c 7772 a93d f5df 433e a3d0 063b
00000280: 98a2 edbd 4120 1bbe bbb0 86bd c046 b3bd
00000290: dae2 c23c 8d6c b1bd a164 d1bd 0f1a 123d
000002a0: 96b6 01bd 36f2 fc3d e902 07be 66b7 a7bc
000002b0: 51fc 383e 9250 113e fa2d 42bd 63af 1f3d
000002c0: 629a 973c 7ca2 2c3e 7e07 033e e11f c7bc
000002d0: 00d9 fcbd e410 0abd 02f7 1ebe 2906 253d
000002e0: 2937 1d3e 2f3d a1bd 9069 1fbe 1605 32bd
000002f0: e957 4cbe 0533 0bbe f8e2 db3c 5ccb 10bb
00000300: 1fa4 f73d f5cf 023d 7649 b7bb fbb1 5f3e
00000310: 854b 6ebe 09dc dd3d 2f33 abbd a9e7 463e
00000320: db3b 16bc 7e01 903d df87 c7bc f29e f1bd
00000330: 5f7b 01be 6297 49be a7be 2f3e 4dc9 2abe
00000340: d9f6 53bd 187d af3e 2a3d 5cbd c60b 4a3e
00000350: ef1a 1d3e 4b7c 143e a693 aabd 6c81 273e
00000360: 9d76 193e b763 b93c af9f 52bc 8d0e 213e
00000370: 174f d8bd 1a8c 7fbd 7c1e e53d 15d4 9a3e
00000380: c167 04be f664 f23d 1751 423d f874 a93d
00000390: 3827 133e bcf4 fb3c 4ba9 da3d 3360 7dbd
000003a0: 56bb 8b3d 407e 56bd 80e3 90bd 9799 9d3d
000003b0: ded8 de3d 973e 10be 5b4f c83d c7d4 073e
000003c0: 940a cabc 9033 03be 0393 9a3d 0bea 81bd
000003d0: 5454 89bd 4f85 493d a46a 1ebe 8e23 2e3d
000003e0: add4 5fbc 4b58 773d e674 b8bd d9bd 1ebe
000003f0: 5037 6dbd b03d 8d3c 3529 133e c5d0 333d

gcn.lin_2.weight f4 [32, 32]
-0.004553481 -0.0185611 -0.119434446 0.044098746 -0.06119151 0.061575066 -0.030480042 -0.072517306
-0.097074024 -0.07001245 0.099343434 -0.16795409 0.006600715 1.4639629e-05 0.14130838 0.22066519
0.05431714 0.13256778 0.117003456 0.009293493 -0.12078527 0.1279553 0.05908746 0.134114
0.108039275 0.029497838 0.059869263 -0.10318832 0.0060361954 -0.004662967 0.11557382 0.059025474
0.065248646 -0.016343208 -0.13545269 -0.056508258 0.019123748 0.0011542799 -0.10630933 -0.06698009
-0.12686409 0.08307785 -0.13749567 -0.12888807 0.10233397 1.3531767e-08 0.06349848 0.024205878
0.04604566 0.10851885 -0.05953188 -0.16154633 0.10806565 -0.020350477 0.11351402 -0.038050976
-0.116302505 -0.018027976 0.15158932 -0.024402048 -0.1617426 -0.073816314 0.04758355 0.09336467
0.0058380486 -0.14579327 0.13154437 0.0019366934 -0.09375163 -0.011162002 -0.143391 0.066009134
0.10798831 -0.07180814 0.066685274 0.085720114 0.067549266 -9.060457e-05 -0.064631246 -0.1500485
-0.16381167 -0.15979496 -0.062077526 0.08828591 -0.10186362 0.0021549868 -0.12970361 0.1356858
-0.13390304 0.1444507 0.09078956 0.113351 -0.1595051 0.008157066 0.09304645 0.10778246
-0.018243533 -0.09395004 -0.010988041 0.13813521 0.13560185 0.12876862 -0.012458257 -0.13077389
0.09446133 -0.05252399 -0.08928492 0.10588989 0.14691111 1.0099287e-06 0.028194712 0.3146051
-0.1660363 -0.042354744 0.13964453 -0.05271648 -0.031213244 -0.10282725 -0.057460874 0.13135341
0.046994366 0.13842148 -0.029757937 0.1419145 0.06248675 -0.09618613 0.17029807 -0.08179055
-0.01560762 0.05699792 -0.034082655 -0.11631261 0.057646174 -0.0071500735 -0.36447355 -0.14360137
-0.051535636 -0.07884485 -0.13879998 -0.009620712 0.0015274041 -1.9562519e-08 -0.15995924 -0.028350782
-0.027828718 0.08422537 0.009687375 0.10649336 -0.10099735 -0.10425658 -0.07414253 -0.039229482
-0.022909649 0.024135334 0.043181203 -0.10410212 0.08803347 -0.16627786 0.0063010766 0.09340406
-0.054075893 -0.047130737 -0.01552531 0.051705673 -0.015132207 -0.052799515 -0.20877555 0.036495563
-0.061709147 0.054312874 -0.045681152 -0.09507214 0.104171835 3.3082947e-07 0.03246648 0.08922126
0.09412497 0.109304085 -0.0451328 -0.122402094 0.01979871 0.10325564 -0.02518949 0.17276916
0.1639542 -0.07222988 -0.14018214 0.13913491 -0.054692034 -0.15918031 0.13980696 -0.11781128
0.19020878 -0.11614433 -0.076797605 0.048701566 0.15258572 0.036198586 0.07642685 0.06878722
-0.14383516 -0.111613624 0.16785572 0.028701717 0.15931574 9.751935e-06 0.03051968 0.24676868
-0.049992215 -0.10360972 -0.011587372 -0.008188 -0.100121655 0.08161546 -0.032300062 0.11149742
-0.04678192 0.13297157 0.016393894 -0.06112334 0.058111172 -0.026544498 0.0010192483 0.11039743
-0.04708332 -0.09898733 0.07931224 0.05616138 0.047190063 0.036675185 -0.2710052 0.07331403
-0.09271426 0.03477358 -0.16726562 0.017698418 0.08136815 2.6987845e-08 0.10659869 0.08061334
0.014653337 0.0012311415 -0.090177625 -0.0013806393 -0.056028917 0.08467733 -0.16704491 0.014235008
0.0879094 -0.16186443 -0.09532949 0.010783916 0.10682694 -0.041931216 0.017034518 0.094086505
00000000: 5e35 95bb 730d 98bc 0c9a f4bd e3a0 343d
00000010: f3a3 7abd 2336 7c3d 48b1 f9bc f483 94bd
00000020: bfce c6bd b062 8fbd 9274 cb3d 28fc 2bbe
00000030: d04a d83b ba9c 7537 25b3 103e 0ef6 613e
00000040: a67b 5e3d d9bf 073e 829f ef3d bc43 183c
00000050: 455e f7bd b706 033e b105 723d 2e55 093e
00000060: b243 dd3d 73a5 f13c 7939 753d 6654 d3bd
00000070: 47cb c53b cdcb 98bb f8b1 ec3d b2c4 713d
00000080: 15a1 853d 31e2 85bc 1cb4 0abe 3475 67bd
00000090: 68a9 9c3c 354b 973a b5b8 d9bd dc2c 89bd
000000a0: a9e8 01be b824 aa3d aacb 0cbe 3cfb 03be
000000b0: 7994 d13d 5779 6832 7e0b 823d 684b c63c
000000c0: 609a 3c3d 213f de3d b3d7 73bd 676c 25be
000000d0: 8651 dd3d 0bb6 a6bc 0a7a e83d 57db 1bbd
000000e0: 0230 eebd 68af 93bc 3b3a 1b3e cee6 c7bc
000000f0: da9f 25be 022d 97bd f8e6 423d fa35 bf3d
00000100: 1a4d bf3b d54a 15be 91b3 063e a6d8 fd3a
00000110: db00 c0bd d4e0 36bc 17d5 12be cc2f 873d
00000120: fa28 dd3d 2510 93bd 4a92 883d 078e af3d
00000130: 4557 8a3d f502 beb8 635d 84bd 50a6 19be
00000140: 3fbe 27be 4aa1 23be 0145 7ebd 3ecf b43d
00000150: e09d d0bd ae3a 0d3b 06d1 04be 38f1 0a3e
00000160: e11d 09be e2ea 133e e0ef b93d 9224 e83d
00000170: 4e55 23be 37a5 053c 238f be3d 0dbd dc3d
00000180: 7673 95bc e168 c0bd 2f07 34bc 5173 0d3e
00000190: 36db 0a3e ecdb 033e b81d 4cbc 97e9 05be
000001a0: f174 c13d 6523 57bd 03db b6bd ccdc d83d
000001b0: de6f 163e e38c 8735 99f8 e63c eb13 a13e
000001c0: 6b05 2abe 2b7c 2dbd fafe 0e3e 3ced 57bd
000001d0: ebb2 ffbc 1897 d2bd 185c 6bbd 8281 063e
000001e0: 2a7d 403d 5cbe 0d3e ebc6 f3bc 0952 113e
000001f0: 1bf2 7f3d 3cfd c4bd 9e62 2e3e ce81 a7bd
00000200: 1ab7 7fbc a776 693d 419a 0bbd 4e35 eebd
00000210: 651e 6c3d 2a4b eabb 479c babe 3d0c 13be
00000220: 0817 53bd 6979 a1bd 9521 0ebe 31a0 1dbc
00000230: 2d33 c83a 6f0a a8b2 5bcc 23be e63f e8bc
00000240: 0df9 e3bc 5a7e ac3d ccb7 1e3c 3119 da3d
00000250: b3d7 cebd 7984 d5bd 0ad8 97bd 18af 20bd
00000260: 04ad bbbc 77b7 c53c c6de 303d 7e33 d5bd
00000270: e44a b43d be44 2abe 4379 ce3b a14a bf3d
00000280: af7e 5dbd 290c 41bd df5d 7ebc 54c9 533d
00000290: 14ed 77bc 4e44 58bd 42c9 55be 5f7c 153d
000002a0: bbc2 7cbd 2d77 5e3d 291c 3bbd 2fb5 c2bd
000002b0: 0b58 d53d db9c b134 92fb 043d a3b9 b63d
000002c0: 98c4 c03d d2da df3d 2cdd 38bd f3ad fabd
000002d0: e730 a23c b177 d33d 305a cebc 66ea 303e
000002e0: 9ce3 273e 42ed 93bd e88b 0fbe 6279 0e3e
000002f0: c104 60bd 2a00 23be 8e29 0f3e 0a47 f1bd
00000300: 17c6 423e 14dd edbd 1048 9dbd 4b7b 473d
00000310: 6e3f 1c3e f844 143d ae85 9c3d 50e0 8c3d
00000320: 8649 13be af95 e4bd 5fe2 2b3e dd1f eb3c
00000330: aa23 233e 3e9c 2337 6804 fa3c eeb0 7c3e
00000340: a3c4 4cbd 5531 d4bd f6d8 3dbc f626 06bc
00000350: 950c cdbd 0226 a73d 124d 04bd c258 e43d
00000360: 669e 3fbd b329 083e 7d4c 863c 785c 7abd
00000370: fb05 6e3d d973 d9bc 4c98 853a 0c18 e23d
00000380: 70da 40bd dfb9 cabd 756e a23d 7a09 663d
00000390: 5e4a 413d b838 163d 32c1 8abe ab25 963d
000003a0: f9e0 bdbd be6e 0e3d ae47 2bbe 46fc 903c
000003b0: 58a4 a63d e6d2 e732 6a50 da3d 9b18 a53d
000003c0: 8d14 703c 415e a13a 0caf b8bd 91f6 b4ba
000003d0: 947e 65bd 4f6b ad3d d20d 2bbe f339 693c
000003e0: d809 b43d cabf 25be 1c3c c3bd 06af 303c
000003f0: 15c8 da3d 11c0 2bbd f98b 8b3c 6db0 c03d

gcn.lin_2.bias f4 [32]
-0.051907163 0.077704504 0.07201582 -0.10329959 0.06930204 0.071374156 -0.11037328 0.059458755
-0.1231147 -0.13832785 -0.14877295 0.08907627 -0.071368635 -0.035808653 0.044197533 0.06795474
-0.06810974 -0.1025515 0.17740177 0.025618259 0.021237917 0.17985189 0.1327162 0.008056434
-0.07418465 0.13989198 0.10278048 0.043022506 0.06920864 -0.117505774 0.1991593 0.13362409
00000000: 9b9c 54bd 8a23 9f3d 087d 933d bc8e d3bd
00000010: 3aee 8d3d 9d2c 923d 630b e2bd 068b 733d
00000020: 8f23 fcbd d1a5 0dbe f057 18be 9f6d b63d
00000030: b829 92bd 18ac 12bd 7908 353d db2b 8b3d
00000040: 1f7d 8bbd 8506 d2bd cfa8 353e 62dd d13c
00000050: 24fb ad3c 182b 383e c1e6 073e 22ff 033c
00000060: 1fee 97bd d83f 0f3e 937e d23d 5e38 303d
00000070: 42bd 8d3d dea6 f0bd 6af0 4b3e c1d4 083e

nf.base_dist_mean f4 [51, 1]
0.020174067 1.7528486 0.894319 1.4008553 0.048412476 0.2501666 1.0261953 0.061934385
-0.040660657 -0.87936956 -1.0831448 -0.9695743 0.63426584 0.4103369 -0.7878262 0.18839462
1.0340477 0.06481741 -1.1625723 -1.0964829 2.7816944 -0.033343386 0.59313416 -0.87243515
-0.6193078 -1.5328398 -0.61345637 -0.33611178 0.16643143 0.4005989 1.0540769 1.2149163
-2.7816916 -0.9404845 1.2481245 -1.2947092 -0.24852392 -1.054064 0.9050176 1.0136412
0.3494639 1.2986006 1.1329695 -0.235911 -1.2726965 0.65795594 0.030896131 0.9758962
-0.9062687 -0.38724828 -0.67314935
00000000: 1644 a53c 585d e03f 17f2 643f 3a4f b33f
00000010: 294c 463d d615 803e 5e5a 833f e9ae 7d3d
00000020: ca8b 26bd 5d1e 61bf 7da4 8abf 0536 78bf
00000030: 3f5f 223f ae17 d23e faae 49bf 85ea 403e
00000040: ad5b 843f febe 843d 2bcf 94bf 8d59 8cbf
00000050: 4807 3240 1393 08bd a4d7 173f e957 5fbf
00000060: f58a 1ebf 1834 c4bf 7a0b 1dbf d816 acbe
00000070: 006d 2a3e 4d1b cd3e feeb 863f 6182 9b3f
00000080: 3c07 32c0 98c3 70bf 8bc2 9f3f 08b9 a5bf
00000090: 0e7d 7ebe 92eb 86bf 3caf 673f ffbe 813f
000000a0: efec b23e 8b38 a63f 2505 913f a792 71be
000000b0: b8e7 a2bf cd6f 283f e219 fd3c 55d4 793f
000000c0: 3a01 68bf 6845 c6be 8453 2cbf

nf.base_dist_var f4 [51, 1]
1.0 1.0 1.0 1.0 1.0 1.0 1.0 1.0
1.0 1.0 1.0 1.0 1.0 1.0 1.0 1.0
1.0 1.0 1.0 1.0 1.0 1.0 1.0 1.0
1.0 1.0 1.0 1.0 1.0 1.0 1.0 1.0
1.0 1.0 1.0 1.0 1.0 1.0 1.0 1.0
1.0 1.0 1.0 1.0 1.0 1.0 1.0 1.0
1.0 1.0 1.0
00000000: 0000 803f 0000 803f 0000 803f 0000 803f
00000010: 0000 803f 0000 803f 0000 803f 0000 803f
00000020: 0000 803f 0000 803f 0000 803f 0000 803f
00000030: 0000 803f 0000 803f 0000 803f 0000 803f
00000040: 0000 803f 0000 803f 0000 803f 0000 803f
00000050: 0000 803f 0000 803f 0000 803f 0000 803f
00000060: 0000 803f 0000 803f 0000 803f 0000 803f
00000070: 0000 803f 0000 803f 0000 803f 0000 803f
00000080: 0000 803f 0000 803f 0000 803f 0000 803f
00000090: 0000 803f 0000 803f 0000 803f 0000 803f
000000a0: 0000 803f 0000 803f 0000 803f 0000 803f
000000b0: 0000 803f 0000 803f 0000 803f 0000 803f
000000c0: 0000 803f 0000 803f 0000 803f

nf.net.0.net_input.weight f4 [32, 1]
-0.3756445 0.49912006 -0.8941901 -0.9421063 0.9741773 0.010922828 -0.6647246 -0.7216217
-0.74422944 -0.22880785 0.765557 -0.40769678 0.3301459 0.46702126 0.31729248 0.28888077
0.5023963 0.2484773 0.4700598 -0.5706726 0.11741146 0.4712686 0.23176585 0.46785906
0.32750723 -0.88006157 0.6074096 0.4429992 -0.40636402 -0.43030474 -0.69930524 0.67540276
00000000: 7a54 c0be aa8c ff3e a4e9 64bf e12d 71bf
00000010: af63 793f a9f5 323c 642b 2abf 33bc 38bf
00000020: d285 3ebf 9b4c 6abe 8bfb 433f a2bd d0be
00000030: e208 a93e 691d ef3e 2974 a23e 2ee8 933e
00000040: 0b9d 003f d570 7e3e aeab f03e 9917 12bf
00000050: 6b75 f03d 1e4a f13e 0754 6d3e 398b ef3e
00000060: 07af a73e b74b 61bf 327f 1b3f cbd0 e23e
00000070: f20e d0be e750 dcbe ab05 33bf 32e7 2c3f

nf.net.0.net_input.bias f4 [32]
0.38975614 0.47516793 0.37330678 -0.10494197 -0.584751 0.5718077 -0.9113837 0.13489316
0.6918371 0.2566871 -0.08648462 -0.6574392 -0.021384314 -1.0181245 -0.34508187 -0.7256548
0.88589954 -0.8612803 -0.6747284 -0.5440264 -0.92827827 -0.5875112 0.87053084 0.6738006
0.9137129 1.0625355 -0.7276969 0.2074478 -0.39903277 0.43718225 0.62832445 0.06728439
00000000: 1e8e c73e 3649 f33e 1122 bf3e d1eb d6bd
00000010: 3eb2 15bf fd61 123f 7150 69bf 6f21 0a3e
00000020: 3c1c 313f 7e6c 833e d91e b1bd ef4d 28bf
00000030: 282e afbc e751 82bf 92ae b0be 83c4 39bf
00000040: 50ca 623f de7c 5cbf 00bb 2cbf 5045 0bbf
00000050: a5a3 6dbf 2267 16bf 1cdb 5e3f 327e 2c3f
00000060: 17e9 693f 2a01 883f 584a 3abf 326d 543e
00000070: 064e ccbe 5ad6 df3e dfd9 203f 66cc 893d

nf.net.0.net_input.cond_weight f4 [32, 32]
0.07364049 0.21751796 0.20244959 -0.024521662 0.10458835 0.1363678 0.0879486 0.14520463
-0.08386617 0.02984085 -0.012576026 0.14968714 0.008088448 0.07774361 0.20402688 0.22920716
-0.009260425 0.06036275 0.15790848 -0.009980786 0.1817715 0.15547153 0.2588767 0.22765672
0.009212481 0.21491523 0.20366645 0.14581412 0.18581401 0.07346847 0.11836679 0.10421371
0.035860002 0.07341403 0.06378136 0.029592887 0.22129072 0.15645625 0.050953273 0.06343405
0.09083735 0.06403443 0.027089464 0.21708874 0.08305654 0.03905994 0.117117114 0.14564702
-0.017415449 0.11286561 0.2026472 -0.021687105 0.18283603 0.12027065 0.15459739 0.20349643
0.046005487 0.15475339 0.14930373 0.20492686 0.11960708 0.04651849 0.15120669 0.13298051
0.04922504 0.041966524 0.02018569 0.16043045 0.02377023 -0.015301177 0.13004643 0.06983811
0.17376363 0.08680685 0.15150176 -0.02732679 0.06364827 0.10983734 -0.030379504 -0.05642149
0.06038152 0.11918946 -0.023622125 0.1304162 0.0068176207 0.070476644 0.046122357 0.08108136
0.149688 0.070691645 -0.0151712615 -0.0010220582 0.07206357 0.18854928 0.07720475 0.04492695
0.20625599 0.1894186 0.10522201 -0.010212998 0.18958017 0.100814514 0.096162625 0.17759177
0.0118526835 0.037498973 -0.021024773 0.044999793 -0.046882175 0.02573611 0.114009134 0.21207127
-0.05441768 0.017216135 0.24370012 0.008017155 0.08583611 0.17024827 0.11793797 0.19537453
-0.023244856 0.13120557 0.12958652 0.10382016 0.20161842 0.052113228 0.23210855 0.07705018
0.087759465 0.03925489 0.03187742 0.10736669 0.04157906 0.013820171 0.07853761 0.090636104
0.069287926 0.09614438 0.092937484 0.017950231 -0.010463804 -0.018499117 0.18676366 0.04342485
0.017050812 0.05149268 0.08627689 0.09067162 0.081962265 0.16187619 0.13108522 0.07525437
0.12611723 0.11540086 0.16456114 0.023241945 0.15587549 0.06872668 0.14807719 0.021829644
0.09921029 0.07307116 0.11478294 0.07837247 0.0189795 0.0435999 0.014040282 0.16355212
0.18047057 0.021917785 0.03476186 0.075097434 0.13119307 0.1803977 0.08154453 0.0885643
0.10293724 0.14142177 0.11237587 0.029903308 0.06042299 0.1005573 0.13752215 0.107080966
0.20640066 0.045380455 0.1412365 0.07233513 0.049002297 0.05748491 0.09124928 0.13351417
0.16403341 -0.0073630987 0.039468803 0.10214713 0.032766458 -0.037853673 0.15404785 0.038383473
0.090313725 0.15313281 0.10548869 0.018958064 0.08808475 0.17129396 0.038882397 -0.016040847
0.12571836 0.10215719 -0.035423495 0.11416621 -0.07537933 -0.04193551 -0.014994257 -0.0385584
0.23125334 0.053105876 -0.046579976 -0.085725605 -0.037941646 0.2224541 -0.025924837 0.052464876
0.11654527 0.0977983 0.1649241 0.054548133 0.21188703 0.20782305 -0.028649554 0.0828878
0.035126537 0.055160683 0.06158531 0.13339531 0.06710186 0.11316546 0.22318527 0.10885784
0.044116184 0.05510631 0.089231685 0.0013972158 0.122044705 0.13394108 0.17516461 0.13636577
0.026709935 0.1913088 0.14198932 0.10882202 0.102866314 0.09484495 0.09887694 0.21552192
00000000: d3d0 963d 07bd 5e3e f24e 4f3e a7e1 c8bc
00000010: 6b32 d63d 00a4 0b3e 651e b43d 86b0 143e
00000020: 07c2 abbd cc74 f43c ad0b 4ebc 9647 193e
00000030: 6985 043c 0b38 9f3d 6cec 503e 48b5 6a3e
00000040: 0ab9 17bc ee3e 773d c3b2 213e 7386 23bc
00000050: 4f22 3a3e ee33 1f3e 7d8b 843e d81e 693e
00000060: f2ef 163c bd12 5c3e f08d 503e 4c50 153e
00000070: 0746 3e3e a376 963d 4a6a f23d ff6d d53d
00000080: f0e1 123d 185a 963d cd9f 823d c86c f23c
00000090: 099a 623e 1136 203e 61b4 503d b6e9 813d
000000a0: ef08 ba3d 7c24 833d b9ea dd3c 834c 5e3e
000000b0: 8c19 aa3d 51fd 1f3d 19db ef3d 7e24 153e
000000c0: d8aa 8ebc 1626 e73d bf82 4f3e 28a9 b1bc
000000d0: 5e39 3b3e 7550 f63d c74e 1e3e 5e61 503e
000000e0: 4070 3c3d ac77 1e3e 14e3 183e 59d8 513e
000000f0: 8ff4 f43d 2c8a 3e3d edd5 1a3e 0b2c 083e
00000100: 32a0 493d 17e5 2b3d 765c a53c e147 243e
00000110: c9b9 c23c cab1 7abc e42a 053e 4807 8f3d
00000120: 18ef 313e cac7 b13d 4723 1b3e 6fdc dfbc
00000130: 065a 823d 66f2 e03d 70de f8bc 381a 67bd
00000140: 9d52 773d 9b19 f43d 3083 c1bc d38b 053e
00000150: 5966 df3b 0f56 903d ccea 3c3d fc0d a63d
00000160: d047 193e c8c6 903d e290 78bc 95f6 85ba
00000170: 1196 933d 1013 413e 861d 9e3d 5205 383d
00000180: c534 533e f3f6 413e a37e d73d 6b54 27bc
00000190: 4e21 423e d777 ce3d e9f0 c43d 9eda 353e
000001a0: c231 423c 8698 193d 253c acbc b451 383d
000001b0: 8607 40bd 89d4 d23c 9f7d e93d 3629 593e
000001c0: 13e5 5ebd da08 8d3c 868c 793e 635a 033c
000001d0: d8ca af3d 9055 2e3e 7689 f13d 4310 483e
000001e0: ff6b bebc c15a 063e 54b2 043e aa9f d43d
000001f0: 0f75 4e3e ae74 553d ddad 6d3e 7ccc 9d3d
00000200: 3cbb b33d bcc9 203d e691 023d 11e3 db3d
00000210: ce4e 2a3d 006e 623c 54d8 a03d 6c9f b93d
00000220: d4e6 8d3d 58e7 c43d 0256 be3d 5d0c 933c
00000230: 6070 2bbc 768b 97bc f93e 3f3e 41de 313d
00000240: 25ae 8b3c fde9 523d f0b1 b03d 0bb2 b93d
00000250: d5db a73d dfc2 253e 343b 063e f71e 9a3d
00000260: e024 013e 4957 ec3d b782 283e e465 be3c
00000270: d39d 1f3e 93c0 8c3d 8ca1 173e 15d4 b23c
00000280: c42e cb3d 55a6 953d 5113 eb3d bf81 a03d
00000290: e57a 9b3c cf95 323d 3609 663c 357a 273e
000002a0: 47cd 383e ed8c b33c 7462 0e3d afcc 993d
000002b0: 7a57 063e 2dba 383e d200 a73d 3361 b53d
000002c0: c2d0 d23d ded0 103e 5225 e63d c8f7 f43c
000002d0: 197e 773d fcf0 cd3d 9bd2 0c3e 444d db3d
000002e0: b25a 533e dbe0 393d 4da0 103e 7124 943d
000002f0: a2b6 483d 4c75 6b3d e7e0 ba3d f0b7 083e
00000300: 60f8 273e 2646 f1bb 0aaa 213d 8432 d13d
00000310: 1f36 063d 740c 1bbd b8be 1d3e fd37 1d3d
00000320: 67f6 b83d d9ce 1c3e 740a d83d f14d 9b3c
00000330: c765 b43d af67 2f3e 2643 1f3d 1868 83bc
00000340: 50bc 003e ca37 d13d 3a18 11bd f9cf e93d
00000350: 7a60 9abd 92c4 2bbd 79aa 75bc 6aef 1dbd
00000360: adcd 6c3e 8c85 593d a5ca 3ebd e890 afbd
00000370: b368 1bbd 02cb 633e 5360 d4bc 69e5 563d
00000380: 49af ee3d 7a4a c83d dde1 283e dd6d 5f3d
00000390: eaf8 583e 91cf 543e 78b2 eabc 14c1 a93d
000003a0: d8e0 0f3d 2bf0 613d e140 7c3d c898 083e
000003b0: b36c 893d 4bc3 e73d ae8a 643e dcf0 de3d
000003c0: 2cb3 343d 27b7 613d 1abf b63d c822 b73a
000003d0: 93f2 f93d da27 093e 5a5e 333e 78a3 0b3e
000003e0: cbce da3c 74e6 433e a665 113e 14de de3d
000003f0: 93ab d23d 123e c23d fe7f ca3d c7b1 5c3e

nf.net.0.net_input.mask f4 [32, 1]
1.0 1.0 1.0 1.0 1.0 1.0 1.0 1.0
1.0 1.0 1.0 1.0 1.0 1.0 1.0 1.0
1.0 1.0 1.0 1.0 1.0 1.0 1.0 1.0
1.0 1.0 1.0 1.0 1.0 1.0 1.0 1.0
00000000: 0000 803f 0000 803f 0000 803f 0000 803f
00000010: 0000 803f 0000 803f 0000 803f 0000 803f
00000020: 0000 803f 0000 803f 0000 803f 0000 803f
00000030: 0000 803f 0000 803f 0000 803f 0000 803f
00000040: 0000 803f 0000 803f 0000 803f 0000 803f
00000050: 0000 803f 0000 803f 0000 803f 0000 803f
00000060: 0000 803f 0000 803f 0000 803f 0000 803f
00000070: 0000 803f 0000 803f 0000 803f 0000 803f
