checkpoint/SWaT/model.pth (torch, 131183 bytes, 27 tensors)

rnn.weight_ih_l0 f4 [128, 1]
000000 c3 33 1e 3d 55 e5 c5 3d b4 ae 2d be 63 7a 66 be
       0.038623583 0.09662882 -0.16961175 -0.22507624
000010 79 ed 82 bc e5 eb b1 bd 38 8d 50 3c a8 b9 72 3d
       -0.015982376 -0.086875714 0.012728982 0.059259087
000020 2d db 96 3d 4d b4 98 3d cf a1 2e 3e 6b 55 bb bd
       0.07366023 0.07456265 0.17053913 -0.091471516
000030 5f a3 98 bd 5d 7f c6 3c c7 90 ff 3d d9 6a 16 be
       -0.074530356 0.024230653 0.12478786 -0.14689197
000040 eb ac f3 3d e5 01 4e be ae 91 31 bd 4d 2d 5d 3d
       0.11898216 -0.2011791 -0.04335182 0.05399828
000050 0f 7d fe 3d 88 1e 43 3c b7 4b 42 be c3 8f e2 bd
       0.12426197 0.011909135 -0.18974195 -0.110625766
000060 8e d8 3b be 2e f9 24 bd 54 05 89 3d 8d 2d 13 be
       -0.18344328 -0.0402767 0.066904694 -0.14372845
000070 93 1c f4 3d 11 84 15 3e fc be 1f be 6c d9 9f 3c
       0.119195126 0.1460116 -0.15600199 0.019512855
000080 dd 0c c8 bc ce ee 71 bd d4 18 25 bc 18 96 82 be
       -0.024420196 -0.059065633 -0.01007672 -0.25505137
000090 0c 71 8c bd 27 54 fa 3d 6e d6 0e bd ef e0 4e 3c
       -0.068574995 0.12223082 -0.034872465 0.012626871
0000a0 e8 8e 32 3d 28 91 34 3e 09 eb b4 3c 16 e7 b7 bd
       0.043593317 0.17633498 0.02208473 -0.08979623
0000b0 a6 02 03 be 4d 4a 33 be 11 0a 53 3c 57 b8 1d 3e
       -0.12793979 -0.17508812 0.012880818 0.15402351
0000c0 1e c2 f9 3b c3 e0 f2 3d 56 75 c3 3d 29 1c fc bc
       0.0076220175 0.11859276 0.095438644 -0.030775147
0000d0 1a 94 b4 bd b1 46 1d bd 85 12 fd 3d 80 d0 99 3d
       -0.08817311 -0.038397495 0.12357048 0.07510471
0000e0 28 b1 73 bd c5 a5 b9 bd f4 0a a1 3d a5 15 65 3d
       -0.05949512 -0.09064821 0.07863417 0.055928845
0000f0 e8 ef de 3a bc 4f c6 bd 53 2c bb 3d f0 bf 80 3d
       0.0017008753 -0.09683177 0.091393135 0.06286609
000100 6e b9 b9 bd a4 0f c2 3d 6c 49 03 3d 92 09 35 3e
       -0.09068571 0.094756395 0.032052442 0.17679432
000110 a5 20 ae 3d 27 3c 29 3c fc 13 10 be 52 5a 26 3e
       0.0850232 0.010329283 -0.14070123 0.16245392
000120 0f 0c b2 bb 4f 74 16 3e 55 85 6e 3d f0 ae 1c be
       -0.0054335664 0.14692806 0.058232624 -0.15301108
000130 a1 5c 68 bc 40 ab 22 be 56 85 f3 bd d8 de 09 be
       -0.014182241 -0.15885639 -0.11890666 -0.13463914
000140 cd 53 0e be 25 67 18 bd 86 94 5d be e1 1d 88 3e
       -0.13899155 -0.03720774 -0.21638688 0.26585296
000150 b6 b2 b1 bc 74 44 9d bc 60 b9 62 3d 6c 4d f0 3d
       -0.021691661 -0.01919768 0.05535257 0.11733517
000160 b0 3c 78 3e 5a 21 d6 bd 07 13 2b 3c 9a f2 5c 3d
       0.242419 -0.1045558 0.010441548 0.0539423
000170 12 19 ff bd a8 3b 94 3b 54 de 18 3e 43 44 13 bd
       -0.12455954 0.004523713 0.14928561 -0.03595377
000180 1c f7 3c 3e c0 17 43 be 61 e8 99 bd 5c 90 15 be
       0.1845364 -0.19052029 -0.07515026 -0.1460585
000190 6e ee f3 3d 63 6f 1e be 92 be 70 bd 59 d7 24 3a
       0.11910711 -0.15472178 -0.058775492 0.0006288193
0001a0 e8 1a 75 bd 8f 10 70 3e 8f 37 06 3e f1 92 5a 3e
       -0.059840113 0.23443817 0.13107131 0.21345116
0001b0 66 62 9c 3d 6f 09 ac 3b 30 12 0c 3d b9 e2 c8 3d
       0.076359555 0.005250148 0.034197032 0.09808869
0001c0 d5 5a 1e be b6 4d b9 3d 31 db 07 be 4c f2 bd 3c
       -0.15464337 0.09048025 -0.13267209 0.023186825
0001d0 1c c0 1a 3e aa 0e e2 3c ed 12 07 3e 98 68 f2 3d
       0.15112346 0.027594883 0.13190813 0.11836356
0001e0 c1 77 0b 3e 1e 33 b8 3d 34 c5 d8 bd 5c 5a 54 3e
       0.13619901 0.08994125 -0.105844885 0.20737594
0001f0 db 9d 16 bd c9 fa 60 3d 42 bb b3 bc 41 dd a7 3d
       -0.036771636 0.054926667 -0.021939877 0.08196498

rnn.weight_hh_l0 f4 [128, 32]
000000 a9 a6 42 3d ad 16 0b bd af 13 76 3d 22 50 58 bc
       0.04752222 -0.033957172 0.060077365 -0.013202699
000010 f3 6b 80 bd 3a 50 a9 3c ca bb cf 3d 43 db ca 3d
       -0.0627059 0.020668138 0.1014324 0.09905102
000020 7e f6 b4 bd 7c b3 15 3e 0b fe 89 3d c5 83 68 39
       -0.08836077 0.14619249 0.06737908 0.00022174332
000030 88 0a 16 be 04 54 0b bd 95 66 ca 3d 9c 31 e7 3d
       -0.14652455 -0.03401567 0.09882847 0.11288759
000040 e2 6e 69 bc b9 8a 8a 3c 96 8f 33 bd aa af 79 3c
       -0.014247628 0.016911851 -0.043838106 0.0152396355
000050 6d fb b4 bb 3c 6b ad bd 7d 79 e8 3c 9d 76 d1 bc
       -0.0055231364 -0.08467719 0.028378243 -0.025569255
000060 58 ac 9f bb 90 8f 64 bd 8c 1e 7e 3d 68 b4 8c 3d
       -0.00487284 -0.055800974 0.06204085 0.06870347
000070 d9 8e ba 3c 97 ae ef bd e3 0c 10 3e 2e 8d 9d bd
       0.022773193 -0.11703222 0.14067416 -0.076929435
000080 81 65 28 3c 83 e8 7c bd 8c 61 73 bd 51 3c c3 bc
       0.010278107 -0.061745178 -0.0594192 -0.023832472
000090 c9 68 24 3d 69 82 bb 3b 6f 22 d4 3d 10 f7 c1 3c
       0.040138993 0.005722333 0.1035813 0.023677379
0000a0 67 46 1e be c5 e1 2d bd 1c 19 70 3c e0 48 35 3d
       -0.15456544 -0.04245164 0.014654424 0.044258952
0000b0 04 24 2b bd 00 4f 94 3d ed 81 14 3e e6 c8 31 bd
       -0.041782394 0.072416306 0.14502688 -0.043404482
0000c0 85 47 59 3a 4c 50 c0 3d 38 0e fe bd 52 bc 7c bd
       0.00082885503 0.093903154 -0.12405056 -0.061703034
0000d0 dd 43 8f bd 71 5a 95 3d 15 7d 1b 3e a9 c6 b5 3d
       -0.06995366 0.07292641 0.15184434 0.08875782
0000e0 d2 8e 81 3d 4c 13 66 bd 8b c6 db 3d d3 6b 31 3a
       0.06326069 -0.056170747 0.107312284 0.0006768081
0000f0 00 f2 e4 bc 1b eb e4 bd 71 ba 1a 3e e7 87 4c 3c
       -0.027947426 -0.11177655 0.15110184 0.0124835735
000100 3c cf a3 bd f6 09 19 3e 45 7b 0a 3e 78 28 79 3d
       -0.07998511 0.14945206 0.13523586 0.06082961
000110 e6 bb 58 bc 20 f5 eb 3c a6 a1 90 bd c7 02 0a 3e
       -0.013228392 0.028803408 -0.07062082 0.13477622
000120 c5 26 d7 3d 7a 84 9a bd d0 85 ee bc 1f ea fd bd
       0.105054416 -0.07544799 -0.029116541 -0.12398171
000130 31 b7 b0 bd a9 66 ef bc f9 38 b4 bd 02 8f 3c 3d
       -0.08628691 -0.029223757 -0.08799929 0.04603482
000140 57 10 fb 3d 0e 0d fe bc 1a 8f 88 bd 83 14 2e bd
       0.12258976 -0.031012084 -0.066679195 -0.04250003
000150 39 d9 59 3d eb 44 4b 3d 21 b0 62 bd 75 c1 cd bd
       0.053185675 0.049626272 -0.05534375 -0.100466646
000160 bb 0b 59 3d c5 17 9c 3d d8 e7 8c bd eb e6 bd 3c
       0.052989703 0.07621721 -0.06880158 0.0231814
000170 64 de 1d 3e f1 ab f7 3d 78 14 0e 3e b5 05 ba 3c
       0.15416867 0.12093342 0.13874996 0.0227078
000180 ea 92 10 3c 7d 3c 24 3c 42 8b 0f 3b ba da a3 bd
       0.00882409 0.010024187 0.0021903072 -0.08000703
000190 ce f7 41 36 04 99 69 3c bd c9 88 3d a5 0f af bb
       2.8903482e-06 0.014257673 0.066791035 -0.005342441
0001a0 3b 23 06 bc ae e9 d9 bd 23 02 32 bd a2 c5 2f 3d
       -0.008187111 -0.10640274 -0.04345907 0.042913087
0001b0 b5 0e 2d bd 93 2c 10 bd dc 39 83 3d 8e b6 da bc
       -0.042250354 -0.03519876 0.0640752 -0.026698377
0001c0 8d 5b 3c 3d 0c 90 8a bc 9f 9b 58 bd 3c ed 63 bd
       0.045985747 -0.01691439 -0.052882787 -0.055646166
0001d0 57 08 1c 3d 44 ce 1c bd e4 50 e6 3c 86 ee a1 bc
       0.03809389 -0.038282648 0.028114744 -0.019767057
0001e0 03 e5 99 bd 8b a5 cd 3d 2b 8a 3e 3d 8f 69 ae bc
       -0.07514384 0.100413404 0.046518486 -0.021290569
0001f0 5b d7 c0 3d cf f3 a9 3b 95 11 da bd e0 8c 6e 3d
       0.09416076 0.005186535 -0.10647885 0.058239818
000200 66 79 e2 bd 3a cf b2 bd e7 2f 36 3c eb 61 24 bd
       -0.11058311 -0.087309316 0.011119819 -0.040132444
000210 5b 8f 43 bc fe 35 2a bd 2f 75 a5 3d 5d 00 7a bb
       -0.011936034 -0.041555397 0.080789916 -0.003814719
000220 b7 5a b8 3d 68 1a 09 bc f7 94 00 3e 4a bc 0c 3e
       0.090016775 -0.008368112 0.12556826 0.13743702
000230 a0 a8 0d bd 76 a2 ec bd 8a 31 9e 3d f8 22 dc bb
       -0.03458464 -0.115544245 0.077242926 -0.006718036
000240 9e f5 b2 bd f4 3b 43 bd 03 6a 6c 3d 39 8d dc 3d
       -0.08738254 -0.047664598 0.05771829 0.107691236
000250 0f 83 fe 3c fb 1e 89 bd 2a 7f 28 be cd 53 bb 3d
       0.031068353 -0.06695362 -0.16454759 0.09146843
000260 ee ae 30 bd 0e 88 ee bd 76 41 34 bd 1b 51 05 be
       -0.043135576 -0.11647044 -0.04400774 -0.1301922
000270 88 5b d7 bd b2 4b 02 3e bf e6 fa 3d b5 b4 1c 3e
       -0.10515505 0.12724188 0.122510426 0.1530331
000280 71 be 12 bd 71 1b a7 3c 7e bc cc 3d 13 b2 25 3c
       -0.03582615 0.020398827 0.099968895 0.010113257
000290 bb 8e 62 bd 27 92 b3 3c c2 b3 da bb 8d f8 ac 3d
       -0.0553119 0.021920277 -0.006674261 0.08445845
0002a0 29 90 40 3c e3 82 69 bc 9c 43 08 3d 23 ae 08 3e
       0.01175312 -0.014252397 0.033267602 0.13347678
0002b0 90 11 d5 3b 27 f0 db bd 08 ac 6b 3d 21 6a 9f bd
       0.0065023378 -0.10739165 0.05753711 -0.07783914
0002c0 c6 67 f8 bd d3 37 b7 bc d8 f3 8f bd 56 26 98 3d
       -0.12129168 -0.022365486 -0.070289314 0.07429187
0002d0 c3 dd 05 be dd 66 ad 3b 7b 4b 5c bd 32 35 35 3d
       -0.13072877 0.0052918033 -0.05378292 0.044240184
0002e0 db 95 cf bc 5b e1 6e 3d f7 c9 aa bb c0 37 a9 ba
       -0.025340011 0.058320384 -0.0052120644 -0.0012910292
0002f0 6e be fb bd 44 a5 8b bc 9a 62 f9 3b 2b 22 d2 3c
       -0.12292181 -0.017046578 0.007610631 0.025651058
000300 56 52 83 bd 1d ac 51 bd 71 89 b3 ba ea 96 73 3d
       -0.06412189 -0.05118953 -0.0013697577 0.059470095
000310 9a 98 2f be 48 6f 5d bd 49 a2 ee 3c e4 49 2d 3c
       -0.17148057 -0.054061204 0.029130118 0.010576699
000320 68 7d 10 be 22 ff c3 ba 76 b1 58 bb 3c ea 19 3d
       -0.14110339 -0.0014953355 -0.003306476 0.0375769
000330 73 54 03 3e 2b 6e c0 3d ed 19 ba bd 71 53 bf bd
       0.12825184 0.09396013 -0.09086976 -0.09342087
000340 8c c2 0a 3d d4 0b 98 3d 4e a6 01 be 3f a3 90 bd
       0.03387694 0.07424131 -0.12661096 -0.07062387
000350 8c c2 8f bd f7 e2 18 3e 18 1e 15 3e 6f 42 05 3e
       -0.07019529 0.1493033 0.14562261 0.13013624
000360 19 4e ae 3d de 0b 6c 3d 5c b5 c7 3d 07 aa ba 3d
       0.0851099 0.057628505 0.097513884 0.091144614
000370 c2 49 ed 3c ce 45 6e 3d 36 2a 11 be ff b5 ba bd
       0.028965835 0.05817204 -0.14176258 -0.09116744
000380 53 b0 40 bc 60 a6 08 3d d6 4f bb 3d 17 e9 cf 3d
       -0.011760789 0.033361793 0.09146087 0.1015188
000390 92 03 8f 3d 57 bb 97 bd 96 fb de 3d c2 8b 1b 3e
       0.06983103 -0.07408779 0.1088783 0.15190032
0003a0 8f 23 21 3d 9f 96 08 be 99 80 27 3d 4d df 8c bd
       0.039340552 -0.13338707 0.040894125 -0.06878529
0003b0 b6 8e 9f ba 4e 97 9c bd b9 b3 29 3e 8f 4d 09 be
       -0.0012173268 -0.076460466 0.16572465 -0.13408493
0003c0 3f 91 32 bd c6 84 a3 ba b8 a9 62 bc a6 01 41 bd
       -0.04359555 -0.0012475483 -0.013834409 -0.047120713
0003d0 c6 73 f0 bd 96 22 70 bd 48 a7 e4 3d 6a eb bd bd
       -0.11740832 -0.058626734 0.11164719 -0.09273417
0003e0 85 9f 1d 3e 64 70 85 bc c8 44 b1 3d 1f 02 f7 3c
       0.15392883 -0.016288944 0.08655697 0.030152379
0003f0 b2 2c ac 3d 47 44 94 bd b3 34 10 be 3d d6 bd bd
       0.084069625 -0.07239585 -0.14082603 -0.09269378

rnn.bias_ih_l0 f4 [128]
000000 7f 00 0e 3e 04 94 0b bd 0f 72 9f 3c 02 23 c5 bd
       0.13867377 -0.034076706 0.019463567 -0.09625818
000010 20 50 c6 3d d6 ac c2 3b 8a 08 3f be 86 71 f8 3c
       0.096832514 0.005941014 -0.18655601 0.03032757
000020 83 4c 65 3d 46 d3 93 3c a6 e8 db 3d 89 2c 1a be
       0.05598117 0.018045079 0.107377335 -0.15056051
000030 38 5b 27 be ad 80 6d 3d cc 03 02 be 88 0c 09 3e
       -0.16343391 0.057984043 -0.12696761 0.13383687
000040 cd 9a 37 be 68 76 37 be 3f 16 21 bd 86 46 62 bd
       -0.17930146 -0.17916262 -0.039327856 -0.055243038
000050 ad 66 df bc 57 a9 13 be cd a8 dc b8 c3 bc 40 bd
       -0.02727064 -0.14420067 -0.00010521859 -0.047055017
000060 3f 67 6e 3e 69 67 ac 3d a8 67 a2 3d 1e 64 9e 3d
       0.23281573 0.084181614 0.07929927 0.077339396
000070 d4 97 0c 3d bc bb 77 3b 35 af d6 bb e8 0c ae bc
       0.034324482 0.0037801107 -0.006551648 -0.021246389
000080 a3 10 15 3e 03 f2 8c bd 6f e0 52 3d a9 78 14 3e
       0.14557128 -0.068820976 0.051483568 0.14499153
000090 16 bc 17 3d a1 3c 13 be 50 02 90 bc af 9f c0 bd
       0.037044607 -0.14378597 -0.017579228 -0.09405457
0000a0 4a 96 a4 3c 55 44 b9 bd 7e 26 25 3d 6e 4a be bd
       0.020091195 -0.090462364 0.040319912 -0.0929154
0000b0 7b 79 aa ba ed 07 9c bc f6 f7 57 bd db 41 a2 bd
       -0.0013006175 -0.019046748 -0.05272671 -0.07922717
0000c0 13 92 06 be c9 18 e8 3c c7 11 ca 3d c0 ef a5 3d
       -0.1314166 0.028332131 0.09866672 0.08102369
0000d0 49 af 0a 3e 62 bc 49 bd 41 8c 9e bd 88 40 75 3a
       0.13543428 -0.04925192 -0.07741595 0.0009355624
0000e0 99 bd 5e 3e f6 8f aa bd d7 84 3f bb 1b 76 0b 3e
       0.21752013 -0.083282396 -0.0029223466 0.13619272
0000f0 59 f4 89 bc 1e e6 1b be 39 c4 d8 3d 32 96 c7 3d
       -0.016840147 -0.15224501 0.105843015 0.09745444
000100 65 ec df bc 31 25 3a 3d dc 2a 31 be f2 2e eb 3d
       -0.027334401 0.045445625 -0.17301506 0.114835635
000110 55 1b 7f 3d 5f 76 8b bb f6 9f 3a be 74 88 08 3e
       0.062281925 -0.0042560543 -0.18225083 0.13333303
000120 39 27 3b 3e ba 3c 54 bc 8e a8 09 3d 5e 32 33 be
       0.18276681 -0.0129539315 0.033608012 -0.17499682
000130 b6 64 87 3b 7d 1a 59 3d fd 0b d3 bd fe 2f 48 3e
       0.0041318787 0.053003777 -0.10305021 0.19549558
000140 ef fa 23 3e 85 d4 e4 3d 06 cc ad bd 0a 07 10 be
       0.16013692 0.111733474 -0.0848618 -0.14065185
000150 8a 31 f2 3d 71 b0 d0 bd af d7 1a bd 2c f7 ed bd
       0.11825855 -0.101899035 -0.03780335 -0.1161941
000160 13 7c 68 bc 45 22 a5 3d 8d 2a ee bc b7 57 95 bb
       -0.014189738 0.08063177 -0.029073024 -0.0045575756
000170 eb 63 26 3e 79 95 94 3c cb 5f e4 3d 0e 30 26 3d
       0.16249053 0.01813768 0.111510836 0.040573172
000180 a5 43 2e be 99 97 a3 3d d5 d0 14 3e de 40 0c 3e
       -0.17017992 0.07987899 0.14532788 0.1369662
000190 29 c0 f9 3d f4 d0 a1 3d f5 3c 21 be b5 10 b2 3d
       0.12194855 0.07901183 -0.1574591 0.08694593
0001a0 a5 99 c1 3d 25 ac f0 3d 0f df ff 3d 1f e1 d4 3d
       0.094531335 0.11751584 0.12493717 0.10394501
0001b0 9b 96 df 3d e1 00 ac 3d 5d ab fa 3d 6c 79 c2 bd
       0.109173976 0.08398605 0.12239716 -0.09495816
0001c0 41 bf 9d bd 57 43 cb 3d 7b c2 82 3c ce 05 aa 3d
       -0.077024944 0.099249534 0.015961876 0.083018884
0001d0 09 af ff bd be 18 0a be e4 61 cb bd ee ed d4 bd
       -0.12484557 -0.13486001 -0.099307805 -0.10396944
0001e0 5e ac c2 3e ef ea 1f 3e 7b ac 35 bc a6 a5 5a bd
       0.3802213 0.15616964 -0.011088486 -0.05338063
0001f0 c2 cb 35 be 6c 16 d1 bd 61 76 b4 bd 51 9d ea b9
       -0.17753509 -0.10209355 -0.088116415 -0.00044749168

rnn.bias_hh_l0 f4 [128]
000000 f2 3f ea bb 86 a4 d4 bd 7a cd 95 bd 9c 6c 8b bd
       -0.007148736 -0.10382943 -0.07314582 -0.06807825
000010 fd 6e 11 be 50 86 e7 3d 12 b4 39 be 75 50 34 be
       -0.14202495 0.11304915 -0.18135098 -0.17608817
000020 94 7e a0 bd ad 78 2c be 19 85 c3 bd 30 37 88 3d
       -0.07836643 -0.16842909 -0.09546871 0.06651151
000030 15 db b4 bc 61 ad e4 bd 6f 35 5e 3d 01 51 1c 3e
       -0.022077123 -0.11165882 0.054250177 0.15265276
000040 ba 72 e7 3d f1 c0 27 bb c7 fa 8b bd a9 ba 62 bd
       0.11301179 -0.002559718 -0.06834941 -0.055353794
000050 2c 07 e9 3d 0b 5f 45 be fa b0 34 bb 14 54 32 be
       0.11378321 -0.19274537 -0.0027571307 -0.17414886
000060 3d 49 b3 3d 40 65 8e 3d c5 34 18 be 67 e3 0d be
       0.087542035 0.06952906 -0.1486388 -0.13856278
000070 fa eb d8 bd a3 09 8b bd b9 c6 88 3d 80 d1 73 bd
       -0.10591884 -0.067889474 0.06678528 -0.059525967
000080 9e f5 11 3e b0 f4 f0 bc 89 f7 2c 3e 1c 62 eb 3b
       0.14253852 -0.029413551 0.16891302 0.0071833264
000090 ad d0 56 3d 6b e4 66 39 66 78 37 be 5c fd e3 bc
       0.052445102 0.00022019602 -0.17917022 -0.027830772
0000a0 74 4a 04 3e a7 90 c9 bd 4c bc e5 bd 99 3b 88 3d
       0.12919027 -0.09842043 -0.112175554 0.06651992
0000b0 37 96 10 be c4 93 63 bd cd a9 71 bd aa 9c c3 bd
       -0.14119802 -0.055560842 -0.058999825 -0.09551366
0000c0 4c ac 43 be 80 47 8e b9 51 f9 b7 3d 1e e7 aa bd
       -0.19108695 -0.00027137622 0.089831 -0.08344863
0000d0 b8 40 02 3e a4 ec e4 3c 78 a5 53 be cc 39 ac ba
       0.1272 0.02794487 -0.2066859 -0.0013139783
0000e0 29 59 84 3d f9 e9 d2 bd be 25 9e 3d 60 c9 d0 bd
       0.064623185 -0.10298533 0.077220425 -0.10194659
0000f0 d1 1f 00 3e 04 b8 bb bd 84 fd 4d 3d 73 e7 11 3e
       0.12512137 -0.091659576 0.0502906 0.14248447
000100 69 bd 42 3d 37 d3 fc 3d 0d 18 02 3c 3a d7 f9 bd
       0.047543917 0.123449735 0.007940304 -0.12199254
000110 b1 40 61 bc 93 2a bf 3c d4 64 a3 bc 52 64 81 3d
       -0.013748334 0.02333573 -0.01994554 0.06317963
000120 a1 98 25 3d 26 9a f7 3d ad 85 ef bd e8 87 4c be
       0.04042876 0.12089948 -0.116954185 -0.19973719
000130 4e ec bd 3d 11 55 c5 3d b2 c7 29 3d 01 7f 12 3d
       0.09273587 0.09635366 0.04145021 0.03576565
000140 d5 bc 0f 3e 5f 01 0a be c8 8a 4d 3c 2c 37 02 3c
       0.14036877 -0.13477086 0.012545295 0.007947724
000150 1f 2e cf 3d ba 6b af bd 2d ae a1 bd d2 e9 09 3e
       0.10116219 -0.08565469 -0.078945495 0.13468102
000160 cf 51 9d bc aa d2 dd 3c fe 9e fc bb 7c 27 89 3d
       -0.019204048 0.027077992 -0.007709383 0.06696984
000170 03 e0 12 3e 22 95 1d 3e 97 20 2d 3d e1 2d a4 bd
       0.14343266 0.15388921 0.04226741 -0.08016563
000180 07 cc d1 bd cd 43 d7 bc ac f1 09 3e 45 68 82 bd
       -0.10243993 -0.026277447 0.13471097 -0.06367544
000190 74 fc 13 be 44 2a 0c 3e d9 3d 22 be 96 19 40 3d
       -0.14451772 0.13687998 -0.15843906 0.0468994
0001a0 75 00 70 3b 1f bb f1 bd 8f ca c8 bd 5f 92 35 3e
       0.0036621366 -0.11803269 -0.0980426 0.17731617
0001b0 84 ef bd bd 9e 69 6c 3d e2 69 76 bd 4c 45 bd 3c
       -0.092741996 0.057717912 -0.06015957 0.023104332
0001c0 4c 20 b7 bc 63 a9 25 3d b2 b7 0e bd e2 ec 83 ba
       -0.022354268 0.040444743 -0.034843154 -0.0010065103
0001d0 d6 6e 51 3d 4f fa 5f 3d fa b3 6f 3c 84 43 96 3b
       0.051131092 0.054682072 0.014630312 0.004585685
0001e0 74 e9 86 3e 41 33 b8 bd 51 a1 93 3d c6 c7 a6 bb
       0.26349986 -0.08994151 0.07208503 -0.005089733
0001f0 34 e3 f2 3c fc dd a6 3d db 7d 24 be aa 4c 3b be
       0.029649355 0.08147809 -0.16063635 -0.18290964

gcn.lin_n.weight f4 [32, 32]
000000 01 a3 7e bd be 08 b8 bb ad 35 34 3e 9d 26 30 3d
       -0.06216717 -0.0056162765 0.175986 0.043005574
000010 77 81 c9 3c f3 8d 7b bd bf 1a 9a ba 7a a9 af bd
       0.024597866 -0.06141467 -0.0011757239 -0.08577247
000020 ba 84 0e bd f5 09 a3 bc f0 88 06 be 29 d8 fc 3c
       -0.034794547 -0.019902209 -0.13138175 0.030864792
000030 ee 25 08 be dc 8a c3 bc 0e a9 fd bc 3a 92 e5 3c
       -0.13295719 -0.023869924 -0.0309644 0.028023828
000040 a7 c5 4c 3d 6c 19 18 be e0 78 ca bd 08 41 d2 3d
       0.049993183 -0.14853448 -0.09886336 0.1026631
000050 02 a5 92 bd 7b ee da bd 86 4c b0 3d 0f d6 15 3e
       -0.07160379 -0.10690018 0.08608346 0.14632438
000060 9e b7 6d bd be 3f 80 bd 57 fd 9e bd 0f a5 79 3d
       -0.05803644 -0.06262158 -0.077631645 0.060948428
000070 74 08 10 3d c0 2b 4a bd bd 17 79 3d f3 e8 03 3e
       0.03516431 -0.04935813 0.060813654 0.12881832
000080 dc 46 f3 3d d9 cf 04 bd f3 41 96 bd 41 6e 8c bc
       0.1187875 -0.03242478 -0.073367976 -0.017142417
000090 17 67 19 3c 03 16 e6 bd df b9 e2 bd 29 8d 03 3e
       0.009362957 -0.11234667 -0.11070608 0.12846817
0000a0 5c 21 d8 3c 36 99 19 3e b4 ac 98 3d fe 97 10 be
       0.026383094 0.14999852 0.074548155 -0.1412048
0000b0 d6 89 05 3e 28 67 fc 3b 58 ed 81 3d 95 d8 cb bd
       0.13040861 0.007702727 0.06344098 -0.09953419
0000c0 2d 44 41 3d 97 42 cc 3d a9 bf e2 ba f2 c5 8c 3d
       0.047184158 0.099736385 -0.0017299551 0.068736926
0000d0 03 37 dc 3d 59 6e 05 be e1 3f 23 be 3c b8 58 bc
       0.1075268 -0.13030376 -0.15942337 -0.013227519
0000e0 6b 19 11 be de 0e 2e 3e c4 78 a7 bd ec 8d 26 3c
       -0.14169852 0.16997859 -0.08177331 0.010165673
0000f0 a7 88 1a 3e 07 52 d0 3d 4f 38 84 3d c1 0c 15 3d
       0.15091191 0.101718955 0.064560525 0.036389116
000100 6b 2f 42 bd d1 c1 18 be 96 ab b7 bd 58 8d 0d 3e
       -0.047408503 -0.14917685 -0.08968274 0.1382345
000110 3f 75 53 3d b0 da e7 3d 36 90 2b bb ea b4 0d 3e
       0.051625486 0.11321008 -0.0026178486 0.13838544
000120 77 9f 1c be 0a 73 bf bc 6d 46 f7 3d 66 ac 46 bd
       -0.15295206 -0.023370285 0.120739795 -0.048504256
000130 24 82 3c bd 87 e7 6c bd 7d 28 b7 3d f6 ca 12 be
       -0.04602255 -0.05783799 0.089432694 -0.14335236
000140 3a f6 d4 3c 05 01 96 3d b5 e7 bb 3d a2 33 6c bd
       0.025996316 0.07324413 0.09175054 -0.05766643
000150 1b d3 e9 bd d4 27 22 3e d0 4a 9c bd 9f 2e e0 bd
       -0.11417218 0.15835506 -0.07631457 -0.10946392
000160 15 96 3a bd ce 5e 58 3d 74 eb 47 bc 71 df c1 bd
       -0.045553286 0.052824788 -0.0122021325 -0.09466446
000170 77 d1 dd 3d 89 c4 92 bd 4c fd 04 be 79 e5 36 3d
       0.10830968 -0.07166392 -0.1298725 0.044652436
000180 4c 53 60 3d 8f 2e cc 3d 4f 65 8a ba 66 e6 86 bc
       0.054766938 0.09969818 -0.0010558757 -0.016467284
000190 b7 8e b1 bd e7 38 cc bd 63 66 9d 3d 0c 70 ae bd
       -0.08669799 -0.09971791 0.07685544 -0.08517465
0001a0 d1 69 a2 3d a0 de b1 3c ca f3 0b 3e 0e 08 2e 3e
       0.07930339 0.021712601 0.13667217 0.1699526
0001b0 91 73 02 3e 84 6f 3e be 8d f3 dd 3d 95 d9 ba bb
       0.12739398 -0.18597227 0.10837469 -0.0057022073
0001c0 0b 12 b9 3d a9 bd 66 bd c3 34 9c ba a9 31 7b 3d
       0.090366445 -0.056333218 -0.001191758 0.061326656
0001d0 28 d8 21 3e e8 15 0a be a0 97 ae bd 49 63 64 3d
       0.15805113 -0.13484919 -0.08525014 0.05575875
0001e0 36 f1 e8 3e 98 e8 46 be e5 de 52 3d 50 3a c7 3d
       0.4549653 -0.19424665 0.0514821 0.09727919
0001f0 ad a9 2a be 9c 1f 92 bd 60 78 fb 3d 93 e9 bb 3d
       -0.16666289 -0.07134935 0.12278819 0.0917541
000200 fd 6e 64 bd 4b a3 1d 3e df 47 bd bd ea dd 2d be
       -0.05576991 0.15394323 -0.09242224 -0.16979185
000210 e0 21 ed 3d c8 6b a9 3b c6 83 ec bd a9 3f a0 3d
       0.11578727 0.005170319 -0.11548571 0.07824642
000220 15 6b 11 3e d0 4d 84 bd 54 e9 5d bd 0c 71 de 3d
       0.14201005 -0.06460154 -0.054177597 0.10861406
000230 bd 38 99 bd 75 66 f8 bc 22 1d 67 bd bd 6f 33 3d
       -0.07481525 -0.030322293 -0.056424268 0.043807734
000240 6f 20 b3 bc df c0 f5 bd c0 f4 a6 bd eb 47 8d bc
       -0.021866051 -0.11999678 -0.08152151 -0.017246207
000250 06 40 89 bb f9 2c 4e bd 12 75 11 3e 46 b0 c5 3d
       -0.0041885404 -0.050335858 0.14204815 0.09652762
000260 9a c5 2f 3d e9 e9 b8 bc 95 71 a9 3d 4e be 9d 3d
       0.042913057 -0.022572475 0.08273617 0.07702313
000270 8d 64 c0 3d 06 1c ce bd 34 31 c8 3d a4 de e9 bd
       0.093941785 -0.10063939 0.0977501 -0.114194185
000280 72 d9 23 3d ce df 00 be cc cb 4d 3d 8d 23 56 3e
       0.040002294 -0.12585375 0.050243184 0.20911999
000290 d4 5d 1a 3e 65 92 b6 3c 7c b3 24 bd f7 da 1b be
       0.15074855 0.022286603 -0.040210232 -0.15220247
0002a0 db 1c 0a be 25 7a 43 be 9b ae 82 3c 40 3b 72 3d
       -0.1348757 -0.19089563 0.015952399 0.059138536
0002b0 8c db cb 3d 82 0f cd 3d 92 9d 9b 3c 09 1e 3a 3e
       0.099539846 0.100127235 0.018996034 0.1817552
0002c0 f5 4f bf bc 28 44 0a be e3 95 43 be b5 5f 07 3e
       -0.023353556 -0.13502562 -0.19100146 0.13220103
0002d0 85 2a 1c be 84 c4 c9 bd 5d c4 50 3d ff 66 6c 3d
       -0.15250595 -0.098519355 0.050968517 0.057715412
0002e0 7d 72 1b 3e 24 3f 61 bc ac 5e 0f be 22 90 5e 3d
       0.15180393 -0.013747964 -0.14000958 0.054336675
0002f0 1b c1 eb bd 1a c6 be bd d6 d8 9a bc 8f 5a ea 3d
       -0.11511441 -0.093151286 -0.018902224 0.11443054
000300 39 48 1d 3e 38 77 68 3d 0f 29 d3 3d 80 95 91 3d
       0.15359582 0.05675432 0.10310566 0.07108593
000310 ef 07 34 bd 39 ad 2f bd f2 38 f7 bd 0f fc 86 bd
       -0.04395288 -0.042889807 -0.12071408 -0.06591045
000320 68 d2 94 3d 0a 4b 00 3e b9 b2 e9 3d 0e 3e 30 be
       0.07266694 0.12528625 0.11411042 -0.17211172
000330 d1 05 06 be 11 9d 16 be 1c 5a ac bd d2 d8 14 3e
       -0.13088156 -0.14708354 -0.084156245 0.14535835
000340 82 8d c9 3d fb 64 51 3c 1f 0b b9 3d f4 38 b9 3d
       0.098414436 0.012780423 0.09035324 0.09044066
000350 b7 94 a8 3c 8e 4f bd bd 6a 6b 20 3e 58 62 8a 3d
       0.020578725 -0.092436895 0.15665975 0.06757039
000360 43 cf 22 3e 82 bf 9d bd 8b f3 fe bc 92 40 77 3d
       0.15899377 -0.07702543 -0.03112199 0.060364313
000370 eb a8 d2 3d aa 6e c1 bd 78 d5 1c 3d de 6c 6f 3c
       0.10286125 -0.094449356 0.038289517 0.014613358
000380 33 1a 35 3e 2f 26 10 3d 4d 63 0b be 76 59 5b 3e
       0.17685775 0.035192665 -0.13612099 0.21420845
000390 c6 50 19 3e c5 f5 13 3e 13 24 91 3d e5 1e 81 bc
       0.14972219 0.14449222 0.07086959 -0.015761802
0003a0 66 02 82 bd 82 00 24 3e 0a 6e ef 3d d5 32 11 be
       -0.06348114 0.16015819 0.1169091 -0.14179547
0003b0 bc 36 67 3d c2 be ef 3d 01 99 56 bb 3f 5f 68 3d
       0.056448683 0.11706306 -0.0032745006 0.05673146
0003c0 65 01 e3 bd 3e 89 c1 bd a7 bf 10 be 26 83 c5 3d
       -0.1108425 -0.09450005 -0.1413561 0.09644155
0003d0 33 9e a4 bd 53 1b 0d be bc 51 72 bd 8e 84 0a 3e
       -0.080379866 -0.13779955 -0.05915998 0.13527128
0003e0 d4 8a b2 bd 43 ae 67 bc 0b 29 10 bd 66 fa e9 3d
       -0.087178856 -0.014140668 -0.03519539 0.11424713
0003f0 41 ef f5 3d 83 a0 91 bd 7c 6e 2b 3e d4 a4 0b 3d
       0.12008525 -0.07110693 0.16741365 0.03409274

gcn.lin_n.bias f4 [32]
000000 50 44 cb bd bf 43 08 3e 23 d7 28 be 49 2c 99 3d
       -0.09925139 0.13307093 -0.16488318 0.0747915
000010 d3 df 92 3c d4 c0 2a bd 22 ac 30 3e 4e 2e d1 bd
       0.017928993 -0.0416878 0.17253163 -0.1021391
000020 04 e6 80 b9 97 72 1e be 5a 90 2f 3e ce ec 14 be
       -0.00024585437 -0.154734 0.1714491 -0.14543459
000030 e3 d3 7d bd 2f 3a 88 bd 74 a4 e3 bd 47 c8 1d be
       -0.06196965 -0.06651723 -0.11115351 -0.15408431
000040 32 02 4d 3e 4a af 35 3c 31 ce a4 3c cc 83 b7 3d
       0.20020369 0.011089155 0.020117851 0.08960685
000050 7e 62 c8 3c 9e fc 2b be cf 9e 44 3d 41 ba 32 ae
       0.024461027 -0.16795585 0.048003014 -4.063794e-11
000060 c4 98 2a bd b8 7d a4 bd 54 d8 03 be 74 6a cb bd
       -0.041649595 -0.080317914 -0.12875491 -0.09932414
000070 b3 96 a0 3d 90 73 8d bd ca e8 36 be 7e 49 61 bb
       0.078412436 -0.069068074 -0.1786224 -0.003437608

gcn.lin_r.weight f4 [32, 32]
000000 42 18 6d be 59 6d 09 be 31 24 c3 3d 33 cb 5c 3d
       -0.23153785 -0.13420619 0.09528387 0.053904723
000010 b5 77 7b bd 8c ac 2c 3e 79 32 e7 bd 73 4f e2 bd
       -0.06139346 0.16862696 -0.11288924 -0.1105031
000020 de 44 87 bd 82 65 ab 3e 71 86 42 3e 4e ee 2e b9
       -0.06604932 0.33475882 0.18996598 -0.00016682709
000030 c3 9e 2d be 29 2d 40 be 34 2a 39 bd 85 11 1a be
       -0.16955094 -0.18767227 -0.045206264 -0.15045746
000040 3c f2 2a be 62 83 2d be 26 24 d4 3d d6 29 14 3e
       -0.16693968 -0.1694465 0.10358457 0.14469084
000050 f1 86 c8 bd 19 41 1e 3e b2 df 6b bd 2d cc 6a 3e
       -0.09791363 0.1545452 -0.05758638 0.2292945
000060 8a d6 54 3e 40 9c 72 bd d1 cf 9c bd ba 80 3d 3e
       0.20784965 -0.059231043 -0.07656825 0.18506137
000070 49 33 ad be 5b 91 d0 3d 19 7a 9e b9 e9 9f c5 3b
       -0.3382819 0.10183974 -0.00030227078 0.0060310257
000080 a6 41 28 3d 61 bd df bd 41 e4 6d 39 5e ff 2f 3e
       0.041078232 -0.10924793 0.00022687113 0.17187259
000090 cf 23 0e 3e 35 8f 8b bd 4d 0d 92 3d a2 db 0a bd
       0.13880847 -0.06814424 0.07131443 -0.033900864
0000a0 1b 10 0a 3d ac 40 33 be 8c 82 0c 3e cb fd 0c bd
       0.033706766 -0.17505139 0.13721675 -0.034421723
0000b0 bf 67 2f 3e a4 be 02 3c 54 62 85 bd b9 dd c6 3d
       0.1712942 0.007980023 -0.06512895 0.09710259
0000c0 62 a3 39 3e 54 b1 bc bd 72 2d d4 3d e3 52 cb 3d
       0.18128732 -0.0921351 0.103602305 0.09927919
0000d0 42 c4 1a bd aa cb 9f 3d 26 44 13 3c 6b e4 8d 3d
       -0.037784822 0.07802518 0.008988416 0.06928333
0000e0 5e 95 27 3e 2d 0f ab bd 73 2f 9e 3d 93 3c 1e be
       0.16365573 -0.08352504 0.07723894 -0.15452795
0000f0 fc 8d 1e be 67 88 eb bd 6b a0 9d 3d 5b 04 31 bd
       -0.1548385 -0.11500626 0.07696613 -0.043217044
000100 80 23 ff 3d 75 a2 35 bd 0d 4c 0d bd 0a b0 81 3d
       0.12457943 -0.044344384 -0.034496356 0.06332405
000110 e3 8d d6 3d 5e 74 2e bd d1 2c 1a 3e 32 00 91 3d
       0.104762815 -0.042591445 0.15056159 0.070801154
000120 62 1a 83 bd d1 99 19 3e 0b 84 a2 3c bb c1 75 3d
       -0.064015165 0.15000083 0.019838354 0.05999921
000130 1c 95 6e bd df 7f 24 3d 86 bf 1d be 6c 8f b5 3d
       -0.05824767 0.04016101 -0.15405092 0.08865246
000140 42 70 18 be 23 a8 05 be e1 e3 06 3e 0f da 23 be
       -0.14886573 -0.1305242 0.13172866 -0.16001152
000150 c0 c9 ae bc 13 83 ef bd ca e9 05 3c fb 28 1d 3d
       -0.021336436 -0.11694922 0.008173415 0.03836916
000160 02 45 ac 3d 1d 53 10 3e 08 36 5b 3d 98 64 33 3b
       0.084116 0.14094205 0.053518325 0.002737319
000170 a0 2c 18 be d0 8f 66 3c 0c 0c c7 bd 20 71 80 3c
       -0.14860773 0.0140723735 -0.09719095 0.015678942
000180 6b 35 ec bb ef 78 38 3e e2 74 0e 3e 8f c3 33 bd
       -0.0072085164 0.18014883 0.13911775 -0.04388767
000190 9d 60 1b be b3 24 9e bc 85 6d 61 3d ab 73 06 be
       -0.15173574 -0.019304609 0.055036087 -0.13130061
0001a0 67 8e af 3d 71 bd 43 3d 79 c8 17 be bb 29 2b 3e
       0.08572083 0.047788087 -0.14822568 0.16715138
0001b0 b4 80 1b 3d b3 82 b7 bd 87 a6 f6 bd 7c 7d dd bc
       0.037964538 -0.08960476 -0.12043481 -0.027037375
0001c0 f3 3e 0a 3d c8 30 e4 3d ca ac aa 3c dc 7e 20 bd
       0.03375144 0.11142117 0.020834345 -0.039183483
0001d0 fc e1 51 3d 9f 53 42 3d 3b fc cb bd 4c 46 a6 3d
       0.051240906 0.04744303 -0.099602185 0.08118877
0001e0 4d 09 fb 3b 16 d9 a4 3d c7 2b df 3d 45 ba e8 bd
       0.007661021 0.08049218 0.10897022 -0.11363653
0001f0 df 0f 2c 3d 69 50 a4 3d 31 73 c0 3d bf b7 7d 3d
       0.042007323 0.080231495 0.09396971 0.061942812
000200 ab 95 c0 3d 43 44 fa 3c 10 ed 21 3d 03 8d 3f 3d
       0.09403547 0.030550128 0.03953272 0.04676534
000210 6d 75 9d 3d c8 92 ac 3d a4 25 41 3e 22 7b 42 3d
       0.07688413 0.08426434 0.18862015 0.04748071
000220 75 9e d2 bd 72 98 38 be 8b 94 cb bd ce 6d 84 3d
       -0.102841295 -0.18026903 -0.09940442 0.06466256
000230 5b b5 8c bd 6b ba 54 bc d3 22 98 3c bd f4 ac bd
       -0.06870528 -0.012983899 0.018571293 -0.084451176
000240 ee af 26 3e d6 e4 25 3e b3 82 ca 3c 82 73 14 be
       0.1627805 0.16200575 0.024720525 -0.14497188
000250 d7 37 88 3d fb 0f 4c 3c e0 00 f4 bd 21 f4 33 bd
       0.066512756 0.012454982 -0.119142294 -0.04393399
000260 50 cf ca 3d 68 b9 69 3d e4 d6 2b 3e 8c a9 66 3d
       0.09902823 0.057061583 0.16781193 0.056314036
000270 d2 b3 16 be c4 89 0c be 59 3c 03 be 7b a8 2f 3e
       -0.14717034 -0.13724428 -0.1281599 0.17154114
000280 48 18 3a be 94 55 ad bb 20 c3 18 be 21 cc bd bd
       -0.18173325 -0.0052897427 -0.14918184 -0.0926745
000290 e9 a8 d1 bd 1c 53 46 bd b0 22 44 3c 36 99 06 3d
       -0.10237295 -0.048419103 0.011971161 0.032860957
0002a0 4f 79 23 be 96 10 3f 3c 7c 1c fd bc 83 c1 3f bd
       -0.15964244 0.011661669 -0.030897371 -0.046815407
0002b0 1d e7 03 3e 05 f7 18 be 3c f5 6b bd e9 fa 70 3d
       0.12881131 -0.1493798 -0.05760692 0.058833037
0002c0 89 b2 b7 3b e3 62 81 bd fc 7c a3 3d f1 33 a7 bd
       0.005606 -0.06317689 0.07982823 -0.08164204
0002d0 94 02 09 3e ba 7b ad bd e3 ca b4 bd 71 51 ff bc
       0.1337989 -0.084708646 -0.0882776 -0.031166764
0002e0 1c d2 60 bd 80 d6 f5 bd ce 0f 15 be a1 f1 16 be
       -0.054887876 -0.12003803 -0.1455681 -0.14740612
0002f0 73 25 0c 3e 18 34 0a 3e 7d ff 23 3d 47 f2 8e 3d
       0.1368616 0.13496435 0.040038574 0.069798045
000300 1b 44 4e 3c c7 ad fb 3a 67 de 2a 3e 06 38 c8 3d
       0.01258948 0.001920157 0.16686402 0.097763106
000310 e6 9b 87 3d af 54 ee bd dd 02 55 3d bc ef 5f bd
       0.06621532 -0.11637246 0.052004684 -0.054671988
000320 72 a6 ca 3d 46 cc c1 bd 6c 8f e1 3d 17 72 b9 bd
       0.09895028 -0.0946279 0.11013684 -0.09054964
000330 45 61 2c be 73 88 b3 3b 21 2b a8 bd 03 a0 b0 bd
       -0.1683398 0.0054789125 -0.08211351 -0.0862427
000340 1d f9 92 bd 09 06 a9 3d ec 5b 08 be b9 cd 3f be
       -0.07176421 0.08253104 -0.13316315 -0.1873082
000350 54 f4 cc 3d 79 33 ed 3d a3 a1 92 bd 92 5a 1e be
       0.100075394 0.11582083 -0.07159736 -0.15464237
000360 27 fc 12 be 08 a0 d3 3d 6e 0b 1c be 08 23 b4 3d
       -0.14354001 0.10333258 -0.15238735 0.08795744
000370 c8 2b ab 3d 5b e2 b5 bd 89 71 34 3d 9e c5 e7 3d
       0.0835796 -0.088810645 0.044053588 0.11316989
000380 c8 2e 20 be ad c4 86 bd 7c 4f 2a 3e 22 93 5d 3c
       -0.15642846 -0.06580482 0.16631883 0.013523849
000390 f3 b6 a3 3d ab 65 d0 3d e3 cd d4 bd 85 03 83 3d
       0.07993879 0.101756416 -0.10390832 0.06397156
0003a0 5b fe f8 3d de 88 8e 3d 43 0d 22 bc 08 8c cb 3d
       0.121578895 0.06959699 -0.009890857 0.09938818
0003b0 4a 77 03 3e 5e 1f 93 bd 4c 5b a1 3d a9 7c 31 bc
       0.12838474 -0.07183717 0.078787416 -0.010832944
0003c0 1b 85 c0 3d f3 3b f0 39 3f 6a 0f bd ad 3c 0d be
       0.09400388 0.00045821033 -0.035013434 -0.13792677
0003d0 0b 71 65 3d cc dc a7 bd f1 f4 15 3e b1 d8 dd bd
       0.05601601 -0.081964105 0.14644219 -0.10832346
0003e0 0d b9 6d b8 49 6a b2 3d 3d 52 22 3e 8d 57 1c 3e
       -5.6677545e-05 0.087116785 0.15851684 0.15267773
0003f0 55 44 4d bc c4 d5 12 bd 19 27 1a be cb f2 9f bd
       -0.012528499 -0.035848394 -0.15053977 -0.07809981

gcn.lin_2.weight f4 [32, 32]
000000 68 b1 1b be b5 3d e8 3d 92 29 a4 3c ee 33 39 bd
       -0.15204394 0.11339895 0.020039354 -0.04521554
000010 61 dc 1e 3e 1e 6d b5 bd ac 55 15 3e 74 e2 a4 3d
       0.15513755 -0.08858703 0.14583462 0.08051005
000020 3c 79 84 bd 8c f5 f3 3d 08 05 29 3e 9f 86 0b 3e
       -0.06468436 0.11912069 0.16505826 0.13625573
000030 c1 5b ce bd d6 37 09 3e d1 40 ae 3c c1 6d d0 bd
       -0.100760944 0.13400206 0.021271141 -0.10177184
000040 7e e3 7a bc 27 88 71 3d a4 a9 00 3e 39 7c 1d 3e
       -0.015313027 0.058967736 0.12564713 0.15379418
000050 76 88 d3 3d 94 c5 04 be f1 2e 91 bd be e3 fd 98
       0.10328762 -0.12965995 -0.070890315 -6.5628928e-24
000060 b1 dd 15 be 60 d3 fe 3d 4a 6d 1f 3e 72 cb 0f 3c
       -0.1463535 0.1244266 0.15569034 0.0087765325
000070 f0 b5 b2 bb d5 2b f4 3d c4 b9 b4 3d 83 34 09 be
       -0.0054538175 0.11922423 0.088244945 -0.13398938
000080 65 c9 0f ba c6 1c 43 3d 5f 4c 28 bd 42 f6 d4 bc
       -0.0005485027 0.047634862 -0.04108846 -0.025996331
000090 09 bb c5 3d 3b f9 81 bd 00 84 10 be a1 ff 93 3d
       0.09654815 -0.06346365 -0.14112854 0.07226492
0000a0 f5 25 0b bc 2d d2 88 bd 23 ef 05 3e 8b bb a3 bd
       -0.008492936 -0.06680713 0.13079505 -0.07994755
0000b0 1d eb be 3d 2e 19 0e 3e 48 91 0a 3e 1d ec b1 bd
       0.09322188 0.13876793 0.13531983 -0.08687613
0000c0 e1 92 f8 3d be 6e 80 bc 8f d8 bc 3b db 36 95 bd
       0.1213739 -0.015677806 0.0057631205 -0.072858535
0000d0 a7 0e 1d be 30 6a 8e 3e ef 50 02 3e 65 c3 97 95
       -0.1533762 0.2781539 0.12726186 -6.129669e-26
0000e0 93 a6 48 bd f1 5f b0 3b 18 95 52 bd 7a f9 1f bd
       -0.048986983 0.005382531 -0.051411718 -0.03905628
0000f0 8f 03 2a 3e 7c 2e 5e bd 4e 1e cf bd bf b8 d0 3c
       0.1660292 -0.05424355 -0.10113202 0.025478719
000100 f9 ca 53 be 8a 49 73 bd 62 32 0e be 65 c1 fd bb
       -0.20682897 -0.059396304 -0.13886407 -0.0077440017
000110 e8 f4 f6 3d e9 50 42 3d a4 02 b1 3d ed 2f 9a bd
       0.12058431 0.047440443 0.08643082 -0.07528672
000120 44 7d 00 3e e7 7e a6 3c 48 9f 59 bd d3 c6 0b 3e
       0.12547785 0.020324184 -0.053130418 0.13650064
000130 b0 21 32 3d de 36 4c 3d e3 1b 09 be 0f 2c 22 be
       0.04348916 0.049857013 -0.13389544 -0.1583712
000140 1b c9 04 3e 6f 30 35 be b2 59 09 3e 74 1d 63 3d
       0.1296734 -0.17694257 0.13413122 0.05544801
000150 20 89 1f 3b c3 16 ad be 85 09 56 3c c0 17 eb 96
       0.0024343207 -0.33806428 0.013063793 -3.7981286e-25
000160 c7 27 89 bd f4 e8 0a 3e 58 13 25 be fc b9 dd 3d
       -0.0669704 0.13565427 -0.1612066 0.10826489
000170 5f f4 7f 3a 07 18 1f 3c 30 63 05 be 31 60 0b bd
       0.0009763892 0.009710318 -0.13026118 -0.034027282
000180 9a d8 f0 3d 14 78 7d 3d 63 8f 74 3d 22 d1 2f 3e
       0.117600635 0.061882094 0.059707057 0.17169622
000190 20 8f c6 bd 29 2e 4d 3d c0 6c 92 bd a3 a1 c2 bd
       -0.09695268 0.05009285 -0.07149649 -0.09503486
0001a0 7b fa dc bd 65 e5 01 3e e7 3f 4f 3d 4b 29 ac 3d
       -0.10789963 0.12685163 0.05059805 0.084063135
0001b0 82 8f 6e bc 80 bb 26 3e ca 8c aa 3b a1 ae 5d 3a
       -0.014560582 0.16282463 0.0052047716 0.00084565027
0001c0 f4 c7 36 3e e4 d4 1c be 25 57 66 bd 64 ce b6 3d
       0.17849714 -0.15315586 -0.05623545 0.08926085
0001d0 03 ca ca bc 75 68 ee bd dd 4e ad 3d e6 e6 20 17
       -0.02475453 -0.11641017 0.084623076 5.1990223e-25
0001e0 57 14 b8 3d 0c 91 76 bd 67 df 00 3e 82 81 28 be
       0.089882545 -0.06019692 0.12585221 -0.16455653
0001f0 f8 d5 8f bd 06 36 f0 bd b6 7e 08 3e fd 2b b7 bd
       -0.07023233 -0.11729054 0.13329586 -0.08943937
000200 87 e9 9b bd a7 95 f7 3d 8a 4b bd bd 0c 25 e0 3d
       -0.07612901 0.12089091 -0.092429236 0.10944566
000210 3a 01 af 3d 4a 61 f7 bd e0 40 04 3e 9e 65 a3 3d
       0.08545156 -0.12079103 0.12915373 0.07978366
000220 73 c7 5c bd d5 8f 25 3d 3d 3c e9 bc a3 0c de bd
       -0.053901147 0.040420372 -0.028471107 -0.10842254
000230 bf 74 72 3d ed d2 fe bd 16 71 28 bd 2a 59 0a bc
       0.05919337 -0.12442575 -0.041123472 -0.00844411
000240 94 25 20 3e a1 de e5 3b c6 f4 52 3d 11 49 c6 3d
       0.15639335 0.007015065 0.051502965 0.09681905
000250 bd cf 9a 3d e5 c8 a1 be 64 b4 d2 bd a0 b6 b8 96
       0.07559154 -0.31598583 -0.10288313 -2.9842056e-25
000260 93 d0 1b be 6f 06 db bd 46 01 3c 3d de e4 12 3e
       -0.15216284 -0.106945865 0.045899652 0.14345118
000270 05 a0 e8 3d 26 52 54 3a 4e c0 1d be 12 5c c8 bd
       0.11358646 0.0008099399 -0.1540539 -0.09783186
000280 51 1d 4d 3e 51 66 91 bd cc d4 d0 bd b5 38 48 be
       0.20030715 -0.070995934 -0.10196838 -0.19552882
000290 30 2a d9 3d d4 7a bc bc 07 99 f2 3d 6f 81 bd bd
       0.1060375 -0.023007788 0.11845594 -0.09253203
0002a0 c7 ca 1e 3e 8e a6 bf 3d e1 0c b5 bd 54 7d 16 be
       0.15507041 0.0935794 -0.08840347 -0.14696246
0002b0 67 a8 91 bd 2e 13 29 bc 93 0b b0 3d b8 14 56 3d
       -0.07112198 -0.010319514 0.085959576 0.052265853
0002c0 55 b2 30 bd cf 9f 30 3e 03 37 02 be 4d 2b 0b bd
       -0.04313882 0.17248462 -0.12716298 -0.03397684
0002d0 cb 75 25 be fa 1b e4 3d cb b1 c9 bd 18 9f 9c 96
       -0.16158216 0.111381486 -0.098483644 -2.5303562e-25
0002e0 69 5f 26 be e3 76 d9 3d f8 0b 65 bd 84 45 ea 3d
       -0.16247334 0.10618379 -0.055919617 0.1143904
0002f0 9e 45 19 3e 64 31 0c bd b7 1a d1 bc e6 c4 81 3d
       0.14967963 -0.03422679 -0.025525434 0.063363835
000300 43 b3 3a 3d ce c8 61 bd 34 55 5b bd 0b 5c 11 3e
       0.045581114 -0.055123143 -0.053548053 0.14195268
000310 17 f8 36 bd b9 68 fd bd 3e f9 0e be f4 d9 f0 bd
       -0.04467019 -0.1237349 -0.13962266 -0.11760321
000320 b3 ae 9c bd a2 bf 04 3c e9 54 76 3d fd 50 ab 3d
       -0.07650509 0.008102329 0.06013957 0.08365057
000330 e1 3f ed bd 84 f1 3c 39 db c6 97 bd 31 e3 25 3e
       -0.115844496 0.00018019049 -0.074109755 0.16199948
000340 3c 1d 86 3d 9b 1f a7 bd a6 f8 1b be 73 93 51 bc
       0.06548545 -0.08160325 -0.1523157 -0.012791502
000350 16 4a be 3d d2 85 0b be 13 bd 0d 3e 3f e6 9b 96
       0.092914745 -0.13625267 0.13841657 -2.5186906e-25
000360 1c 56 fe bd 49 68 05 3e 0b 2f 2c 3e d8 ca 00 3e
       -0.12418768 0.13028063 0.1681482 0.12577379
000370 28 84 1d 3e 33 ef ad 3d b0 1a 16 3d d3 18 22 bd
       0.15382445 0.08492889 0.036646545 -0.039574455
000380 d4 b7 89 3e 50 f8 e2 3c ed f4 eb ba 42 74 d6 bd
       0.26898062 0.027706295 -0.0018002071 -0.10471393
000390 dd e7 d3 3a 1b ce 42 3d 66 ef c2 bc 76 9d 38 be
       0.0016167123 0.04755984 -0.023795795 -0.18028817
0003a0 a3 38 b3 bc e8 14 9b 3d e5 d2 ea 3c 11 e1 a4 bc
       -0.021877592 0.07572347 0.028665015 -0.020126851
0003b0 8f 7f cb bd d0 18 b8 bd 49 02 0f be e0 ee d5 3c
       -0.09936439 -0.089891076 -0.13965715 0.026114881
0003c0 e5 8f 04 be c8 37 02 3e 4b 69 37 be cb 93 fb bd
       -0.12945516 0.12716591 -0.1791126 -0.12284049
0003d0 6a 38 50 bd 68 6f 9c 3e 06 34 fe 3d ed 70 de 17
       -0.05083505 0.30553746 0.124122664 1.437492e-24
0003e0 0f 55 2e 3d 2b 21 f5 3d 59 74 18 3e d1 39 57 bb
       0.042561587 0.11969217 0.14888133 -0.0032840858
0003f0 a2 91 72 3d 05 40 e9 bd 52 1d c9 bd 96 e6 be 3c
       0.059220918 -0.11389164 -0.098200455 0.023303311

gcn.lin_2.bias f4 [32]
000000 3f 9e fd 3d 6a 11 d2 bd 69 86 62 3d 3f ff 4c 3e
       0.12383699 -0.10257228 0.055303965 0.20019244
000010 54 2d 0c 3d 68 bd 2e be 4b 8a a9 3d c2 0e 96 bd
       0.034222916 -0.1706444 0.082783304 -0.073270336
000020 6a ac 97 3d 35 b2 fb bd e6 54 e3 bc 86 47 af bd
       0.07405932 -0.1228985 -0.027750444 -0.08558564
000030 d7 f1 7f bd 23 82 1e 3e 48 24 3a 3e 74 fe 8f bd
       -0.062486496 0.1547933 0.18177903 -0.07030955
000040 db 09 d4 bd 9b 27 45 bc c7 8a ac bc 25 2f 1b 3e
       -0.10353442 -0.012033368 -0.021062268 0.15154703
000050 51 66 b3 3b d4 cc 0c be 84 f9 9d bd 5c 41 b1 bd
       0.0054748436 -0.1375001 -0.07713607 -0.086550444
000060 f4 21 28 3e 58 25 d7 bb 6d a1 3a bd 4e 54 15 be
       0.16419202 -0.006565731 -0.045564104 -0.14582941
000070 27 6f 12 3e 2b 2a 55 bc 02 95 74 3b 8d 2a 11 bd
       0.14300214 -0.013010542 0.003732026 -0.03544097

nf.base_dist_mean f4 [51, 1]
000000 0c 3e 80 bf 7a 1f ae be 1c f9 19 3f 36 39 1d c0
       -1.0018935 -0.3400839 0.60145736 -2.4566169
000010 ec bb a5 3f 30 5b 58 3f 0e 60 4f 3f 01 03 0a bf
       1.2947974 0.8451414 0.8100594 -0.53910834
000020 31 5b 81 bd f7 a5 b0 3f 70 13 0a 3f ee 48 a2 bf
       -0.063162215 1.3800648 0.5393591 -1.2678506
000030 8b d0 f1 3f 38 4c 60 3f 69 01 27 40 5e da 87 3f
       1.8891767 0.876163 2.609461 1.0613515
000040 6e 93 37 c0 71 ed 01 bf 9a 09 0c c0 1e 7c da 3f
       -2.8683734 -0.5075293 -2.188086 1.7069128
000050 27 6a dd 3e 90 f1 a9 bf e8 07 cd 3c 1e 65 35 bf
       0.4324505 -1.3276844 0.025028184 -0.7085742
000060 f8 10 1d c0 d8 34 b3 bf 88 48 91 bd bf 7e 76 3f
       -2.4541607 -1.4000502 -0.07093912 0.9628715
000070 25 d0 96 be e3 4a 07 bf 22 60 94 bf e6 d8 14 3f
       -0.29455677 -0.52848643 -1.1591837 0.5814346
000080 da d1 a4 bf 84 0b 50 bf fd 91 9f bf 43 5b b1 3f
       -1.2876542 -0.8126757 -1.2466427 1.3855976
000090 8e 84 43 bf 3e d5 89 bf 65 ad 9e bf 2e 84 13 3f
       -0.7637414 -1.0768201 -1.2396666 0.57623565
0000a0 92 fe 5a 3e 4e c2 78 3f 95 8d 25 bf 21 cd 3d 3c
       0.21386173 0.97171485 -0.6466916 0.011584551
0000b0 16 1c 96 3d b6 2c e7 3f a8 a6 27 bf b5 66 30 3f
       0.07329576 1.806052 -0.6548867 0.6890672
0000c0 23 9b e0 bc 7f ba 07 3e 12 f8 1f bf
       -0.027417725 0.13254736 -0.624879

nf.base_dist_var f4 [51, 1]
000000 00 00 80 3f 00 00 80 3f 00 00 80 3f 00 00 80 3f
       1.0 1.0 1.0 1.0
000010 00 00 80 3f 00 00 80 3f 00 00 80 3f 00 00 80 3f
       1.0 1.0 1.0 1.0
000020 00 00 80 3f 00 00 80 3f 00 00 80 3f 00 00 80 3f
       1.0 1.0 1.0 1.0
000030 00 00 80 3f 00 00 80 3f 00 00 80 3f 00 00 80 3f
       1.0 1.0 1.0 1.0
000040 00 00 80 3f 00 00 80 3f 00 00 80 3f 00 00 80 3f
       1.0 1.0 1.0 1.0
000050 00 00 80 3f 00 00 80 3f 00 00 80 3f 00 00 80 3f
       1.0 1.0 1.0 1.0
000060 00 00 80 3f 00 00 80 3f 00 00 80 3f 00 00 80 3f
       1.0 1.0 1.0 1.0
000070 00 00 80 3f 00 00 80 3f 00 00 80 3f 00 00 80 3f
       1.0 1.0 1.0 1.0
000080 00 00 80 3f 00 00 80 3f 00 00 80 3f 00 00 80 3f
       1.0 1.0 1.0 1.0
000090 00 00 80 3f 00 00 80 3f 00 00 80 3f 00 00 80 3f
       1.0 1.0 1.0 1.0
0000a0 00 00 80 3f 00 00 80 3f 00 00 80 3f 00 00 80 3f
       1.0 1.0 1.0 1.0
0000b0 00 00 80 3f 00 00 80 3f 00 00 80 3f 00 00 80 3f
       1.0 1.0 1.0 1.0
0000c0 00 00 80 3f 00 00 80 3f 00 00 80 3f
       1.0 1.0 1.0

nf.net.0.net_input.weight f4 [32, 1]
000000 17 4f 0c 3f 1c 4e 0e 3f 1e e7 33 3f 76 ea a7 3e
       0.5480818 0.55587935 0.7027453 0.32796067
000010 6c 7a 38 bf 0a bf 14 3f 99 1d 38 3f 34 f8 f9 be
       -0.720618 0.58104 0.7192016 -0.48822176
000020 29 cb 4a 3e 41 6c 37 bf 26 ac 50 bf a9 0b 47 3f
       0.19804062 -0.7164956 -0.8151268 0.77752167
000030 d0 7c 7d 3d cf 65 8b 3e 15 9c 16 bf 1f 37 ac be
       0.06188661 0.2722611 -0.5883191 -0.33635804
000040 a4 da 46 3f 9c a4 0c bf 1b f2 b0 3e 89 71 82 bf
       0.7767737 -0.54938674 0.34559712 -1.0190898
000050 fa 4c 6b be 71 67 56 3f c8 76 d6 be f1 fb 02 3f
       -0.22978583 0.8375159 -0.41887498 0.5116568
000060 ab 3e 08 bf ad 01 46 bf c6 de cf 3e 4e c1 f3 3e
       -0.53220624 -0.7734631 0.4059965 0.47608417
000070 ad 9a 43 be b5 bb 1f bf b3 dd 3e be a4 ed 27 3f
       -0.19101973 -0.62395793 -0.18639259 0.65596986

nf.net.0.net_input.bias f4 [32]
000000 d2 2a 4c 3d fa 9f 6a 3d 5c 59 81 3f c3 8a f5 bc
       0.049845524 0.05728147 1.0105395 -0.029973393
000010 85 3b 8c bf ab 9b f5 be 61 c1 aa 3e b2 4a 17 3e
       -1.0955664 -0.47970328 0.3335066 0.14774588
000020 89 6f 87 3e a8 0f c0 3d 24 4e dc bd ac 91 20 3f
       0.26452282 0.09377986 -0.10757092 0.6272228
000030 88 80 75 bf 4a fa 7b bf 6d 60 22 3e 91 db 8d 3e
       -0.9589925 -0.98428786 0.15857096 0.27706578
000040 97 81 69 3f 88 15 2a 3f 78 2a 8b 3e b7 66 e8 bc
       0.91213363 0.66439104 0.2718084 -0.02836929
000050 cc 1d 75 3f 59 92 e8 3e 2e 0b 6e bf 62 79 ed 3e
       0.9574859 0.45424154 -0.9298581 0.4638167
000060 bc 3d 75 3f a1 b1 7d 3f a8 df 0d bf db 60 6e 3f
       0.95797324 0.99099165 -0.554194 0.9311654
000070 2b dd 20 3f 45 00 f9 3e 5d f0 07 bf 94 39 81 3f
       0.62837476 0.48633018 -0.5310114 1.0095696
